program(1.0)
[buildInfo = dict<tensor<string, []>, tensor<string, []>>({{"coremlc-component-MIL", "3510.2.1"}, {"coremlc-version", "3500.32.1"}, {"coremltools-component-torch", "2.10.0"}, {"coremltools-source-dialect", "TorchScript"}, {"coremltools-version", "7.2"}})]
{
    func main<ios15>(tensor<int32, [1, 128]> attention_mask, tensor<int32, [1, 128]> input_ids, tensor<int32, [1, 128]> token_type_ids) {
            tensor<int32, [1]> input_tensor_1_axes_0 = const()[name = tensor<string, []>("input_tensor_1_axes_0"), val = tensor<int32, [1]>([1])];
            tensor<int32, [1, 1, 128]> input_tensor_1 = expand_dims(axes = input_tensor_1_axes_0, x = attention_mask)[name = tensor<string, []>("input_tensor_1")];
            tensor<int32, [1]> input_tensor_3_axes_0 = const()[name = tensor<string, []>("input_tensor_3_axes_0"), val = tensor<int32, [1]>([2])];
            tensor<int32, [1, 1, 1, 128]> input_tensor_3 = expand_dims(axes = input_tensor_3_axes_0, x = input_tensor_1)[name = tensor<string, []>("input_tensor_3")];
            tensor<fp16, []> Constant_value_to_fp16 = const()[name = tensor<string, []>("Constant_value_to_fp16"), val = tensor<fp16, []>(0x1p+0)];
            tensor<string, []> second_1_to_fp16_dtype_0 = const()[name = tensor<string, []>("second_1_to_fp16_dtype_0"), val = tensor<string, []>("fp16")];
            tensor<fp16, [1, 1, 1, 128]> cast_339 = cast(dtype = second_1_to_fp16_dtype_0, x = input_tensor_3)[name = tensor<string, []>("cast_339")];
            tensor<fp16, [1, 1, 1, 128]> first_3_cast_fp16 = sub(x = Constant_value_to_fp16, y = cast_339)[name = tensor<string, []>("first_3_cast_fp16")];
            tensor<fp16, []> Constant_1_value_to_fp16 = const()[name = tensor<string, []>("Constant_1_value_to_fp16"), val = tensor<fp16, []>(-inf)];
            tensor<fp16, [1, 1, 1, 128]> second_27_cast_fp16 = mul(x = first_3_cast_fp16, y = Constant_1_value_to_fp16)[name = tensor<string, []>("second_27_cast_fp16")];
            tensor<int32, []> first_5_axis_0 = const()[name = tensor<string, []>("first_5_axis_0"), val = tensor<int32, []>(0)];
            tensor<fp16, [30522, 1024]> initializers_onnx_initializer_0_to_fp16 = const()[name = tensor<string, []>("initializers_onnx_initializer_0_to_fp16"), val = tensor<fp16, [30522, 1024]>(BLOBFILE(path = tensor<string, []>("@model_path/weights/weight.bin"), offset = tensor<uint64, []>(64)))];
            tensor<fp16, [1, 128, 1024]> first_5_cast_fp16 = gather(axis = first_5_axis_0, indices = input_ids, x = initializers_onnx_initializer_0_to_fp16)[name = tensor<string, []>("first_5_cast_fp16")];
            tensor<int32, []> second_5_axis_0 = const()[name = tensor<string, []>("second_5_axis_0"), val = tensor<int32, []>(0)];
            tensor<fp16, [2, 1024]> initializers_onnx_initializer_1_to_fp16 = const()[name = tensor<string, []>("initializers_onnx_initializer_1_to_fp16"), val = tensor<fp16, [2, 1024]>(BLOBFILE(path = tensor<string, []>("@model_path/weights/weight.bin"), offset = tensor<uint64, []>(62509184)))];
            tensor<fp16, [1, 128, 1024]> second_5_cast_fp16 = gather(axis = second_5_axis_0, indices = token_type_ids, x = initializers_onnx_initializer_1_to_fp16)[name = tensor<string, []>("second_5_cast_fp16")];
            tensor<fp16, [1, 128, 1024]> first_7_cast_fp16 = add(x = first_5_cast_fp16, y = second_5_cast_fp16)[name = tensor<string, []>("first_7_cast_fp16")];
            tensor<fp16, [1, 128, 1024]> second_7_to_fp16 = const()[name = tensor<string, []>("second_7_to_fp16"), val = tensor<fp16, [1, 128, 1024]>(BLOBFILE(path = tensor<string, []>("@model_path/weights/weight.bin"), offset = tensor<uint64, []>(62513344)))];
            tensor<fp16, [1, 128, 1024]> input_tensor_15_cast_fp16 = add(x = first_7_cast_fp16, y = second_7_to_fp16)[name = tensor<string, []>("input_tensor_15_cast_fp16")];
            tensor<bool, []> var_1961 = const()[name = tensor<string, []>("op_1961"), val = tensor<bool, []>(true)];
            tensor<int32, [1]> var_1963 = const()[name = tensor<string, []>("op_1963"), val = tensor<int32, [1]>([-1])];
            tensor<fp16, [1, 128, 1]> second_9_cast_fp16 = reduce_mean(axes = var_1963, keep_dims = var_1961, x = input_tensor_15_cast_fp16)[name = tensor<string, []>("second_9_cast_fp16")];
            tensor<fp16, [1, 128, 1024]> input_tensor_17_cast_fp16 = sub(x = input_tensor_15_cast_fp16, y = second_9_cast_fp16)[name = tensor<string, []>("input_tensor_17_cast_fp16")];
            tensor<fp16, []> embeddings_LayerNorm_Constant_value_to_fp16 = const()[name = tensor<string, []>("embeddings_LayerNorm_Constant_value_to_fp16"), val = tensor<fp16, []>(0x1p+1)];
            tensor<fp16, [1, 128, 1024]> input_tensor_19_cast_fp16 = pow(x = input_tensor_17_cast_fp16, y = embeddings_LayerNorm_Constant_value_to_fp16)[name = tensor<string, []>("input_tensor_19_cast_fp16")];
            tensor<bool, []> var_1969 = const()[name = tensor<string, []>("op_1969"), val = tensor<bool, []>(true)];
            tensor<int32, [1]> var_1971 = const()[name = tensor<string, []>("op_1971"), val = tensor<int32, [1]>([-1])];
            tensor<fp16, [1, 128, 1]> first_9_cast_fp16 = reduce_mean(axes = var_1971, keep_dims = var_1969, x = input_tensor_19_cast_fp16)[name = tensor<string, []>("first_9_cast_fp16")];
            tensor<fp16, []> embeddings_LayerNorm_Constant_1_value_to_fp16 = const()[name = tensor<string, []>("embeddings_LayerNorm_Constant_1_value_to_fp16"), val = tensor<fp16, []>(0x1p-24)];
            tensor<fp16, [1, 128, 1]> input_tensor_21_cast_fp16 = add(x = first_9_cast_fp16, y = embeddings_LayerNorm_Constant_1_value_to_fp16)[name = tensor<string, []>("input_tensor_21_cast_fp16")];
            tensor<fp16, [1, 128, 1]> second_13_cast_fp16 = sqrt(x = input_tensor_21_cast_fp16)[name = tensor<string, []>("second_13_cast_fp16")];
            tensor<fp16, [1, 128, 1024]> first_11_cast_fp16 = real_div(x = input_tensor_17_cast_fp16, y = second_13_cast_fp16)[name = tensor<string, []>("first_11_cast_fp16")];
            tensor<fp16, [1024]> initializers_onnx_initializer_3_to_fp16 = const()[name = tensor<string, []>("initializers_onnx_initializer_3_to_fp16"), val = tensor<fp16, [1024]>(BLOBFILE(path = tensor<string, []>("@model_path/weights/weight.bin"), offset = tensor<uint64, []>(62775552)))];
            tensor<fp16, [1, 128, 1024]> first_13_cast_fp16 = mul(x = first_11_cast_fp16, y = initializers_onnx_initializer_3_to_fp16)[name = tensor<string, []>("first_13_cast_fp16")];
            tensor<fp16, [1024]> initializers_onnx_initializer_4_to_fp16 = const()[name = tensor<string, []>("initializers_onnx_initializer_4_to_fp16"), val = tensor<fp16, [1024]>(BLOBFILE(path = tensor<string, []>("@model_path/weights/weight.bin"), offset = tensor<uint64, []>(62777664)))];
            tensor<fp16, [1, 128, 1024]> x_3_cast_fp16 = add(x = first_13_cast_fp16, y = initializers_onnx_initializer_4_to_fp16)[name = tensor<string, []>("x_3_cast_fp16")];
            tensor<fp16, [1024, 1024]> input_tensor_45_weight_0_to_fp16 = const()[name = tensor<string, []>("input_tensor_45_weight_0_to_fp16"), val = tensor<fp16, [1024, 1024]>(BLOBFILE(path = tensor<string, []>("@model_path/weights/weight.bin"), offset = tensor<uint64, []>(62779776)))];
            tensor<fp16, [1024]> input_tensor_45_bias_0_to_fp16 = const()[name = tensor<string, []>("input_tensor_45_bias_0_to_fp16"), val = tensor<fp16, [1024]>(BLOBFILE(path = tensor<string, []>("@model_path/weights/weight.bin"), offset = tensor<uint64, []>(64876992)))];
            tensor<fp16, [1, 128, 1024]> input_tensor_45_cast_fp16 = linear(bias = input_tensor_45_bias_0_to_fp16, weight = input_tensor_45_weight_0_to_fp16, x = x_3_cast_fp16)[name = tensor<string, []>("input_tensor_45_cast_fp16")];
            tensor<fp16, [1024, 1024]> input_tensor_23_weight_0_to_fp16 = const()[name = tensor<string, []>("input_tensor_23_weight_0_to_fp16"), val = tensor<fp16, [1024, 1024]>(BLOBFILE(path = tensor<string, []>("@model_path/weights/weight.bin"), offset = tensor<uint64, []>(64879104)))];
            tensor<fp16, [1024]> input_tensor_23_bias_0_to_fp16 = const()[name = tensor<string, []>("input_tensor_23_bias_0_to_fp16"), val = tensor<fp16, [1024]>(BLOBFILE(path = tensor<string, []>("@model_path/weights/weight.bin"), offset = tensor<uint64, []>(66976320)))];
            tensor<fp16, [1, 128, 1024]> input_tensor_23_cast_fp16 = linear(bias = input_tensor_23_bias_0_to_fp16, weight = input_tensor_23_weight_0_to_fp16, x = x_3_cast_fp16)[name = tensor<string, []>("input_tensor_23_cast_fp16")];
            tensor<int32, [4]> var_2031 = const()[name = tensor<string, []>("op_2031"), val = tensor<int32, [4]>([1, 128, 16, 64])];
            tensor<fp16, [1, 128, 16, 64]> input_tensor_57_cast_fp16 = reshape(shape = var_2031, x = input_tensor_23_cast_fp16)[name = tensor<string, []>("input_tensor_57_cast_fp16")];
            tensor<fp16, [1024, 1024]> input_tensor_33_weight_0_to_fp16 = const()[name = tensor<string, []>("input_tensor_33_weight_0_to_fp16"), val = tensor<fp16, [1024, 1024]>(BLOBFILE(path = tensor<string, []>("@model_path/weights/weight.bin"), offset = tensor<uint64, []>(66978432)))];
            tensor<fp16, [1024]> input_tensor_33_bias_0_to_fp16 = const()[name = tensor<string, []>("input_tensor_33_bias_0_to_fp16"), val = tensor<fp16, [1024]>(BLOBFILE(path = tensor<string, []>("@model_path/weights/weight.bin"), offset = tensor<uint64, []>(69075648)))];
            tensor<fp16, [1, 128, 1024]> input_tensor_33_cast_fp16 = linear(bias = input_tensor_33_bias_0_to_fp16, weight = input_tensor_33_weight_0_to_fp16, x = x_3_cast_fp16)[name = tensor<string, []>("input_tensor_33_cast_fp16")];
            tensor<int32, [4]> var_2081 = const()[name = tensor<string, []>("op_2081"), val = tensor<int32, [4]>([1, 128, 16, 64])];
            tensor<fp16, [1, 128, 16, 64]> input_tensor_43_cast_fp16 = reshape(shape = var_2081, x = input_tensor_33_cast_fp16)[name = tensor<string, []>("input_tensor_43_cast_fp16")];
            tensor<int32, [4]> var_2087 = const()[name = tensor<string, []>("op_2087"), val = tensor<int32, [4]>([0, 2, 1, 3])];
            tensor<int32, [4]> var_2134 = const()[name = tensor<string, []>("op_2134"), val = tensor<int32, [4]>([1, 128, 16, 64])];
            tensor<fp16, [1, 128, 16, 64]> input_tensor_55_cast_fp16 = reshape(shape = var_2134, x = input_tensor_45_cast_fp16)[name = tensor<string, []>("input_tensor_55_cast_fp16")];
            tensor<bool, []> first_21_transpose_x_0 = const()[name = tensor<string, []>("first_21_transpose_x_0"), val = tensor<bool, []>(false)];
            tensor<bool, []> first_21_transpose_y_0 = const()[name = tensor<string, []>("first_21_transpose_y_0"), val = tensor<bool, []>(false)];
            tensor<int32, [4]> transpose_240_perm_0 = const()[name = tensor<string, []>("transpose_240_perm_0"), val = tensor<int32, [4]>([0, 2, -3, -1])];
            tensor<int32, [4]> transpose_241_perm_0 = const()[name = tensor<string, []>("transpose_241_perm_0"), val = tensor<int32, [4]>([0, 2, -1, -3])];
            tensor<fp16, [1, 16, 64, 128]> transpose_381 = transpose(perm = transpose_241_perm_0, x = input_tensor_57_cast_fp16)[name = tensor<string, []>("transpose_381")];
            tensor<fp16, [1, 16, 128, 64]> transpose_382 = transpose(perm = transpose_240_perm_0, x = input_tensor_55_cast_fp16)[name = tensor<string, []>("transpose_382")];
            tensor<fp16, [1, 16, 128, 128]> first_21_cast_fp16 = matmul(transpose_x = first_21_transpose_x_0, transpose_y = first_21_transpose_y_0, x = transpose_382, y = transpose_381)[name = tensor<string, []>("first_21_cast_fp16")];
            tensor<fp16, []> _inversed_first_23_y_0_to_fp16 = const()[name = tensor<string, []>("_inversed_first_23_y_0_to_fp16"), val = tensor<fp16, []>(0x1p-3)];
            tensor<fp16, [1, 16, 128, 128]> _inversed_first_23_cast_fp16 = mul(x = first_21_cast_fp16, y = _inversed_first_23_y_0_to_fp16)[name = tensor<string, []>("_inversed_first_23_cast_fp16")];
            tensor<fp16, [1, 16, 128, 128]> input_tensor_59_cast_fp16 = add(x = _inversed_first_23_cast_fp16, y = second_27_cast_fp16)[name = tensor<string, []>("input_tensor_59_cast_fp16")];
            tensor<int32, []> var_2153 = const()[name = tensor<string, []>("op_2153"), val = tensor<int32, []>(-1)];
            tensor<fp16, [1, 16, 128, 128]> result_1_cast_fp16 = softmax(axis = var_2153, x = input_tensor_59_cast_fp16)[name = tensor<string, []>("result_1_cast_fp16")];
            tensor<bool, []> input_tensor_63_transpose_x_0 = const()[name = tensor<string, []>("input_tensor_63_transpose_x_0"), val = tensor<bool, []>(false)];
            tensor<bool, []> input_tensor_63_transpose_y_0 = const()[name = tensor<string, []>("input_tensor_63_transpose_y_0"), val = tensor<bool, []>(false)];
            tensor<fp16, [1, 16, 128, 64]> transpose_383 = transpose(perm = var_2087, x = input_tensor_43_cast_fp16)[name = tensor<string, []>("transpose_383")];
            tensor<fp16, [1, 16, 128, 64]> input_tensor_63_cast_fp16 = matmul(transpose_x = input_tensor_63_transpose_x_0, transpose_y = input_tensor_63_transpose_y_0, x = result_1_cast_fp16, y = transpose_383)[name = tensor<string, []>("input_tensor_63_cast_fp16")];
            tensor<int32, [4]> var_2171 = const()[name = tensor<string, []>("op_2171"), val = tensor<int32, [4]>([0, 2, 1, 3])];
            tensor<int32, [3]> var_2216 = const()[name = tensor<string, []>("op_2216"), val = tensor<int32, [3]>([1, 128, 1024])];
            tensor<fp16, [1, 128, 16, 64]> transpose_380 = transpose(perm = var_2171, x = input_tensor_63_cast_fp16)[name = tensor<string, []>("transpose_380")];
            tensor<fp16, [1, 128, 1024]> x_9_cast_fp16 = reshape(shape = var_2216, x = transpose_380)[name = tensor<string, []>("x_9_cast_fp16")];
            tensor<fp16, [1024, 1024]> first_27_weight_0_to_fp16 = const()[name = tensor<string, []>("first_27_weight_0_to_fp16"), val = tensor<fp16, [1024, 1024]>(BLOBFILE(path = tensor<string, []>("@model_path/weights/weight.bin"), offset = tensor<uint64, []>(69077760)))];
            tensor<fp16, [1024]> first_27_bias_0_to_fp16 = const()[name = tensor<string, []>("first_27_bias_0_to_fp16"), val = tensor<fp16, [1024]>(BLOBFILE(path = tensor<string, []>("@model_path/weights/weight.bin"), offset = tensor<uint64, []>(71174976)))];
            tensor<fp16, [1, 128, 1024]> first_27_cast_fp16 = linear(bias = first_27_bias_0_to_fp16, weight = first_27_weight_0_to_fp16, x = x_9_cast_fp16)[name = tensor<string, []>("first_27_cast_fp16")];
            tensor<fp16, [1, 128, 1024]> input_tensor_75_cast_fp16 = add(x = first_27_cast_fp16, y = x_3_cast_fp16)[name = tensor<string, []>("input_tensor_75_cast_fp16")];
            tensor<bool, []> var_2224 = const()[name = tensor<string, []>("op_2224"), val = tensor<bool, []>(true)];
            tensor<int32, [1]> var_2226 = const()[name = tensor<string, []>("op_2226"), val = tensor<int32, [1]>([-1])];
            tensor<fp16, [1, 128, 1]> second_31_cast_fp16 = reduce_mean(axes = var_2226, keep_dims = var_2224, x = input_tensor_75_cast_fp16)[name = tensor<string, []>("second_31_cast_fp16")];
            tensor<fp16, [1, 128, 1024]> input_tensor_77_cast_fp16 = sub(x = input_tensor_75_cast_fp16, y = second_31_cast_fp16)[name = tensor<string, []>("input_tensor_77_cast_fp16")];
            tensor<fp16, []> encoder_layer_0_attention_output_LayerNorm_Constant_value_to_fp16 = const()[name = tensor<string, []>("encoder_layer_0_attention_output_LayerNorm_Constant_value_to_fp16"), val = tensor<fp16, []>(0x1p+1)];
            tensor<fp16, [1, 128, 1024]> input_tensor_79_cast_fp16 = pow(x = input_tensor_77_cast_fp16, y = encoder_layer_0_attention_output_LayerNorm_Constant_value_to_fp16)[name = tensor<string, []>("input_tensor_79_cast_fp16")];
            tensor<bool, []> var_2232 = const()[name = tensor<string, []>("op_2232"), val = tensor<bool, []>(true)];
            tensor<int32, [1]> var_2234 = const()[name = tensor<string, []>("op_2234"), val = tensor<int32, [1]>([-1])];
            tensor<fp16, [1, 128, 1]> first_29_cast_fp16 = reduce_mean(axes = var_2234, keep_dims = var_2232, x = input_tensor_79_cast_fp16)[name = tensor<string, []>("first_29_cast_fp16")];
            tensor<fp16, []> encoder_layer_0_attention_output_LayerNorm_Constant_1_value_to_fp16 = const()[name = tensor<string, []>("encoder_layer_0_attention_output_LayerNorm_Constant_1_value_to_fp16"), val = tensor<fp16, []>(0x1p-24)];
            tensor<fp16, [1, 128, 1]> input_tensor_81_cast_fp16 = add(x = first_29_cast_fp16, y = encoder_layer_0_attention_output_LayerNorm_Constant_1_value_to_fp16)[name = tensor<string, []>("input_tensor_81_cast_fp16")];
            tensor<fp16, [1, 128, 1]> second_35_cast_fp16 = sqrt(x = input_tensor_81_cast_fp16)[name = tensor<string, []>("second_35_cast_fp16")];
            tensor<fp16, [1, 128, 1024]> first_31_cast_fp16 = real_div(x = input_tensor_77_cast_fp16, y = second_35_cast_fp16)[name = tensor<string, []>("first_31_cast_fp16")];
            tensor<fp16, [1024]> initializers_onnx_initializer_13_to_fp16 = const()[name = tensor<string, []>("initializers_onnx_initializer_13_to_fp16"), val = tensor<fp16, [1024]>(BLOBFILE(path = tensor<string, []>("@model_path/weights/weight.bin"), offset = tensor<uint64, []>(71177088)))];
            tensor<fp16, [1, 128, 1024]> first_33_cast_fp16 = mul(x = first_31_cast_fp16, y = initializers_onnx_initializer_13_to_fp16)[name = tensor<string, []>("first_33_cast_fp16")];
            tensor<fp16, [1024]> initializers_onnx_initializer_14_to_fp16 = const()[name = tensor<string, []>("initializers_onnx_initializer_14_to_fp16"), val = tensor<fp16, [1024]>(BLOBFILE(path = tensor<string, []>("@model_path/weights/weight.bin"), offset = tensor<uint64, []>(71179200)))];
            tensor<fp16, [1, 128, 1024]> x_11_cast_fp16 = add(x = first_33_cast_fp16, y = initializers_onnx_initializer_14_to_fp16)[name = tensor<string, []>("x_11_cast_fp16")];
            tensor<fp16, [4096, 1024]> first_37_weight_0_to_fp16 = const()[name = tensor<string, []>("first_37_weight_0_to_fp16"), val = tensor<fp16, [4096, 1024]>(BLOBFILE(path = tensor<string, []>("@model_path/weights/weight.bin"), offset = tensor<uint64, []>(71181312)))];
            tensor<fp16, [4096]> first_37_bias_0_to_fp16 = const()[name = tensor<string, []>("first_37_bias_0_to_fp16"), val = tensor<fp16, [4096]>(BLOBFILE(path = tensor<string, []>("@model_path/weights/weight.bin"), offset = tensor<uint64, []>(79569984)))];
            tensor<fp16, [1, 128, 4096]> first_37_cast_fp16 = linear(bias = first_37_bias_0_to_fp16, weight = first_37_weight_0_to_fp16, x = x_11_cast_fp16)[name = tensor<string, []>("first_37_cast_fp16")];
            tensor<string, []> x_13_mode_0 = const()[name = tensor<string, []>("x_13_mode_0"), val = tensor<string, []>("EXACT")];
            tensor<fp16, [1, 128, 4096]> x_13_cast_fp16 = gelu(mode = x_13_mode_0, x = first_37_cast_fp16)[name = tensor<string, []>("x_13_cast_fp16")];
            tensor<fp16, [1024, 4096]> first_45_weight_0_to_fp16 = const()[name = tensor<string, []>("first_45_weight_0_to_fp16"), val = tensor<fp16, [1024, 4096]>(BLOBFILE(path = tensor<string, []>("@model_path/weights/weight.bin"), offset = tensor<uint64, []>(79578240)))];
            tensor<fp16, [1024]> first_45_bias_0_to_fp16 = const()[name = tensor<string, []>("first_45_bias_0_to_fp16"), val = tensor<fp16, [1024]>(BLOBFILE(path = tensor<string, []>("@model_path/weights/weight.bin"), offset = tensor<uint64, []>(87966912)))];
            tensor<fp16, [1, 128, 1024]> first_45_cast_fp16 = linear(bias = first_45_bias_0_to_fp16, weight = first_45_weight_0_to_fp16, x = x_13_cast_fp16)[name = tensor<string, []>("first_45_cast_fp16")];
            tensor<fp16, [1, 128, 1024]> input_tensor_85_cast_fp16 = add(x = first_45_cast_fp16, y = x_11_cast_fp16)[name = tensor<string, []>("input_tensor_85_cast_fp16")];
            tensor<bool, []> var_2258 = const()[name = tensor<string, []>("op_2258"), val = tensor<bool, []>(true)];
            tensor<int32, [1]> var_2260 = const()[name = tensor<string, []>("op_2260"), val = tensor<int32, [1]>([-1])];
            tensor<fp16, [1, 128, 1]> second_53_cast_fp16 = reduce_mean(axes = var_2260, keep_dims = var_2258, x = input_tensor_85_cast_fp16)[name = tensor<string, []>("second_53_cast_fp16")];
            tensor<fp16, [1, 128, 1024]> input_tensor_87_cast_fp16 = sub(x = input_tensor_85_cast_fp16, y = second_53_cast_fp16)[name = tensor<string, []>("input_tensor_87_cast_fp16")];
            tensor<fp16, []> encoder_layer_0_output_LayerNorm_Constant_value_to_fp16 = const()[name = tensor<string, []>("encoder_layer_0_output_LayerNorm_Constant_value_to_fp16"), val = tensor<fp16, []>(0x1p+1)];
            tensor<fp16, [1, 128, 1024]> input_tensor_89_cast_fp16 = pow(x = input_tensor_87_cast_fp16, y = encoder_layer_0_output_LayerNorm_Constant_value_to_fp16)[name = tensor<string, []>("input_tensor_89_cast_fp16")];
            tensor<bool, []> var_2266 = const()[name = tensor<string, []>("op_2266"), val = tensor<bool, []>(true)];
            tensor<int32, [1]> var_2268 = const()[name = tensor<string, []>("op_2268"), val = tensor<int32, [1]>([-1])];
            tensor<fp16, [1, 128, 1]> first_47_cast_fp16 = reduce_mean(axes = var_2268, keep_dims = var_2266, x = input_tensor_89_cast_fp16)[name = tensor<string, []>("first_47_cast_fp16")];
            tensor<fp16, []> encoder_layer_0_output_LayerNorm_Constant_1_value_to_fp16 = const()[name = tensor<string, []>("encoder_layer_0_output_LayerNorm_Constant_1_value_to_fp16"), val = tensor<fp16, []>(0x1p-24)];
            tensor<fp16, [1, 128, 1]> input_tensor_91_cast_fp16 = add(x = first_47_cast_fp16, y = encoder_layer_0_output_LayerNorm_Constant_1_value_to_fp16)[name = tensor<string, []>("input_tensor_91_cast_fp16")];
            tensor<fp16, [1, 128, 1]> second_57_cast_fp16 = sqrt(x = input_tensor_91_cast_fp16)[name = tensor<string, []>("second_57_cast_fp16")];
            tensor<fp16, [1, 128, 1024]> first_49_cast_fp16 = real_div(x = input_tensor_87_cast_fp16, y = second_57_cast_fp16)[name = tensor<string, []>("first_49_cast_fp16")];
            tensor<fp16, [1024]> initializers_onnx_initializer_19_to_fp16 = const()[name = tensor<string, []>("initializers_onnx_initializer_19_to_fp16"), val = tensor<fp16, [1024]>(BLOBFILE(path = tensor<string, []>("@model_path/weights/weight.bin"), offset = tensor<uint64, []>(87969024)))];
            tensor<fp16, [1, 128, 1024]> first_51_cast_fp16 = mul(x = first_49_cast_fp16, y = initializers_onnx_initializer_19_to_fp16)[name = tensor<string, []>("first_51_cast_fp16")];
            tensor<fp16, [1024]> initializers_onnx_initializer_20_to_fp16 = const()[name = tensor<string, []>("initializers_onnx_initializer_20_to_fp16"), val = tensor<fp16, [1024]>(BLOBFILE(path = tensor<string, []>("@model_path/weights/weight.bin"), offset = tensor<uint64, []>(87971136)))];
            tensor<fp16, [1, 128, 1024]> x_15_cast_fp16 = add(x = first_51_cast_fp16, y = initializers_onnx_initializer_20_to_fp16)[name = tensor<string, []>("x_15_cast_fp16")];
            tensor<fp16, [1024, 1024]> input_tensor_115_weight_0_to_fp16 = const()[name = tensor<string, []>("input_tensor_115_weight_0_to_fp16"), val = tensor<fp16, [1024, 1024]>(BLOBFILE(path = tensor<string, []>("@model_path/weights/weight.bin"), offset = tensor<uint64, []>(87973248)))];
            tensor<fp16, [1024]> input_tensor_115_bias_0_to_fp16 = const()[name = tensor<string, []>("input_tensor_115_bias_0_to_fp16"), val = tensor<fp16, [1024]>(BLOBFILE(path = tensor<string, []>("@model_path/weights/weight.bin"), offset = tensor<uint64, []>(90070464)))];
            tensor<fp16, [1, 128, 1024]> input_tensor_115_cast_fp16 = linear(bias = input_tensor_115_bias_0_to_fp16, weight = input_tensor_115_weight_0_to_fp16, x = x_15_cast_fp16)[name = tensor<string, []>("input_tensor_115_cast_fp16")];
            tensor<fp16, [1024, 1024]> input_tensor_93_weight_0_to_fp16 = const()[name = tensor<string, []>("input_tensor_93_weight_0_to_fp16"), val = tensor<fp16, [1024, 1024]>(BLOBFILE(path = tensor<string, []>("@model_path/weights/weight.bin"), offset = tensor<uint64, []>(90072576)))];
            tensor<fp16, [1024]> input_tensor_93_bias_0_to_fp16 = const()[name = tensor<string, []>("input_tensor_93_bias_0_to_fp16"), val = tensor<fp16, [1024]>(BLOBFILE(path = tensor<string, []>("@model_path/weights/weight.bin"), offset = tensor<uint64, []>(92169792)))];
            tensor<fp16, [1, 128, 1024]> input_tensor_93_cast_fp16 = linear(bias = input_tensor_93_bias_0_to_fp16, weight = input_tensor_93_weight_0_to_fp16, x = x_15_cast_fp16)[name = tensor<string, []>("input_tensor_93_cast_fp16")];
            tensor<int32, [4]> var_2328 = const()[name = tensor<string, []>("op_2328"), val = tensor<int32, [4]>([1, 128, 16, 64])];
            tensor<fp16, [1, 128, 16, 64]> input_tensor_127_cast_fp16 = reshape(shape = var_2328, x = input_tensor_93_cast_fp16)[name = tensor<string, []>("input_tensor_127_cast_fp16")];
            tensor<fp16, [1024, 1024]> input_tensor_103_weight_0_to_fp16 = const()[name = tensor<string, []>("input_tensor_103_weight_0_to_fp16"), val = tensor<fp16, [1024, 1024]>(BLOBFILE(path = tensor<string, []>("@model_path/weights/weight.bin"), offset = tensor<uint64, []>(92171904)))];
            tensor<fp16, [1024]> input_tensor_103_bias_0_to_fp16 = const()[name = tensor<string, []>("input_tensor_103_bias_0_to_fp16"), val = tensor<fp16, [1024]>(BLOBFILE(path = tensor<string, []>("@model_path/weights/weight.bin"), offset = tensor<uint64, []>(94269120)))];
            tensor<fp16, [1, 128, 1024]> input_tensor_103_cast_fp16 = linear(bias = input_tensor_103_bias_0_to_fp16, weight = input_tensor_103_weight_0_to_fp16, x = x_15_cast_fp16)[name = tensor<string, []>("input_tensor_103_cast_fp16")];
            tensor<int32, [4]> var_2378 = const()[name = tensor<string, []>("op_2378"), val = tensor<int32, [4]>([1, 128, 16, 64])];
            tensor<fp16, [1, 128, 16, 64]> input_tensor_113_cast_fp16 = reshape(shape = var_2378, x = input_tensor_103_cast_fp16)[name = tensor<string, []>("input_tensor_113_cast_fp16")];
            tensor<int32, [4]> var_2384 = const()[name = tensor<string, []>("op_2384"), val = tensor<int32, [4]>([0, 2, 1, 3])];
            tensor<int32, [4]> var_2431 = const()[name = tensor<string, []>("op_2431"), val = tensor<int32, [4]>([1, 128, 16, 64])];
            tensor<fp16, [1, 128, 16, 64]> input_tensor_125_cast_fp16 = reshape(shape = var_2431, x = input_tensor_115_cast_fp16)[name = tensor<string, []>("input_tensor_125_cast_fp16")];
            tensor<bool, []> first_59_transpose_x_0 = const()[name = tensor<string, []>("first_59_transpose_x_0"), val = tensor<bool, []>(false)];
            tensor<bool, []> first_59_transpose_y_0 = const()[name = tensor<string, []>("first_59_transpose_y_0"), val = tensor<bool, []>(false)];
            tensor<int32, [4]> transpose_242_perm_0 = const()[name = tensor<string, []>("transpose_242_perm_0"), val = tensor<int32, [4]>([0, 2, -3, -1])];
            tensor<int32, [4]> transpose_243_perm_0 = const()[name = tensor<string, []>("transpose_243_perm_0"), val = tensor<int32, [4]>([0, 2, -1, -3])];
            tensor<fp16, [1, 16, 64, 128]> transpose_377 = transpose(perm = transpose_243_perm_0, x = input_tensor_127_cast_fp16)[name = tensor<string, []>("transpose_377")];
            tensor<fp16, [1, 16, 128, 64]> transpose_378 = transpose(perm = transpose_242_perm_0, x = input_tensor_125_cast_fp16)[name = tensor<string, []>("transpose_378")];
            tensor<fp16, [1, 16, 128, 128]> first_59_cast_fp16 = matmul(transpose_x = first_59_transpose_x_0, transpose_y = first_59_transpose_y_0, x = transpose_378, y = transpose_377)[name = tensor<string, []>("first_59_cast_fp16")];
            tensor<fp16, []> _inversed_first_61_y_0_to_fp16 = const()[name = tensor<string, []>("_inversed_first_61_y_0_to_fp16"), val = tensor<fp16, []>(0x1p-3)];
            tensor<fp16, [1, 16, 128, 128]> _inversed_first_61_cast_fp16 = mul(x = first_59_cast_fp16, y = _inversed_first_61_y_0_to_fp16)[name = tensor<string, []>("_inversed_first_61_cast_fp16")];
            tensor<fp16, [1, 16, 128, 128]> input_tensor_129_cast_fp16 = add(x = _inversed_first_61_cast_fp16, y = second_27_cast_fp16)[name = tensor<string, []>("input_tensor_129_cast_fp16")];
            tensor<int32, []> var_2450 = const()[name = tensor<string, []>("op_2450"), val = tensor<int32, []>(-1)];
            tensor<fp16, [1, 16, 128, 128]> result_3_cast_fp16 = softmax(axis = var_2450, x = input_tensor_129_cast_fp16)[name = tensor<string, []>("result_3_cast_fp16")];
            tensor<bool, []> input_tensor_133_transpose_x_0 = const()[name = tensor<string, []>("input_tensor_133_transpose_x_0"), val = tensor<bool, []>(false)];
            tensor<bool, []> input_tensor_133_transpose_y_0 = const()[name = tensor<string, []>("input_tensor_133_transpose_y_0"), val = tensor<bool, []>(false)];
            tensor<fp16, [1, 16, 128, 64]> transpose_379 = transpose(perm = var_2384, x = input_tensor_113_cast_fp16)[name = tensor<string, []>("transpose_379")];
            tensor<fp16, [1, 16, 128, 64]> input_tensor_133_cast_fp16 = matmul(transpose_x = input_tensor_133_transpose_x_0, transpose_y = input_tensor_133_transpose_y_0, x = result_3_cast_fp16, y = transpose_379)[name = tensor<string, []>("input_tensor_133_cast_fp16")];
            tensor<int32, [4]> var_2468 = const()[name = tensor<string, []>("op_2468"), val = tensor<int32, [4]>([0, 2, 1, 3])];
            tensor<int32, [3]> var_2513 = const()[name = tensor<string, []>("op_2513"), val = tensor<int32, [3]>([1, 128, 1024])];
            tensor<fp16, [1, 128, 16, 64]> transpose_376 = transpose(perm = var_2468, x = input_tensor_133_cast_fp16)[name = tensor<string, []>("transpose_376")];
            tensor<fp16, [1, 128, 1024]> x_21_cast_fp16 = reshape(shape = var_2513, x = transpose_376)[name = tensor<string, []>("x_21_cast_fp16")];
            tensor<fp16, [1024, 1024]> first_65_weight_0_to_fp16 = const()[name = tensor<string, []>("first_65_weight_0_to_fp16"), val = tensor<fp16, [1024, 1024]>(BLOBFILE(path = tensor<string, []>("@model_path/weights/weight.bin"), offset = tensor<uint64, []>(94271232)))];
            tensor<fp16, [1024]> first_65_bias_0_to_fp16 = const()[name = tensor<string, []>("first_65_bias_0_to_fp16"), val = tensor<fp16, [1024]>(BLOBFILE(path = tensor<string, []>("@model_path/weights/weight.bin"), offset = tensor<uint64, []>(96368448)))];
            tensor<fp16, [1, 128, 1024]> first_65_cast_fp16 = linear(bias = first_65_bias_0_to_fp16, weight = first_65_weight_0_to_fp16, x = x_21_cast_fp16)[name = tensor<string, []>("first_65_cast_fp16")];
            tensor<fp16, [1, 128, 1024]> input_tensor_145_cast_fp16 = add(x = first_65_cast_fp16, y = x_15_cast_fp16)[name = tensor<string, []>("input_tensor_145_cast_fp16")];
            tensor<bool, []> var_2521 = const()[name = tensor<string, []>("op_2521"), val = tensor<bool, []>(true)];
            tensor<int32, [1]> var_2523 = const()[name = tensor<string, []>("op_2523"), val = tensor<int32, [1]>([-1])];
            tensor<fp16, [1, 128, 1]> second_73_cast_fp16 = reduce_mean(axes = var_2523, keep_dims = var_2521, x = input_tensor_145_cast_fp16)[name = tensor<string, []>("second_73_cast_fp16")];
            tensor<fp16, [1, 128, 1024]> input_tensor_147_cast_fp16 = sub(x = input_tensor_145_cast_fp16, y = second_73_cast_fp16)[name = tensor<string, []>("input_tensor_147_cast_fp16")];
            tensor<fp16, []> encoder_layer_1_attention_output_LayerNorm_Constant_value_to_fp16 = const()[name = tensor<string, []>("encoder_layer_1_attention_output_LayerNorm_Constant_value_to_fp16"), val = tensor<fp16, []>(0x1p+1)];
            tensor<fp16, [1, 128, 1024]> input_tensor_149_cast_fp16 = pow(x = input_tensor_147_cast_fp16, y = encoder_layer_1_attention_output_LayerNorm_Constant_value_to_fp16)[name = tensor<string, []>("input_tensor_149_cast_fp16")];
            tensor<bool, []> var_2529 = const()[name = tensor<string, []>("op_2529"), val = tensor<bool, []>(true)];
            tensor<int32, [1]> var_2531 = const()[name = tensor<string, []>("op_2531"), val = tensor<int32, [1]>([-1])];
            tensor<fp16, [1, 128, 1]> first_67_cast_fp16 = reduce_mean(axes = var_2531, keep_dims = var_2529, x = input_tensor_149_cast_fp16)[name = tensor<string, []>("first_67_cast_fp16")];
            tensor<fp16, []> encoder_layer_1_attention_output_LayerNorm_Constant_1_value_to_fp16 = const()[name = tensor<string, []>("encoder_layer_1_attention_output_LayerNorm_Constant_1_value_to_fp16"), val = tensor<fp16, []>(0x1p-24)];
            tensor<fp16, [1, 128, 1]> input_tensor_151_cast_fp16 = add(x = first_67_cast_fp16, y = encoder_layer_1_attention_output_LayerNorm_Constant_1_value_to_fp16)[name = tensor<string, []>("input_tensor_151_cast_fp16")];
            tensor<fp16, [1, 128, 1]> second_77_cast_fp16 = sqrt(x = input_tensor_151_cast_fp16)[name = tensor<string, []>("second_77_cast_fp16")];
            tensor<fp16, [1, 128, 1024]> first_69_cast_fp16 = real_div(x = input_tensor_147_cast_fp16, y = second_77_cast_fp16)[name = tensor<string, []>("first_69_cast_fp16")];
            tensor<fp16, [1024]> initializers_onnx_initializer_29_to_fp16 = const()[name = tensor<string, []>("initializers_onnx_initializer_29_to_fp16"), val = tensor<fp16, [1024]>(BLOBFILE(path = tensor<string, []>("@model_path/weights/weight.bin"), offset = tensor<uint64, []>(96370560)))];
            tensor<fp16, [1, 128, 1024]> first_71_cast_fp16 = mul(x = first_69_cast_fp16, y = initializers_onnx_initializer_29_to_fp16)[name = tensor<string, []>("first_71_cast_fp16")];
            tensor<fp16, [1024]> initializers_onnx_initializer_30_to_fp16 = const()[name = tensor<string, []>("initializers_onnx_initializer_30_to_fp16"), val = tensor<fp16, [1024]>(BLOBFILE(path = tensor<string, []>("@model_path/weights/weight.bin"), offset = tensor<uint64, []>(96372672)))];
            tensor<fp16, [1, 128, 1024]> x_23_cast_fp16 = add(x = first_71_cast_fp16, y = initializers_onnx_initializer_30_to_fp16)[name = tensor<string, []>("x_23_cast_fp16")];
            tensor<fp16, [4096, 1024]> first_75_weight_0_to_fp16 = const()[name = tensor<string, []>("first_75_weight_0_to_fp16"), val = tensor<fp16, [4096, 1024]>(BLOBFILE(path = tensor<string, []>("@model_path/weights/weight.bin"), offset = tensor<uint64, []>(96374784)))];
            tensor<fp16, [4096]> first_75_bias_0_to_fp16 = const()[name = tensor<string, []>("first_75_bias_0_to_fp16"), val = tensor<fp16, [4096]>(BLOBFILE(path = tensor<string, []>("@model_path/weights/weight.bin"), offset = tensor<uint64, []>(104763456)))];
            tensor<fp16, [1, 128, 4096]> first_75_cast_fp16 = linear(bias = first_75_bias_0_to_fp16, weight = first_75_weight_0_to_fp16, x = x_23_cast_fp16)[name = tensor<string, []>("first_75_cast_fp16")];
            tensor<string, []> x_25_mode_0 = const()[name = tensor<string, []>("x_25_mode_0"), val = tensor<string, []>("EXACT")];
            tensor<fp16, [1, 128, 4096]> x_25_cast_fp16 = gelu(mode = x_25_mode_0, x = first_75_cast_fp16)[name = tensor<string, []>("x_25_cast_fp16")];
            tensor<fp16, [1024, 4096]> first_83_weight_0_to_fp16 = const()[name = tensor<string, []>("first_83_weight_0_to_fp16"), val = tensor<fp16, [1024, 4096]>(BLOBFILE(path = tensor<string, []>("@model_path/weights/weight.bin"), offset = tensor<uint64, []>(104771712)))];
            tensor<fp16, [1024]> first_83_bias_0_to_fp16 = const()[name = tensor<string, []>("first_83_bias_0_to_fp16"), val = tensor<fp16, [1024]>(BLOBFILE(path = tensor<string, []>("@model_path/weights/weight.bin"), offset = tensor<uint64, []>(113160384)))];
            tensor<fp16, [1, 128, 1024]> first_83_cast_fp16 = linear(bias = first_83_bias_0_to_fp16, weight = first_83_weight_0_to_fp16, x = x_25_cast_fp16)[name = tensor<string, []>("first_83_cast_fp16")];
            tensor<fp16, [1, 128, 1024]> input_tensor_155_cast_fp16 = add(x = first_83_cast_fp16, y = x_23_cast_fp16)[name = tensor<string, []>("input_tensor_155_cast_fp16")];
            tensor<bool, []> var_2555 = const()[name = tensor<string, []>("op_2555"), val = tensor<bool, []>(true)];
            tensor<int32, [1]> var_2557 = const()[name = tensor<string, []>("op_2557"), val = tensor<int32, [1]>([-1])];
            tensor<fp16, [1, 128, 1]> second_95_cast_fp16 = reduce_mean(axes = var_2557, keep_dims = var_2555, x = input_tensor_155_cast_fp16)[name = tensor<string, []>("second_95_cast_fp16")];
            tensor<fp16, [1, 128, 1024]> input_tensor_157_cast_fp16 = sub(x = input_tensor_155_cast_fp16, y = second_95_cast_fp16)[name = tensor<string, []>("input_tensor_157_cast_fp16")];
            tensor<fp16, []> encoder_layer_1_output_LayerNorm_Constant_value_to_fp16 = const()[name = tensor<string, []>("encoder_layer_1_output_LayerNorm_Constant_value_to_fp16"), val = tensor<fp16, []>(0x1p+1)];
            tensor<fp16, [1, 128, 1024]> input_tensor_159_cast_fp16 = pow(x = input_tensor_157_cast_fp16, y = encoder_layer_1_output_LayerNorm_Constant_value_to_fp16)[name = tensor<string, []>("input_tensor_159_cast_fp16")];
            tensor<bool, []> var_2563 = const()[name = tensor<string, []>("op_2563"), val = tensor<bool, []>(true)];
            tensor<int32, [1]> var_2565 = const()[name = tensor<string, []>("op_2565"), val = tensor<int32, [1]>([-1])];
            tensor<fp16, [1, 128, 1]> first_85_cast_fp16 = reduce_mean(axes = var_2565, keep_dims = var_2563, x = input_tensor_159_cast_fp16)[name = tensor<string, []>("first_85_cast_fp16")];
            tensor<fp16, []> encoder_layer_1_output_LayerNorm_Constant_1_value_to_fp16 = const()[name = tensor<string, []>("encoder_layer_1_output_LayerNorm_Constant_1_value_to_fp16"), val = tensor<fp16, []>(0x1p-24)];
            tensor<fp16, [1, 128, 1]> input_tensor_161_cast_fp16 = add(x = first_85_cast_fp16, y = encoder_layer_1_output_LayerNorm_Constant_1_value_to_fp16)[name = tensor<string, []>("input_tensor_161_cast_fp16")];
            tensor<fp16, [1, 128, 1]> second_99_cast_fp16 = sqrt(x = input_tensor_161_cast_fp16)[name = tensor<string, []>("second_99_cast_fp16")];
            tensor<fp16, [1, 128, 1024]> first_87_cast_fp16 = real_div(x = input_tensor_157_cast_fp16, y = second_99_cast_fp16)[name = tensor<string, []>("first_87_cast_fp16")];
            tensor<fp16, [1024]> initializers_onnx_initializer_35_to_fp16 = const()[name = tensor<string, []>("initializers_onnx_initializer_35_to_fp16"), val = tensor<fp16, [1024]>(BLOBFILE(path = tensor<string, []>("@model_path/weights/weight.bin"), offset = tensor<uint64, []>(113162496)))];
            tensor<fp16, [1, 128, 1024]> first_89_cast_fp16 = mul(x = first_87_cast_fp16, y = initializers_onnx_initializer_35_to_fp16)[name = tensor<string, []>("first_89_cast_fp16")];
            tensor<fp16, [1024]> initializers_onnx_initializer_36_to_fp16 = const()[name = tensor<string, []>("initializers_onnx_initializer_36_to_fp16"), val = tensor<fp16, [1024]>(BLOBFILE(path = tensor<string, []>("@model_path/weights/weight.bin"), offset = tensor<uint64, []>(113164608)))];
            tensor<fp16, [1, 128, 1024]> x_27_cast_fp16 = add(x = first_89_cast_fp16, y = initializers_onnx_initializer_36_to_fp16)[name = tensor<string, []>("x_27_cast_fp16")];
            tensor<fp16, [1024, 1024]> input_tensor_185_weight_0_to_fp16 = const()[name = tensor<string, []>("input_tensor_185_weight_0_to_fp16"), val = tensor<fp16, [1024, 1024]>(BLOBFILE(path = tensor<string, []>("@model_path/weights/weight.bin"), offset = tensor<uint64, []>(113166720)))];
            tensor<fp16, [1024]> input_tensor_185_bias_0_to_fp16 = const()[name = tensor<string, []>("input_tensor_185_bias_0_to_fp16"), val = tensor<fp16, [1024]>(BLOBFILE(path = tensor<string, []>("@model_path/weights/weight.bin"), offset = tensor<uint64, []>(115263936)))];
            tensor<fp16, [1, 128, 1024]> input_tensor_185_cast_fp16 = linear(bias = input_tensor_185_bias_0_to_fp16, weight = input_tensor_185_weight_0_to_fp16, x = x_27_cast_fp16)[name = tensor<string, []>("input_tensor_185_cast_fp16")];
            tensor<fp16, [1024, 1024]> input_tensor_163_weight_0_to_fp16 = const()[name = tensor<string, []>("input_tensor_163_weight_0_to_fp16"), val = tensor<fp16, [1024, 1024]>(BLOBFILE(path = tensor<string, []>("@model_path/weights/weight.bin"), offset = tensor<uint64, []>(115266048)))];
            tensor<fp16, [1024]> input_tensor_163_bias_0_to_fp16 = const()[name = tensor<string, []>("input_tensor_163_bias_0_to_fp16"), val = tensor<fp16, [1024]>(BLOBFILE(path = tensor<string, []>("@model_path/weights/weight.bin"), offset = tensor<uint64, []>(117363264)))];
            tensor<fp16, [1, 128, 1024]> input_tensor_163_cast_fp16 = linear(bias = input_tensor_163_bias_0_to_fp16, weight = input_tensor_163_weight_0_to_fp16, x = x_27_cast_fp16)[name = tensor<string, []>("input_tensor_163_cast_fp16")];
            tensor<int32, [4]> var_2625 = const()[name = tensor<string, []>("op_2625"), val = tensor<int32, [4]>([1, 128, 16, 64])];
            tensor<fp16, [1, 128, 16, 64]> input_tensor_197_cast_fp16 = reshape(shape = var_2625, x = input_tensor_163_cast_fp16)[name = tensor<string, []>("input_tensor_197_cast_fp16")];
            tensor<fp16, [1024, 1024]> input_tensor_173_weight_0_to_fp16 = const()[name = tensor<string, []>("input_tensor_173_weight_0_to_fp16"), val = tensor<fp16, [1024, 1024]>(BLOBFILE(path = tensor<string, []>("@model_path/weights/weight.bin"), offset = tensor<uint64, []>(117365376)))];
            tensor<fp16, [1024]> input_tensor_173_bias_0_to_fp16 = const()[name = tensor<string, []>("input_tensor_173_bias_0_to_fp16"), val = tensor<fp16, [1024]>(BLOBFILE(path = tensor<string, []>("@model_path/weights/weight.bin"), offset = tensor<uint64, []>(119462592)))];
            tensor<fp16, [1, 128, 1024]> input_tensor_173_cast_fp16 = linear(bias = input_tensor_173_bias_0_to_fp16, weight = input_tensor_173_weight_0_to_fp16, x = x_27_cast_fp16)[name = tensor<string, []>("input_tensor_173_cast_fp16")];
            tensor<int32, [4]> var_2675 = const()[name = tensor<string, []>("op_2675"), val = tensor<int32, [4]>([1, 128, 16, 64])];
            tensor<fp16, [1, 128, 16, 64]> input_tensor_183_cast_fp16 = reshape(shape = var_2675, x = input_tensor_173_cast_fp16)[name = tensor<string, []>("input_tensor_183_cast_fp16")];
            tensor<int32, [4]> var_2681 = const()[name = tensor<string, []>("op_2681"), val = tensor<int32, [4]>([0, 2, 1, 3])];
            tensor<int32, [4]> var_2728 = const()[name = tensor<string, []>("op_2728"), val = tensor<int32, [4]>([1, 128, 16, 64])];
            tensor<fp16, [1, 128, 16, 64]> input_tensor_195_cast_fp16 = reshape(shape = var_2728, x = input_tensor_185_cast_fp16)[name = tensor<string, []>("input_tensor_195_cast_fp16")];
            tensor<bool, []> first_97_transpose_x_0 = const()[name = tensor<string, []>("first_97_transpose_x_0"), val = tensor<bool, []>(false)];
            tensor<bool, []> first_97_transpose_y_0 = const()[name = tensor<string, []>("first_97_transpose_y_0"), val = tensor<bool, []>(false)];
            tensor<int32, [4]> transpose_244_perm_0 = const()[name = tensor<string, []>("transpose_244_perm_0"), val = tensor<int32, [4]>([0, 2, -3, -1])];
            tensor<int32, [4]> transpose_245_perm_0 = const()[name = tensor<string, []>("transpose_245_perm_0"), val = tensor<int32, [4]>([0, 2, -1, -3])];
            tensor<fp16, [1, 16, 64, 128]> transpose_373 = transpose(perm = transpose_245_perm_0, x = input_tensor_197_cast_fp16)[name = tensor<string, []>("transpose_373")];
            tensor<fp16, [1, 16, 128, 64]> transpose_374 = transpose(perm = transpose_244_perm_0, x = input_tensor_195_cast_fp16)[name = tensor<string, []>("transpose_374")];
            tensor<fp16, [1, 16, 128, 128]> first_97_cast_fp16 = matmul(transpose_x = first_97_transpose_x_0, transpose_y = first_97_transpose_y_0, x = transpose_374, y = transpose_373)[name = tensor<string, []>("first_97_cast_fp16")];
            tensor<fp16, []> _inversed_first_99_y_0_to_fp16 = const()[name = tensor<string, []>("_inversed_first_99_y_0_to_fp16"), val = tensor<fp16, []>(0x1p-3)];
            tensor<fp16, [1, 16, 128, 128]> _inversed_first_99_cast_fp16 = mul(x = first_97_cast_fp16, y = _inversed_first_99_y_0_to_fp16)[name = tensor<string, []>("_inversed_first_99_cast_fp16")];
            tensor<fp16, [1, 16, 128, 128]> input_tensor_199_cast_fp16 = add(x = _inversed_first_99_cast_fp16, y = second_27_cast_fp16)[name = tensor<string, []>("input_tensor_199_cast_fp16")];
            tensor<int32, []> var_2747 = const()[name = tensor<string, []>("op_2747"), val = tensor<int32, []>(-1)];
            tensor<fp16, [1, 16, 128, 128]> result_5_cast_fp16 = softmax(axis = var_2747, x = input_tensor_199_cast_fp16)[name = tensor<string, []>("result_5_cast_fp16")];
            tensor<bool, []> input_tensor_203_transpose_x_0 = const()[name = tensor<string, []>("input_tensor_203_transpose_x_0"), val = tensor<bool, []>(false)];
            tensor<bool, []> input_tensor_203_transpose_y_0 = const()[name = tensor<string, []>("input_tensor_203_transpose_y_0"), val = tensor<bool, []>(false)];
            tensor<fp16, [1, 16, 128, 64]> transpose_375 = transpose(perm = var_2681, x = input_tensor_183_cast_fp16)[name = tensor<string, []>("transpose_375")];
            tensor<fp16, [1, 16, 128, 64]> input_tensor_203_cast_fp16 = matmul(transpose_x = input_tensor_203_transpose_x_0, transpose_y = input_tensor_203_transpose_y_0, x = result_5_cast_fp16, y = transpose_375)[name = tensor<string, []>("input_tensor_203_cast_fp16")];
            tensor<int32, [4]> var_2765 = const()[name = tensor<string, []>("op_2765"), val = tensor<int32, [4]>([0, 2, 1, 3])];
            tensor<int32, [3]> var_2810 = const()[name = tensor<string, []>("op_2810"), val = tensor<int32, [3]>([1, 128, 1024])];
            tensor<fp16, [1, 128, 16, 64]> transpose_372 = transpose(perm = var_2765, x = input_tensor_203_cast_fp16)[name = tensor<string, []>("transpose_372")];
            tensor<fp16, [1, 128, 1024]> x_33_cast_fp16 = reshape(shape = var_2810, x = transpose_372)[name = tensor<string, []>("x_33_cast_fp16")];
            tensor<fp16, [1024, 1024]> first_103_weight_0_to_fp16 = const()[name = tensor<string, []>("first_103_weight_0_to_fp16"), val = tensor<fp16, [1024, 1024]>(BLOBFILE(path = tensor<string, []>("@model_path/weights/weight.bin"), offset = tensor<uint64, []>(119464704)))];
            tensor<fp16, [1024]> first_103_bias_0_to_fp16 = const()[name = tensor<string, []>("first_103_bias_0_to_fp16"), val = tensor<fp16, [1024]>(BLOBFILE(path = tensor<string, []>("@model_path/weights/weight.bin"), offset = tensor<uint64, []>(121561920)))];
            tensor<fp16, [1, 128, 1024]> first_103_cast_fp16 = linear(bias = first_103_bias_0_to_fp16, weight = first_103_weight_0_to_fp16, x = x_33_cast_fp16)[name = tensor<string, []>("first_103_cast_fp16")];
            tensor<fp16, [1, 128, 1024]> input_tensor_215_cast_fp16 = add(x = first_103_cast_fp16, y = x_27_cast_fp16)[name = tensor<string, []>("input_tensor_215_cast_fp16")];
            tensor<bool, []> var_2818 = const()[name = tensor<string, []>("op_2818"), val = tensor<bool, []>(true)];
            tensor<int32, [1]> var_2820 = const()[name = tensor<string, []>("op_2820"), val = tensor<int32, [1]>([-1])];
            tensor<fp16, [1, 128, 1]> second_115_cast_fp16 = reduce_mean(axes = var_2820, keep_dims = var_2818, x = input_tensor_215_cast_fp16)[name = tensor<string, []>("second_115_cast_fp16")];
            tensor<fp16, [1, 128, 1024]> input_tensor_217_cast_fp16 = sub(x = input_tensor_215_cast_fp16, y = second_115_cast_fp16)[name = tensor<string, []>("input_tensor_217_cast_fp16")];
            tensor<fp16, []> encoder_layer_2_attention_output_LayerNorm_Constant_value_to_fp16 = const()[name = tensor<string, []>("encoder_layer_2_attention_output_LayerNorm_Constant_value_to_fp16"), val = tensor<fp16, []>(0x1p+1)];
            tensor<fp16, [1, 128, 1024]> input_tensor_219_cast_fp16 = pow(x = input_tensor_217_cast_fp16, y = encoder_layer_2_attention_output_LayerNorm_Constant_value_to_fp16)[name = tensor<string, []>("input_tensor_219_cast_fp16")];
            tensor<bool, []> var_2826 = const()[name = tensor<string, []>("op_2826"), val = tensor<bool, []>(true)];
            tensor<int32, [1]> var_2828 = const()[name = tensor<string, []>("op_2828"), val = tensor<int32, [1]>([-1])];
            tensor<fp16, [1, 128, 1]> first_105_cast_fp16 = reduce_mean(axes = var_2828, keep_dims = var_2826, x = input_tensor_219_cast_fp16)[name = tensor<string, []>("first_105_cast_fp16")];
            tensor<fp16, []> encoder_layer_2_attention_output_LayerNorm_Constant_1_value_to_fp16 = const()[name = tensor<string, []>("encoder_layer_2_attention_output_LayerNorm_Constant_1_value_to_fp16"), val = tensor<fp16, []>(0x1p-24)];
            tensor<fp16, [1, 128, 1]> input_tensor_221_cast_fp16 = add(x = first_105_cast_fp16, y = encoder_layer_2_attention_output_LayerNorm_Constant_1_value_to_fp16)[name = tensor<string, []>("input_tensor_221_cast_fp16")];
            tensor<fp16, [1, 128, 1]> second_119_cast_fp16 = sqrt(x = input_tensor_221_cast_fp16)[name = tensor<string, []>("second_119_cast_fp16")];
            tensor<fp16, [1, 128, 1024]> first_107_cast_fp16 = real_div(x = input_tensor_217_cast_fp16, y = second_119_cast_fp16)[name = tensor<string, []>("first_107_cast_fp16")];
            tensor<fp16, [1024]> initializers_onnx_initializer_45_to_fp16 = const()[name = tensor<string, []>("initializers_onnx_initializer_45_to_fp16"), val = tensor<fp16, [1024]>(BLOBFILE(path = tensor<string, []>("@model_path/weights/weight.bin"), offset = tensor<uint64, []>(121564032)))];
            tensor<fp16, [1, 128, 1024]> first_109_cast_fp16 = mul(x = first_107_cast_fp16, y = initializers_onnx_initializer_45_to_fp16)[name = tensor<string, []>("first_109_cast_fp16")];
            tensor<fp16, [1024]> initializers_onnx_initializer_46_to_fp16 = const()[name = tensor<string, []>("initializers_onnx_initializer_46_to_fp16"), val = tensor<fp16, [1024]>(BLOBFILE(path = tensor<string, []>("@model_path/weights/weight.bin"), offset = tensor<uint64, []>(121566144)))];
            tensor<fp16, [1, 128, 1024]> x_35_cast_fp16 = add(x = first_109_cast_fp16, y = initializers_onnx_initializer_46_to_fp16)[name = tensor<string, []>("x_35_cast_fp16")];
            tensor<fp16, [4096, 1024]> first_113_weight_0_to_fp16 = const()[name = tensor<string, []>("first_113_weight_0_to_fp16"), val = tensor<fp16, [4096, 1024]>(BLOBFILE(path = tensor<string, []>("@model_path/weights/weight.bin"), offset = tensor<uint64, []>(121568256)))];
            tensor<fp16, [4096]> first_113_bias_0_to_fp16 = const()[name = tensor<string, []>("first_113_bias_0_to_fp16"), val = tensor<fp16, [4096]>(BLOBFILE(path = tensor<string, []>("@model_path/weights/weight.bin"), offset = tensor<uint64, []>(129956928)))];
            tensor<fp16, [1, 128, 4096]> first_113_cast_fp16 = linear(bias = first_113_bias_0_to_fp16, weight = first_113_weight_0_to_fp16, x = x_35_cast_fp16)[name = tensor<string, []>("first_113_cast_fp16")];
            tensor<string, []> x_37_mode_0 = const()[name = tensor<string, []>("x_37_mode_0"), val = tensor<string, []>("EXACT")];
            tensor<fp16, [1, 128, 4096]> x_37_cast_fp16 = gelu(mode = x_37_mode_0, x = first_113_cast_fp16)[name = tensor<string, []>("x_37_cast_fp16")];
            tensor<fp16, [1024, 4096]> first_121_weight_0_to_fp16 = const()[name = tensor<string, []>("first_121_weight_0_to_fp16"), val = tensor<fp16, [1024, 4096]>(BLOBFILE(path = tensor<string, []>("@model_path/weights/weight.bin"), offset = tensor<uint64, []>(129965184)))];
            tensor<fp16, [1024]> first_121_bias_0_to_fp16 = const()[name = tensor<string, []>("first_121_bias_0_to_fp16"), val = tensor<fp16, [1024]>(BLOBFILE(path = tensor<string, []>("@model_path/weights/weight.bin"), offset = tensor<uint64, []>(138353856)))];
            tensor<fp16, [1, 128, 1024]> first_121_cast_fp16 = linear(bias = first_121_bias_0_to_fp16, weight = first_121_weight_0_to_fp16, x = x_37_cast_fp16)[name = tensor<string, []>("first_121_cast_fp16")];
            tensor<fp16, [1, 128, 1024]> input_tensor_225_cast_fp16 = add(x = first_121_cast_fp16, y = x_35_cast_fp16)[name = tensor<string, []>("input_tensor_225_cast_fp16")];
            tensor<bool, []> var_2852 = const()[name = tensor<string, []>("op_2852"), val = tensor<bool, []>(true)];
            tensor<int32, [1]> var_2854 = const()[name = tensor<string, []>("op_2854"), val = tensor<int32, [1]>([-1])];
            tensor<fp16, [1, 128, 1]> second_137_cast_fp16 = reduce_mean(axes = var_2854, keep_dims = var_2852, x = input_tensor_225_cast_fp16)[name = tensor<string, []>("second_137_cast_fp16")];
            tensor<fp16, [1, 128, 1024]> input_tensor_227_cast_fp16 = sub(x = input_tensor_225_cast_fp16, y = second_137_cast_fp16)[name = tensor<string, []>("input_tensor_227_cast_fp16")];
            tensor<fp16, []> encoder_layer_2_output_LayerNorm_Constant_value_to_fp16 = const()[name = tensor<string, []>("encoder_layer_2_output_LayerNorm_Constant_value_to_fp16"), val = tensor<fp16, []>(0x1p+1)];
            tensor<fp16, [1, 128, 1024]> input_tensor_229_cast_fp16 = pow(x = input_tensor_227_cast_fp16, y = encoder_layer_2_output_LayerNorm_Constant_value_to_fp16)[name = tensor<string, []>("input_tensor_229_cast_fp16")];
            tensor<bool, []> var_2860 = const()[name = tensor<string, []>("op_2860"), val = tensor<bool, []>(true)];
            tensor<int32, [1]> var_2862 = const()[name = tensor<string, []>("op_2862"), val = tensor<int32, [1]>([-1])];
            tensor<fp16, [1, 128, 1]> first_123_cast_fp16 = reduce_mean(axes = var_2862, keep_dims = var_2860, x = input_tensor_229_cast_fp16)[name = tensor<string, []>("first_123_cast_fp16")];
            tensor<fp16, []> encoder_layer_2_output_LayerNorm_Constant_1_value_to_fp16 = const()[name = tensor<string, []>("encoder_layer_2_output_LayerNorm_Constant_1_value_to_fp16"), val = tensor<fp16, []>(0x1p-24)];
            tensor<fp16, [1, 128, 1]> input_tensor_231_cast_fp16 = add(x = first_123_cast_fp16, y = encoder_layer_2_output_LayerNorm_Constant_1_value_to_fp16)[name = tensor<string, []>("input_tensor_231_cast_fp16")];
            tensor<fp16, [1, 128, 1]> second_141_cast_fp16 = sqrt(x = input_tensor_231_cast_fp16)[name = tensor<string, []>("second_141_cast_fp16")];
            tensor<fp16, [1, 128, 1024]> first_125_cast_fp16 = real_div(x = input_tensor_227_cast_fp16, y = second_141_cast_fp16)[name = tensor<string, []>("first_125_cast_fp16")];
            tensor<fp16, [1024]> initializers_onnx_initializer_51_to_fp16 = const()[name = tensor<string, []>("initializers_onnx_initializer_51_to_fp16"), val = tensor<fp16, [1024]>(BLOBFILE(path = tensor<string, []>("@model_path/weights/weight.bin"), offset = tensor<uint64, []>(138355968)))];
            tensor<fp16, [1, 128, 1024]> first_127_cast_fp16 = mul(x = first_125_cast_fp16, y = initializers_onnx_initializer_51_to_fp16)[name = tensor<string, []>("first_127_cast_fp16")];
            tensor<fp16, [1024]> initializers_onnx_initializer_52_to_fp16 = const()[name = tensor<string, []>("initializers_onnx_initializer_52_to_fp16"), val = tensor<fp16, [1024]>(BLOBFILE(path = tensor<string, []>("@model_path/weights/weight.bin"), offset = tensor<uint64, []>(138358080)))];
            tensor<fp16, [1, 128, 1024]> x_39_cast_fp16 = add(x = first_127_cast_fp16, y = initializers_onnx_initializer_52_to_fp16)[name = tensor<string, []>("x_39_cast_fp16")];
            tensor<fp16, [1024, 1024]> input_tensor_255_weight_0_to_fp16 = const()[name = tensor<string, []>("input_tensor_255_weight_0_to_fp16"), val = tensor<fp16, [1024, 1024]>(BLOBFILE(path = tensor<string, []>("@model_path/weights/weight.bin"), offset = tensor<uint64, []>(138360192)))];
            tensor<fp16, [1024]> input_tensor_255_bias_0_to_fp16 = const()[name = tensor<string, []>("input_tensor_255_bias_0_to_fp16"), val = tensor<fp16, [1024]>(BLOBFILE(path = tensor<string, []>("@model_path/weights/weight.bin"), offset = tensor<uint64, []>(140457408)))];
            tensor<fp16, [1, 128, 1024]> input_tensor_255_cast_fp16 = linear(bias = input_tensor_255_bias_0_to_fp16, weight = input_tensor_255_weight_0_to_fp16, x = x_39_cast_fp16)[name = tensor<string, []>("input_tensor_255_cast_fp16")];
            tensor<fp16, [1024, 1024]> input_tensor_233_weight_0_to_fp16 = const()[name = tensor<string, []>("input_tensor_233_weight_0_to_fp16"), val = tensor<fp16, [1024, 1024]>(BLOBFILE(path = tensor<string, []>("@model_path/weights/weight.bin"), offset = tensor<uint64, []>(140459520)))];
            tensor<fp16, [1024]> input_tensor_233_bias_0_to_fp16 = const()[name = tensor<string, []>("input_tensor_233_bias_0_to_fp16"), val = tensor<fp16, [1024]>(BLOBFILE(path = tensor<string, []>("@model_path/weights/weight.bin"), offset = tensor<uint64, []>(142556736)))];
            tensor<fp16, [1, 128, 1024]> input_tensor_233_cast_fp16 = linear(bias = input_tensor_233_bias_0_to_fp16, weight = input_tensor_233_weight_0_to_fp16, x = x_39_cast_fp16)[name = tensor<string, []>("input_tensor_233_cast_fp16")];
            tensor<int32, [4]> var_2922 = const()[name = tensor<string, []>("op_2922"), val = tensor<int32, [4]>([1, 128, 16, 64])];
            tensor<fp16, [1, 128, 16, 64]> input_tensor_267_cast_fp16 = reshape(shape = var_2922, x = input_tensor_233_cast_fp16)[name = tensor<string, []>("input_tensor_267_cast_fp16")];
            tensor<fp16, [1024, 1024]> input_tensor_243_weight_0_to_fp16 = const()[name = tensor<string, []>("input_tensor_243_weight_0_to_fp16"), val = tensor<fp16, [1024, 1024]>(BLOBFILE(path = tensor<string, []>("@model_path/weights/weight.bin"), offset = tensor<uint64, []>(142558848)))];
            tensor<fp16, [1024]> input_tensor_243_bias_0_to_fp16 = const()[name = tensor<string, []>("input_tensor_243_bias_0_to_fp16"), val = tensor<fp16, [1024]>(BLOBFILE(path = tensor<string, []>("@model_path/weights/weight.bin"), offset = tensor<uint64, []>(144656064)))];
            tensor<fp16, [1, 128, 1024]> input_tensor_243_cast_fp16 = linear(bias = input_tensor_243_bias_0_to_fp16, weight = input_tensor_243_weight_0_to_fp16, x = x_39_cast_fp16)[name = tensor<string, []>("input_tensor_243_cast_fp16")];
            tensor<int32, [4]> var_2972 = const()[name = tensor<string, []>("op_2972"), val = tensor<int32, [4]>([1, 128, 16, 64])];
            tensor<fp16, [1, 128, 16, 64]> input_tensor_253_cast_fp16 = reshape(shape = var_2972, x = input_tensor_243_cast_fp16)[name = tensor<string, []>("input_tensor_253_cast_fp16")];
            tensor<int32, [4]> var_2978 = const()[name = tensor<string, []>("op_2978"), val = tensor<int32, [4]>([0, 2, 1, 3])];
            tensor<int32, [4]> var_3025 = const()[name = tensor<string, []>("op_3025"), val = tensor<int32, [4]>([1, 128, 16, 64])];
            tensor<fp16, [1, 128, 16, 64]> input_tensor_265_cast_fp16 = reshape(shape = var_3025, x = input_tensor_255_cast_fp16)[name = tensor<string, []>("input_tensor_265_cast_fp16")];
            tensor<bool, []> first_135_transpose_x_0 = const()[name = tensor<string, []>("first_135_transpose_x_0"), val = tensor<bool, []>(false)];
            tensor<bool, []> first_135_transpose_y_0 = const()[name = tensor<string, []>("first_135_transpose_y_0"), val = tensor<bool, []>(false)];
            tensor<int32, [4]> transpose_246_perm_0 = const()[name = tensor<string, []>("transpose_246_perm_0"), val = tensor<int32, [4]>([0, 2, -3, -1])];
            tensor<int32, [4]> transpose_247_perm_0 = const()[name = tensor<string, []>("transpose_247_perm_0"), val = tensor<int32, [4]>([0, 2, -1, -3])];
            tensor<fp16, [1, 16, 64, 128]> transpose_369 = transpose(perm = transpose_247_perm_0, x = input_tensor_267_cast_fp16)[name = tensor<string, []>("transpose_369")];
            tensor<fp16, [1, 16, 128, 64]> transpose_370 = transpose(perm = transpose_246_perm_0, x = input_tensor_265_cast_fp16)[name = tensor<string, []>("transpose_370")];
            tensor<fp16, [1, 16, 128, 128]> first_135_cast_fp16 = matmul(transpose_x = first_135_transpose_x_0, transpose_y = first_135_transpose_y_0, x = transpose_370, y = transpose_369)[name = tensor<string, []>("first_135_cast_fp16")];
            tensor<fp16, []> _inversed_first_137_y_0_to_fp16 = const()[name = tensor<string, []>("_inversed_first_137_y_0_to_fp16"), val = tensor<fp16, []>(0x1p-3)];
            tensor<fp16, [1, 16, 128, 128]> _inversed_first_137_cast_fp16 = mul(x = first_135_cast_fp16, y = _inversed_first_137_y_0_to_fp16)[name = tensor<string, []>("_inversed_first_137_cast_fp16")];
            tensor<fp16, [1, 16, 128, 128]> input_tensor_269_cast_fp16 = add(x = _inversed_first_137_cast_fp16, y = second_27_cast_fp16)[name = tensor<string, []>("input_tensor_269_cast_fp16")];
            tensor<int32, []> var_3044 = const()[name = tensor<string, []>("op_3044"), val = tensor<int32, []>(-1)];
            tensor<fp16, [1, 16, 128, 128]> result_7_cast_fp16 = softmax(axis = var_3044, x = input_tensor_269_cast_fp16)[name = tensor<string, []>("result_7_cast_fp16")];
            tensor<bool, []> input_tensor_273_transpose_x_0 = const()[name = tensor<string, []>("input_tensor_273_transpose_x_0"), val = tensor<bool, []>(false)];
            tensor<bool, []> input_tensor_273_transpose_y_0 = const()[name = tensor<string, []>("input_tensor_273_transpose_y_0"), val = tensor<bool, []>(false)];
            tensor<fp16, [1, 16, 128, 64]> transpose_371 = transpose(perm = var_2978, x = input_tensor_253_cast_fp16)[name = tensor<string, []>("transpose_371")];
            tensor<fp16, [1, 16, 128, 64]> input_tensor_273_cast_fp16 = matmul(transpose_x = input_tensor_273_transpose_x_0, transpose_y = input_tensor_273_transpose_y_0, x = result_7_cast_fp16, y = transpose_371)[name = tensor<string, []>("input_tensor_273_cast_fp16")];
            tensor<int32, [4]> var_3062 = const()[name = tensor<string, []>("op_3062"), val = tensor<int32, [4]>([0, 2, 1, 3])];
            tensor<int32, [3]> var_3107 = const()[name = tensor<string, []>("op_3107"), val = tensor<int32, [3]>([1, 128, 1024])];
            tensor<fp16, [1, 128, 16, 64]> transpose_368 = transpose(perm = var_3062, x = input_tensor_273_cast_fp16)[name = tensor<string, []>("transpose_368")];
            tensor<fp16, [1, 128, 1024]> x_45_cast_fp16 = reshape(shape = var_3107, x = transpose_368)[name = tensor<string, []>("x_45_cast_fp16")];
            tensor<fp16, [1024, 1024]> first_141_weight_0_to_fp16 = const()[name = tensor<string, []>("first_141_weight_0_to_fp16"), val = tensor<fp16, [1024, 1024]>(BLOBFILE(path = tensor<string, []>("@model_path/weights/weight.bin"), offset = tensor<uint64, []>(144658176)))];
            tensor<fp16, [1024]> first_141_bias_0_to_fp16 = const()[name = tensor<string, []>("first_141_bias_0_to_fp16"), val = tensor<fp16, [1024]>(BLOBFILE(path = tensor<string, []>("@model_path/weights/weight.bin"), offset = tensor<uint64, []>(146755392)))];
            tensor<fp16, [1, 128, 1024]> first_141_cast_fp16 = linear(bias = first_141_bias_0_to_fp16, weight = first_141_weight_0_to_fp16, x = x_45_cast_fp16)[name = tensor<string, []>("first_141_cast_fp16")];
            tensor<fp16, [1, 128, 1024]> input_tensor_285_cast_fp16 = add(x = first_141_cast_fp16, y = x_39_cast_fp16)[name = tensor<string, []>("input_tensor_285_cast_fp16")];
            tensor<bool, []> var_3115 = const()[name = tensor<string, []>("op_3115"), val = tensor<bool, []>(true)];
            tensor<int32, [1]> var_3117 = const()[name = tensor<string, []>("op_3117"), val = tensor<int32, [1]>([-1])];
            tensor<fp16, [1, 128, 1]> second_157_cast_fp16 = reduce_mean(axes = var_3117, keep_dims = var_3115, x = input_tensor_285_cast_fp16)[name = tensor<string, []>("second_157_cast_fp16")];
            tensor<fp16, [1, 128, 1024]> input_tensor_287_cast_fp16 = sub(x = input_tensor_285_cast_fp16, y = second_157_cast_fp16)[name = tensor<string, []>("input_tensor_287_cast_fp16")];
            tensor<fp16, []> encoder_layer_3_attention_output_LayerNorm_Constant_value_to_fp16 = const()[name = tensor<string, []>("encoder_layer_3_attention_output_LayerNorm_Constant_value_to_fp16"), val = tensor<fp16, []>(0x1p+1)];
            tensor<fp16, [1, 128, 1024]> input_tensor_289_cast_fp16 = pow(x = input_tensor_287_cast_fp16, y = encoder_layer_3_attention_output_LayerNorm_Constant_value_to_fp16)[name = tensor<string, []>("input_tensor_289_cast_fp16")];
            tensor<bool, []> var_3123 = const()[name = tensor<string, []>("op_3123"), val = tensor<bool, []>(true)];
            tensor<int32, [1]> var_3125 = const()[name = tensor<string, []>("op_3125"), val = tensor<int32, [1]>([-1])];
            tensor<fp16, [1, 128, 1]> first_143_cast_fp16 = reduce_mean(axes = var_3125, keep_dims = var_3123, x = input_tensor_289_cast_fp16)[name = tensor<string, []>("first_143_cast_fp16")];
            tensor<fp16, []> encoder_layer_3_attention_output_LayerNorm_Constant_1_value_to_fp16 = const()[name = tensor<string, []>("encoder_layer_3_attention_output_LayerNorm_Constant_1_value_to_fp16"), val = tensor<fp16, []>(0x1p-24)];
            tensor<fp16, [1, 128, 1]> input_tensor_291_cast_fp16 = add(x = first_143_cast_fp16, y = encoder_layer_3_attention_output_LayerNorm_Constant_1_value_to_fp16)[name = tensor<string, []>("input_tensor_291_cast_fp16")];
            tensor<fp16, [1, 128, 1]> second_161_cast_fp16 = sqrt(x = input_tensor_291_cast_fp16)[name = tensor<string, []>("second_161_cast_fp16")];
            tensor<fp16, [1, 128, 1024]> first_145_cast_fp16 = real_div(x = input_tensor_287_cast_fp16, y = second_161_cast_fp16)[name = tensor<string, []>("first_145_cast_fp16")];
            tensor<fp16, [1024]> initializers_onnx_initializer_61_to_fp16 = const()[name = tensor<string, []>("initializers_onnx_initializer_61_to_fp16"), val = tensor<fp16, [1024]>(BLOBFILE(path = tensor<string, []>("@model_path/weights/weight.bin"), offset = tensor<uint64, []>(146757504)))];
            tensor<fp16, [1, 128, 1024]> first_147_cast_fp16 = mul(x = first_145_cast_fp16, y = initializers_onnx_initializer_61_to_fp16)[name = tensor<string, []>("first_147_cast_fp16")];
            tensor<fp16, [1024]> initializers_onnx_initializer_62_to_fp16 = const()[name = tensor<string, []>("initializers_onnx_initializer_62_to_fp16"), val = tensor<fp16, [1024]>(BLOBFILE(path = tensor<string, []>("@model_path/weights/weight.bin"), offset = tensor<uint64, []>(146759616)))];
            tensor<fp16, [1, 128, 1024]> x_47_cast_fp16 = add(x = first_147_cast_fp16, y = initializers_onnx_initializer_62_to_fp16)[name = tensor<string, []>("x_47_cast_fp16")];
            tensor<fp16, [4096, 1024]> first_151_weight_0_to_fp16 = const()[name = tensor<string, []>("first_151_weight_0_to_fp16"), val = tensor<fp16, [4096, 1024]>(BLOBFILE(path = tensor<string, []>("@model_path/weights/weight.bin"), offset = tensor<uint64, []>(146761728)))];
            tensor<fp16, [4096]> first_151_bias_0_to_fp16 = const()[name = tensor<string, []>("first_151_bias_0_to_fp16"), val = tensor<fp16, [4096]>(BLOBFILE(path = tensor<string, []>("@model_path/weights/weight.bin"), offset = tensor<uint64, []>(155150400)))];
            tensor<fp16, [1, 128, 4096]> first_151_cast_fp16 = linear(bias = first_151_bias_0_to_fp16, weight = first_151_weight_0_to_fp16, x = x_47_cast_fp16)[name = tensor<string, []>("first_151_cast_fp16")];
            tensor<string, []> x_49_mode_0 = const()[name = tensor<string, []>("x_49_mode_0"), val = tensor<string, []>("EXACT")];
            tensor<fp16, [1, 128, 4096]> x_49_cast_fp16 = gelu(mode = x_49_mode_0, x = first_151_cast_fp16)[name = tensor<string, []>("x_49_cast_fp16")];
            tensor<fp16, [1024, 4096]> first_159_weight_0_to_fp16 = const()[name = tensor<string, []>("first_159_weight_0_to_fp16"), val = tensor<fp16, [1024, 4096]>(BLOBFILE(path = tensor<string, []>("@model_path/weights/weight.bin"), offset = tensor<uint64, []>(155158656)))];
            tensor<fp16, [1024]> first_159_bias_0_to_fp16 = const()[name = tensor<string, []>("first_159_bias_0_to_fp16"), val = tensor<fp16, [1024]>(BLOBFILE(path = tensor<string, []>("@model_path/weights/weight.bin"), offset = tensor<uint64, []>(163547328)))];
            tensor<fp16, [1, 128, 1024]> first_159_cast_fp16 = linear(bias = first_159_bias_0_to_fp16, weight = first_159_weight_0_to_fp16, x = x_49_cast_fp16)[name = tensor<string, []>("first_159_cast_fp16")];
            tensor<fp16, [1, 128, 1024]> input_tensor_295_cast_fp16 = add(x = first_159_cast_fp16, y = x_47_cast_fp16)[name = tensor<string, []>("input_tensor_295_cast_fp16")];
            tensor<bool, []> var_3149 = const()[name = tensor<string, []>("op_3149"), val = tensor<bool, []>(true)];
            tensor<int32, [1]> var_3151 = const()[name = tensor<string, []>("op_3151"), val = tensor<int32, [1]>([-1])];
            tensor<fp16, [1, 128, 1]> second_179_cast_fp16 = reduce_mean(axes = var_3151, keep_dims = var_3149, x = input_tensor_295_cast_fp16)[name = tensor<string, []>("second_179_cast_fp16")];
            tensor<fp16, [1, 128, 1024]> input_tensor_297_cast_fp16 = sub(x = input_tensor_295_cast_fp16, y = second_179_cast_fp16)[name = tensor<string, []>("input_tensor_297_cast_fp16")];
            tensor<fp16, []> encoder_layer_3_output_LayerNorm_Constant_value_to_fp16 = const()[name = tensor<string, []>("encoder_layer_3_output_LayerNorm_Constant_value_to_fp16"), val = tensor<fp16, []>(0x1p+1)];
            tensor<fp16, [1, 128, 1024]> input_tensor_299_cast_fp16 = pow(x = input_tensor_297_cast_fp16, y = encoder_layer_3_output_LayerNorm_Constant_value_to_fp16)[name = tensor<string, []>("input_tensor_299_cast_fp16")];
            tensor<bool, []> var_3157 = const()[name = tensor<string, []>("op_3157"), val = tensor<bool, []>(true)];
            tensor<int32, [1]> var_3159 = const()[name = tensor<string, []>("op_3159"), val = tensor<int32, [1]>([-1])];
            tensor<fp16, [1, 128, 1]> first_161_cast_fp16 = reduce_mean(axes = var_3159, keep_dims = var_3157, x = input_tensor_299_cast_fp16)[name = tensor<string, []>("first_161_cast_fp16")];
            tensor<fp16, []> encoder_layer_3_output_LayerNorm_Constant_1_value_to_fp16 = const()[name = tensor<string, []>("encoder_layer_3_output_LayerNorm_Constant_1_value_to_fp16"), val = tensor<fp16, []>(0x1p-24)];
            tensor<fp16, [1, 128, 1]> input_tensor_301_cast_fp16 = add(x = first_161_cast_fp16, y = encoder_layer_3_output_LayerNorm_Constant_1_value_to_fp16)[name = tensor<string, []>("input_tensor_301_cast_fp16")];
            tensor<fp16, [1, 128, 1]> second_183_cast_fp16 = sqrt(x = input_tensor_301_cast_fp16)[name = tensor<string, []>("second_183_cast_fp16")];
            tensor<fp16, [1, 128, 1024]> first_163_cast_fp16 = real_div(x = input_tensor_297_cast_fp16, y = second_183_cast_fp16)[name = tensor<string, []>("first_163_cast_fp16")];
            tensor<fp16, [1024]> initializers_onnx_initializer_67_to_fp16 = const()[name = tensor<string, []>("initializers_onnx_initializer_67_to_fp16"), val = tensor<fp16, [1024]>(BLOBFILE(path = tensor<string, []>("@model_path/weights/weight.bin"), offset = tensor<uint64, []>(163549440)))];
            tensor<fp16, [1, 128, 1024]> first_165_cast_fp16 = mul(x = first_163_cast_fp16, y = initializers_onnx_initializer_67_to_fp16)[name = tensor<string, []>("first_165_cast_fp16")];
            tensor<fp16, [1024]> initializers_onnx_initializer_68_to_fp16 = const()[name = tensor<string, []>("initializers_onnx_initializer_68_to_fp16"), val = tensor<fp16, [1024]>(BLOBFILE(path = tensor<string, []>("@model_path/weights/weight.bin"), offset = tensor<uint64, []>(163551552)))];
            tensor<fp16, [1, 128, 1024]> x_51_cast_fp16 = add(x = first_165_cast_fp16, y = initializers_onnx_initializer_68_to_fp16)[name = tensor<string, []>("x_51_cast_fp16")];
            tensor<fp16, [1024, 1024]> input_tensor_325_weight_0_to_fp16 = const()[name = tensor<string, []>("input_tensor_325_weight_0_to_fp16"), val = tensor<fp16, [1024, 1024]>(BLOBFILE(path = tensor<string, []>("@model_path/weights/weight.bin"), offset = tensor<uint64, []>(163553664)))];
            tensor<fp16, [1024]> input_tensor_325_bias_0_to_fp16 = const()[name = tensor<string, []>("input_tensor_325_bias_0_to_fp16"), val = tensor<fp16, [1024]>(BLOBFILE(path = tensor<string, []>("@model_path/weights/weight.bin"), offset = tensor<uint64, []>(165650880)))];
            tensor<fp16, [1, 128, 1024]> input_tensor_325_cast_fp16 = linear(bias = input_tensor_325_bias_0_to_fp16, weight = input_tensor_325_weight_0_to_fp16, x = x_51_cast_fp16)[name = tensor<string, []>("input_tensor_325_cast_fp16")];
            tensor<fp16, [1024, 1024]> input_tensor_303_weight_0_to_fp16 = const()[name = tensor<string, []>("input_tensor_303_weight_0_to_fp16"), val = tensor<fp16, [1024, 1024]>(BLOBFILE(path = tensor<string, []>("@model_path/weights/weight.bin"), offset = tensor<uint64, []>(165652992)))];
            tensor<fp16, [1024]> input_tensor_303_bias_0_to_fp16 = const()[name = tensor<string, []>("input_tensor_303_bias_0_to_fp16"), val = tensor<fp16, [1024]>(BLOBFILE(path = tensor<string, []>("@model_path/weights/weight.bin"), offset = tensor<uint64, []>(167750208)))];
            tensor<fp16, [1, 128, 1024]> input_tensor_303_cast_fp16 = linear(bias = input_tensor_303_bias_0_to_fp16, weight = input_tensor_303_weight_0_to_fp16, x = x_51_cast_fp16)[name = tensor<string, []>("input_tensor_303_cast_fp16")];
            tensor<int32, [4]> var_3219 = const()[name = tensor<string, []>("op_3219"), val = tensor<int32, [4]>([1, 128, 16, 64])];
            tensor<fp16, [1, 128, 16, 64]> input_tensor_337_cast_fp16 = reshape(shape = var_3219, x = input_tensor_303_cast_fp16)[name = tensor<string, []>("input_tensor_337_cast_fp16")];
            tensor<fp16, [1024, 1024]> input_tensor_313_weight_0_to_fp16 = const()[name = tensor<string, []>("input_tensor_313_weight_0_to_fp16"), val = tensor<fp16, [1024, 1024]>(BLOBFILE(path = tensor<string, []>("@model_path/weights/weight.bin"), offset = tensor<uint64, []>(167752320)))];
            tensor<fp16, [1024]> input_tensor_313_bias_0_to_fp16 = const()[name = tensor<string, []>("input_tensor_313_bias_0_to_fp16"), val = tensor<fp16, [1024]>(BLOBFILE(path = tensor<string, []>("@model_path/weights/weight.bin"), offset = tensor<uint64, []>(169849536)))];
            tensor<fp16, [1, 128, 1024]> input_tensor_313_cast_fp16 = linear(bias = input_tensor_313_bias_0_to_fp16, weight = input_tensor_313_weight_0_to_fp16, x = x_51_cast_fp16)[name = tensor<string, []>("input_tensor_313_cast_fp16")];
            tensor<int32, [4]> var_3269 = const()[name = tensor<string, []>("op_3269"), val = tensor<int32, [4]>([1, 128, 16, 64])];
            tensor<fp16, [1, 128, 16, 64]> input_tensor_323_cast_fp16 = reshape(shape = var_3269, x = input_tensor_313_cast_fp16)[name = tensor<string, []>("input_tensor_323_cast_fp16")];
            tensor<int32, [4]> var_3275 = const()[name = tensor<string, []>("op_3275"), val = tensor<int32, [4]>([0, 2, 1, 3])];
            tensor<int32, [4]> var_3322 = const()[name = tensor<string, []>("op_3322"), val = tensor<int32, [4]>([1, 128, 16, 64])];
            tensor<fp16, [1, 128, 16, 64]> input_tensor_335_cast_fp16 = reshape(shape = var_3322, x = input_tensor_325_cast_fp16)[name = tensor<string, []>("input_tensor_335_cast_fp16")];
            tensor<bool, []> first_173_transpose_x_0 = const()[name = tensor<string, []>("first_173_transpose_x_0"), val = tensor<bool, []>(false)];
            tensor<bool, []> first_173_transpose_y_0 = const()[name = tensor<string, []>("first_173_transpose_y_0"), val = tensor<bool, []>(false)];
            tensor<int32, [4]> transpose_248_perm_0 = const()[name = tensor<string, []>("transpose_248_perm_0"), val = tensor<int32, [4]>([0, 2, -3, -1])];
            tensor<int32, [4]> transpose_249_perm_0 = const()[name = tensor<string, []>("transpose_249_perm_0"), val = tensor<int32, [4]>([0, 2, -1, -3])];
            tensor<fp16, [1, 16, 64, 128]> transpose_365 = transpose(perm = transpose_249_perm_0, x = input_tensor_337_cast_fp16)[name = tensor<string, []>("transpose_365")];
            tensor<fp16, [1, 16, 128, 64]> transpose_366 = transpose(perm = transpose_248_perm_0, x = input_tensor_335_cast_fp16)[name = tensor<string, []>("transpose_366")];
            tensor<fp16, [1, 16, 128, 128]> first_173_cast_fp16 = matmul(transpose_x = first_173_transpose_x_0, transpose_y = first_173_transpose_y_0, x = transpose_366, y = transpose_365)[name = tensor<string, []>("first_173_cast_fp16")];
            tensor<fp16, []> _inversed_first_175_y_0_to_fp16 = const()[name = tensor<string, []>("_inversed_first_175_y_0_to_fp16"), val = tensor<fp16, []>(0x1p-3)];
            tensor<fp16, [1, 16, 128, 128]> _inversed_first_175_cast_fp16 = mul(x = first_173_cast_fp16, y = _inversed_first_175_y_0_to_fp16)[name = tensor<string, []>("_inversed_first_175_cast_fp16")];
            tensor<fp16, [1, 16, 128, 128]> input_tensor_339_cast_fp16 = add(x = _inversed_first_175_cast_fp16, y = second_27_cast_fp16)[name = tensor<string, []>("input_tensor_339_cast_fp16")];
            tensor<int32, []> var_3341 = const()[name = tensor<string, []>("op_3341"), val = tensor<int32, []>(-1)];
            tensor<fp16, [1, 16, 128, 128]> result_9_cast_fp16 = softmax(axis = var_3341, x = input_tensor_339_cast_fp16)[name = tensor<string, []>("result_9_cast_fp16")];
            tensor<bool, []> input_tensor_343_transpose_x_0 = const()[name = tensor<string, []>("input_tensor_343_transpose_x_0"), val = tensor<bool, []>(false)];
            tensor<bool, []> input_tensor_343_transpose_y_0 = const()[name = tensor<string, []>("input_tensor_343_transpose_y_0"), val = tensor<bool, []>(false)];
            tensor<fp16, [1, 16, 128, 64]> transpose_367 = transpose(perm = var_3275, x = input_tensor_323_cast_fp16)[name = tensor<string, []>("transpose_367")];
            tensor<fp16, [1, 16, 128, 64]> input_tensor_343_cast_fp16 = matmul(transpose_x = input_tensor_343_transpose_x_0, transpose_y = input_tensor_343_transpose_y_0, x = result_9_cast_fp16, y = transpose_367)[name = tensor<string, []>("input_tensor_343_cast_fp16")];
            tensor<int32, [4]> var_3359 = const()[name = tensor<string, []>("op_3359"), val = tensor<int32, [4]>([0, 2, 1, 3])];
            tensor<int32, [3]> var_3404 = const()[name = tensor<string, []>("op_3404"), val = tensor<int32, [3]>([1, 128, 1024])];
            tensor<fp16, [1, 128, 16, 64]> transpose_364 = transpose(perm = var_3359, x = input_tensor_343_cast_fp16)[name = tensor<string, []>("transpose_364")];
            tensor<fp16, [1, 128, 1024]> x_57_cast_fp16 = reshape(shape = var_3404, x = transpose_364)[name = tensor<string, []>("x_57_cast_fp16")];
            tensor<fp16, [1024, 1024]> first_179_weight_0_to_fp16 = const()[name = tensor<string, []>("first_179_weight_0_to_fp16"), val = tensor<fp16, [1024, 1024]>(BLOBFILE(path = tensor<string, []>("@model_path/weights/weight.bin"), offset = tensor<uint64, []>(169851648)))];
            tensor<fp16, [1024]> first_179_bias_0_to_fp16 = const()[name = tensor<string, []>("first_179_bias_0_to_fp16"), val = tensor<fp16, [1024]>(BLOBFILE(path = tensor<string, []>("@model_path/weights/weight.bin"), offset = tensor<uint64, []>(171948864)))];
            tensor<fp16, [1, 128, 1024]> first_179_cast_fp16 = linear(bias = first_179_bias_0_to_fp16, weight = first_179_weight_0_to_fp16, x = x_57_cast_fp16)[name = tensor<string, []>("first_179_cast_fp16")];
            tensor<fp16, [1, 128, 1024]> input_tensor_355_cast_fp16 = add(x = first_179_cast_fp16, y = x_51_cast_fp16)[name = tensor<string, []>("input_tensor_355_cast_fp16")];
            tensor<bool, []> var_3412 = const()[name = tensor<string, []>("op_3412"), val = tensor<bool, []>(true)];
            tensor<int32, [1]> var_3414 = const()[name = tensor<string, []>("op_3414"), val = tensor<int32, [1]>([-1])];
            tensor<fp16, [1, 128, 1]> second_199_cast_fp16 = reduce_mean(axes = var_3414, keep_dims = var_3412, x = input_tensor_355_cast_fp16)[name = tensor<string, []>("second_199_cast_fp16")];
            tensor<fp16, [1, 128, 1024]> input_tensor_357_cast_fp16 = sub(x = input_tensor_355_cast_fp16, y = second_199_cast_fp16)[name = tensor<string, []>("input_tensor_357_cast_fp16")];
            tensor<fp16, []> encoder_layer_4_attention_output_LayerNorm_Constant_value_to_fp16 = const()[name = tensor<string, []>("encoder_layer_4_attention_output_LayerNorm_Constant_value_to_fp16"), val = tensor<fp16, []>(0x1p+1)];
            tensor<fp16, [1, 128, 1024]> input_tensor_359_cast_fp16 = pow(x = input_tensor_357_cast_fp16, y = encoder_layer_4_attention_output_LayerNorm_Constant_value_to_fp16)[name = tensor<string, []>("input_tensor_359_cast_fp16")];
            tensor<bool, []> var_3420 = const()[name = tensor<string, []>("op_3420"), val = tensor<bool, []>(true)];
            tensor<int32, [1]> var_3422 = const()[name = tensor<string, []>("op_3422"), val = tensor<int32, [1]>([-1])];
            tensor<fp16, [1, 128, 1]> first_181_cast_fp16 = reduce_mean(axes = var_3422, keep_dims = var_3420, x = input_tensor_359_cast_fp16)[name = tensor<string, []>("first_181_cast_fp16")];
            tensor<fp16, []> encoder_layer_4_attention_output_LayerNorm_Constant_1_value_to_fp16 = const()[name = tensor<string, []>("encoder_layer_4_attention_output_LayerNorm_Constant_1_value_to_fp16"), val = tensor<fp16, []>(0x1p-24)];
            tensor<fp16, [1, 128, 1]> input_tensor_361_cast_fp16 = add(x = first_181_cast_fp16, y = encoder_layer_4_attention_output_LayerNorm_Constant_1_value_to_fp16)[name = tensor<string, []>("input_tensor_361_cast_fp16")];
            tensor<fp16, [1, 128, 1]> second_203_cast_fp16 = sqrt(x = input_tensor_361_cast_fp16)[name = tensor<string, []>("second_203_cast_fp16")];
            tensor<fp16, [1, 128, 1024]> first_183_cast_fp16 = real_div(x = input_tensor_357_cast_fp16, y = second_203_cast_fp16)[name = tensor<string, []>("first_183_cast_fp16")];
            tensor<fp16, [1024]> initializers_onnx_initializer_77_to_fp16 = const()[name = tensor<string, []>("initializers_onnx_initializer_77_to_fp16"), val = tensor<fp16, [1024]>(BLOBFILE(path = tensor<string, []>("@model_path/weights/weight.bin"), offset = tensor<uint64, []>(171950976)))];
            tensor<fp16, [1, 128, 1024]> first_185_cast_fp16 = mul(x = first_183_cast_fp16, y = initializers_onnx_initializer_77_to_fp16)[name = tensor<string, []>("first_185_cast_fp16")];
            tensor<fp16, [1024]> initializers_onnx_initializer_78_to_fp16 = const()[name = tensor<string, []>("initializers_onnx_initializer_78_to_fp16"), val = tensor<fp16, [1024]>(BLOBFILE(path = tensor<string, []>("@model_path/weights/weight.bin"), offset = tensor<uint64, []>(171953088)))];
            tensor<fp16, [1, 128, 1024]> x_59_cast_fp16 = add(x = first_185_cast_fp16, y = initializers_onnx_initializer_78_to_fp16)[name = tensor<string, []>("x_59_cast_fp16")];
            tensor<fp16, [4096, 1024]> first_189_weight_0_to_fp16 = const()[name = tensor<string, []>("first_189_weight_0_to_fp16"), val = tensor<fp16, [4096, 1024]>(BLOBFILE(path = tensor<string, []>("@model_path/weights/weight.bin"), offset = tensor<uint64, []>(171955200)))];
            tensor<fp16, [4096]> first_189_bias_0_to_fp16 = const()[name = tensor<string, []>("first_189_bias_0_to_fp16"), val = tensor<fp16, [4096]>(BLOBFILE(path = tensor<string, []>("@model_path/weights/weight.bin"), offset = tensor<uint64, []>(180343872)))];
            tensor<fp16, [1, 128, 4096]> first_189_cast_fp16 = linear(bias = first_189_bias_0_to_fp16, weight = first_189_weight_0_to_fp16, x = x_59_cast_fp16)[name = tensor<string, []>("first_189_cast_fp16")];
            tensor<string, []> x_61_mode_0 = const()[name = tensor<string, []>("x_61_mode_0"), val = tensor<string, []>("EXACT")];
            tensor<fp16, [1, 128, 4096]> x_61_cast_fp16 = gelu(mode = x_61_mode_0, x = first_189_cast_fp16)[name = tensor<string, []>("x_61_cast_fp16")];
            tensor<fp16, [1024, 4096]> first_197_weight_0_to_fp16 = const()[name = tensor<string, []>("first_197_weight_0_to_fp16"), val = tensor<fp16, [1024, 4096]>(BLOBFILE(path = tensor<string, []>("@model_path/weights/weight.bin"), offset = tensor<uint64, []>(180352128)))];
            tensor<fp16, [1024]> first_197_bias_0_to_fp16 = const()[name = tensor<string, []>("first_197_bias_0_to_fp16"), val = tensor<fp16, [1024]>(BLOBFILE(path = tensor<string, []>("@model_path/weights/weight.bin"), offset = tensor<uint64, []>(188740800)))];
            tensor<fp16, [1, 128, 1024]> first_197_cast_fp16 = linear(bias = first_197_bias_0_to_fp16, weight = first_197_weight_0_to_fp16, x = x_61_cast_fp16)[name = tensor<string, []>("first_197_cast_fp16")];
            tensor<fp16, [1, 128, 1024]> input_tensor_365_cast_fp16 = add(x = first_197_cast_fp16, y = x_59_cast_fp16)[name = tensor<string, []>("input_tensor_365_cast_fp16")];
            tensor<bool, []> var_3446 = const()[name = tensor<string, []>("op_3446"), val = tensor<bool, []>(true)];
            tensor<int32, [1]> var_3448 = const()[name = tensor<string, []>("op_3448"), val = tensor<int32, [1]>([-1])];
            tensor<fp16, [1, 128, 1]> second_221_cast_fp16 = reduce_mean(axes = var_3448, keep_dims = var_3446, x = input_tensor_365_cast_fp16)[name = tensor<string, []>("second_221_cast_fp16")];
            tensor<fp16, [1, 128, 1024]> input_tensor_367_cast_fp16 = sub(x = input_tensor_365_cast_fp16, y = second_221_cast_fp16)[name = tensor<string, []>("input_tensor_367_cast_fp16")];
            tensor<fp16, []> encoder_layer_4_output_LayerNorm_Constant_value_to_fp16 = const()[name = tensor<string, []>("encoder_layer_4_output_LayerNorm_Constant_value_to_fp16"), val = tensor<fp16, []>(0x1p+1)];
            tensor<fp16, [1, 128, 1024]> input_tensor_369_cast_fp16 = pow(x = input_tensor_367_cast_fp16, y = encoder_layer_4_output_LayerNorm_Constant_value_to_fp16)[name = tensor<string, []>("input_tensor_369_cast_fp16")];
            tensor<bool, []> var_3454 = const()[name = tensor<string, []>("op_3454"), val = tensor<bool, []>(true)];
            tensor<int32, [1]> var_3456 = const()[name = tensor<string, []>("op_3456"), val = tensor<int32, [1]>([-1])];
            tensor<fp16, [1, 128, 1]> first_199_cast_fp16 = reduce_mean(axes = var_3456, keep_dims = var_3454, x = input_tensor_369_cast_fp16)[name = tensor<string, []>("first_199_cast_fp16")];
            tensor<fp16, []> encoder_layer_4_output_LayerNorm_Constant_1_value_to_fp16 = const()[name = tensor<string, []>("encoder_layer_4_output_LayerNorm_Constant_1_value_to_fp16"), val = tensor<fp16, []>(0x1p-24)];
            tensor<fp16, [1, 128, 1]> input_tensor_371_cast_fp16 = add(x = first_199_cast_fp16, y = encoder_layer_4_output_LayerNorm_Constant_1_value_to_fp16)[name = tensor<string, []>("input_tensor_371_cast_fp16")];
            tensor<fp16, [1, 128, 1]> second_225_cast_fp16 = sqrt(x = input_tensor_371_cast_fp16)[name = tensor<string, []>("second_225_cast_fp16")];
            tensor<fp16, [1, 128, 1024]> first_201_cast_fp16 = real_div(x = input_tensor_367_cast_fp16, y = second_225_cast_fp16)[name = tensor<string, []>("first_201_cast_fp16")];
            tensor<fp16, [1024]> initializers_onnx_initializer_83_to_fp16 = const()[name = tensor<string, []>("initializers_onnx_initializer_83_to_fp16"), val = tensor<fp16, [1024]>(BLOBFILE(path = tensor<string, []>("@model_path/weights/weight.bin"), offset = tensor<uint64, []>(188742912)))];
            tensor<fp16, [1, 128, 1024]> first_203_cast_fp16 = mul(x = first_201_cast_fp16, y = initializers_onnx_initializer_83_to_fp16)[name = tensor<string, []>("first_203_cast_fp16")];
            tensor<fp16, [1024]> initializers_onnx_initializer_84_to_fp16 = const()[name = tensor<string, []>("initializers_onnx_initializer_84_to_fp16"), val = tensor<fp16, [1024]>(BLOBFILE(path = tensor<string, []>("@model_path/weights/weight.bin"), offset = tensor<uint64, []>(188745024)))];
            tensor<fp16, [1, 128, 1024]> x_63_cast_fp16 = add(x = first_203_cast_fp16, y = initializers_onnx_initializer_84_to_fp16)[name = tensor<string, []>("x_63_cast_fp16")];
            tensor<fp16, [1024, 1024]> input_tensor_395_weight_0_to_fp16 = const()[name = tensor<string, []>("input_tensor_395_weight_0_to_fp16"), val = tensor<fp16, [1024, 1024]>(BLOBFILE(path = tensor<string, []>("@model_path/weights/weight.bin"), offset = tensor<uint64, []>(188747136)))];
            tensor<fp16, [1024]> input_tensor_395_bias_0_to_fp16 = const()[name = tensor<string, []>("input_tensor_395_bias_0_to_fp16"), val = tensor<fp16, [1024]>(BLOBFILE(path = tensor<string, []>("@model_path/weights/weight.bin"), offset = tensor<uint64, []>(190844352)))];
            tensor<fp16, [1, 128, 1024]> input_tensor_395_cast_fp16 = linear(bias = input_tensor_395_bias_0_to_fp16, weight = input_tensor_395_weight_0_to_fp16, x = x_63_cast_fp16)[name = tensor<string, []>("input_tensor_395_cast_fp16")];
            tensor<fp16, [1024, 1024]> input_tensor_373_weight_0_to_fp16 = const()[name = tensor<string, []>("input_tensor_373_weight_0_to_fp16"), val = tensor<fp16, [1024, 1024]>(BLOBFILE(path = tensor<string, []>("@model_path/weights/weight.bin"), offset = tensor<uint64, []>(190846464)))];
            tensor<fp16, [1024]> input_tensor_373_bias_0_to_fp16 = const()[name = tensor<string, []>("input_tensor_373_bias_0_to_fp16"), val = tensor<fp16, [1024]>(BLOBFILE(path = tensor<string, []>("@model_path/weights/weight.bin"), offset = tensor<uint64, []>(192943680)))];
            tensor<fp16, [1, 128, 1024]> input_tensor_373_cast_fp16 = linear(bias = input_tensor_373_bias_0_to_fp16, weight = input_tensor_373_weight_0_to_fp16, x = x_63_cast_fp16)[name = tensor<string, []>("input_tensor_373_cast_fp16")];
            tensor<int32, [4]> var_3516 = const()[name = tensor<string, []>("op_3516"), val = tensor<int32, [4]>([1, 128, 16, 64])];
            tensor<fp16, [1, 128, 16, 64]> input_tensor_407_cast_fp16 = reshape(shape = var_3516, x = input_tensor_373_cast_fp16)[name = tensor<string, []>("input_tensor_407_cast_fp16")];
            tensor<fp16, [1024, 1024]> input_tensor_383_weight_0_to_fp16 = const()[name = tensor<string, []>("input_tensor_383_weight_0_to_fp16"), val = tensor<fp16, [1024, 1024]>(BLOBFILE(path = tensor<string, []>("@model_path/weights/weight.bin"), offset = tensor<uint64, []>(192945792)))];
            tensor<fp16, [1024]> input_tensor_383_bias_0_to_fp16 = const()[name = tensor<string, []>("input_tensor_383_bias_0_to_fp16"), val = tensor<fp16, [1024]>(BLOBFILE(path = tensor<string, []>("@model_path/weights/weight.bin"), offset = tensor<uint64, []>(195043008)))];
            tensor<fp16, [1, 128, 1024]> input_tensor_383_cast_fp16 = linear(bias = input_tensor_383_bias_0_to_fp16, weight = input_tensor_383_weight_0_to_fp16, x = x_63_cast_fp16)[name = tensor<string, []>("input_tensor_383_cast_fp16")];
            tensor<int32, [4]> var_3566 = const()[name = tensor<string, []>("op_3566"), val = tensor<int32, [4]>([1, 128, 16, 64])];
            tensor<fp16, [1, 128, 16, 64]> input_tensor_393_cast_fp16 = reshape(shape = var_3566, x = input_tensor_383_cast_fp16)[name = tensor<string, []>("input_tensor_393_cast_fp16")];
            tensor<int32, [4]> var_3572 = const()[name = tensor<string, []>("op_3572"), val = tensor<int32, [4]>([0, 2, 1, 3])];
            tensor<int32, [4]> var_3619 = const()[name = tensor<string, []>("op_3619"), val = tensor<int32, [4]>([1, 128, 16, 64])];
            tensor<fp16, [1, 128, 16, 64]> input_tensor_405_cast_fp16 = reshape(shape = var_3619, x = input_tensor_395_cast_fp16)[name = tensor<string, []>("input_tensor_405_cast_fp16")];
            tensor<bool, []> first_211_transpose_x_0 = const()[name = tensor<string, []>("first_211_transpose_x_0"), val = tensor<bool, []>(false)];
            tensor<bool, []> first_211_transpose_y_0 = const()[name = tensor<string, []>("first_211_transpose_y_0"), val = tensor<bool, []>(false)];
            tensor<int32, [4]> transpose_250_perm_0 = const()[name = tensor<string, []>("transpose_250_perm_0"), val = tensor<int32, [4]>([0, 2, -3, -1])];
            tensor<int32, [4]> transpose_251_perm_0 = const()[name = tensor<string, []>("transpose_251_perm_0"), val = tensor<int32, [4]>([0, 2, -1, -3])];
            tensor<fp16, [1, 16, 64, 128]> transpose_361 = transpose(perm = transpose_251_perm_0, x = input_tensor_407_cast_fp16)[name = tensor<string, []>("transpose_361")];
            tensor<fp16, [1, 16, 128, 64]> transpose_362 = transpose(perm = transpose_250_perm_0, x = input_tensor_405_cast_fp16)[name = tensor<string, []>("transpose_362")];
            tensor<fp16, [1, 16, 128, 128]> first_211_cast_fp16 = matmul(transpose_x = first_211_transpose_x_0, transpose_y = first_211_transpose_y_0, x = transpose_362, y = transpose_361)[name = tensor<string, []>("first_211_cast_fp16")];
            tensor<fp16, []> _inversed_first_213_y_0_to_fp16 = const()[name = tensor<string, []>("_inversed_first_213_y_0_to_fp16"), val = tensor<fp16, []>(0x1p-3)];
            tensor<fp16, [1, 16, 128, 128]> _inversed_first_213_cast_fp16 = mul(x = first_211_cast_fp16, y = _inversed_first_213_y_0_to_fp16)[name = tensor<string, []>("_inversed_first_213_cast_fp16")];
            tensor<fp16, [1, 16, 128, 128]> input_tensor_409_cast_fp16 = add(x = _inversed_first_213_cast_fp16, y = second_27_cast_fp16)[name = tensor<string, []>("input_tensor_409_cast_fp16")];
            tensor<int32, []> var_3638 = const()[name = tensor<string, []>("op_3638"), val = tensor<int32, []>(-1)];
            tensor<fp16, [1, 16, 128, 128]> result_11_cast_fp16 = softmax(axis = var_3638, x = input_tensor_409_cast_fp16)[name = tensor<string, []>("result_11_cast_fp16")];
            tensor<bool, []> input_tensor_413_transpose_x_0 = const()[name = tensor<string, []>("input_tensor_413_transpose_x_0"), val = tensor<bool, []>(false)];
            tensor<bool, []> input_tensor_413_transpose_y_0 = const()[name = tensor<string, []>("input_tensor_413_transpose_y_0"), val = tensor<bool, []>(false)];
            tensor<fp16, [1, 16, 128, 64]> transpose_363 = transpose(perm = var_3572, x = input_tensor_393_cast_fp16)[name = tensor<string, []>("transpose_363")];
            tensor<fp16, [1, 16, 128, 64]> input_tensor_413_cast_fp16 = matmul(transpose_x = input_tensor_413_transpose_x_0, transpose_y = input_tensor_413_transpose_y_0, x = result_11_cast_fp16, y = transpose_363)[name = tensor<string, []>("input_tensor_413_cast_fp16")];
            tensor<int32, [4]> var_3656 = const()[name = tensor<string, []>("op_3656"), val = tensor<int32, [4]>([0, 2, 1, 3])];
            tensor<int32, [3]> var_3701 = const()[name = tensor<string, []>("op_3701"), val = tensor<int32, [3]>([1, 128, 1024])];
            tensor<fp16, [1, 128, 16, 64]> transpose_360 = transpose(perm = var_3656, x = input_tensor_413_cast_fp16)[name = tensor<string, []>("transpose_360")];
            tensor<fp16, [1, 128, 1024]> x_69_cast_fp16 = reshape(shape = var_3701, x = transpose_360)[name = tensor<string, []>("x_69_cast_fp16")];
            tensor<fp16, [1024, 1024]> first_217_weight_0_to_fp16 = const()[name = tensor<string, []>("first_217_weight_0_to_fp16"), val = tensor<fp16, [1024, 1024]>(BLOBFILE(path = tensor<string, []>("@model_path/weights/weight.bin"), offset = tensor<uint64, []>(195045120)))];
            tensor<fp16, [1024]> first_217_bias_0_to_fp16 = const()[name = tensor<string, []>("first_217_bias_0_to_fp16"), val = tensor<fp16, [1024]>(BLOBFILE(path = tensor<string, []>("@model_path/weights/weight.bin"), offset = tensor<uint64, []>(197142336)))];
            tensor<fp16, [1, 128, 1024]> first_217_cast_fp16 = linear(bias = first_217_bias_0_to_fp16, weight = first_217_weight_0_to_fp16, x = x_69_cast_fp16)[name = tensor<string, []>("first_217_cast_fp16")];
            tensor<fp16, [1, 128, 1024]> input_tensor_425_cast_fp16 = add(x = first_217_cast_fp16, y = x_63_cast_fp16)[name = tensor<string, []>("input_tensor_425_cast_fp16")];
            tensor<bool, []> var_3709 = const()[name = tensor<string, []>("op_3709"), val = tensor<bool, []>(true)];
            tensor<int32, [1]> var_3711 = const()[name = tensor<string, []>("op_3711"), val = tensor<int32, [1]>([-1])];
            tensor<fp16, [1, 128, 1]> second_241_cast_fp16 = reduce_mean(axes = var_3711, keep_dims = var_3709, x = input_tensor_425_cast_fp16)[name = tensor<string, []>("second_241_cast_fp16")];
            tensor<fp16, [1, 128, 1024]> input_tensor_427_cast_fp16 = sub(x = input_tensor_425_cast_fp16, y = second_241_cast_fp16)[name = tensor<string, []>("input_tensor_427_cast_fp16")];
            tensor<fp16, []> encoder_layer_5_attention_output_LayerNorm_Constant_value_to_fp16 = const()[name = tensor<string, []>("encoder_layer_5_attention_output_LayerNorm_Constant_value_to_fp16"), val = tensor<fp16, []>(0x1p+1)];
            tensor<fp16, [1, 128, 1024]> input_tensor_429_cast_fp16 = pow(x = input_tensor_427_cast_fp16, y = encoder_layer_5_attention_output_LayerNorm_Constant_value_to_fp16)[name = tensor<string, []>("input_tensor_429_cast_fp16")];
            tensor<bool, []> var_3717 = const()[name = tensor<string, []>("op_3717"), val = tensor<bool, []>(true)];
            tensor<int32, [1]> var_3719 = const()[name = tensor<string, []>("op_3719"), val = tensor<int32, [1]>([-1])];
            tensor<fp16, [1, 128, 1]> first_219_cast_fp16 = reduce_mean(axes = var_3719, keep_dims = var_3717, x = input_tensor_429_cast_fp16)[name = tensor<string, []>("first_219_cast_fp16")];
            tensor<fp16, []> encoder_layer_5_attention_output_LayerNorm_Constant_1_value_to_fp16 = const()[name = tensor<string, []>("encoder_layer_5_attention_output_LayerNorm_Constant_1_value_to_fp16"), val = tensor<fp16, []>(0x1p-24)];
            tensor<fp16, [1, 128, 1]> input_tensor_431_cast_fp16 = add(x = first_219_cast_fp16, y = encoder_layer_5_attention_output_LayerNorm_Constant_1_value_to_fp16)[name = tensor<string, []>("input_tensor_431_cast_fp16")];
            tensor<fp16, [1, 128, 1]> second_245_cast_fp16 = sqrt(x = input_tensor_431_cast_fp16)[name = tensor<string, []>("second_245_cast_fp16")];
            tensor<fp16, [1, 128, 1024]> first_221_cast_fp16 = real_div(x = input_tensor_427_cast_fp16, y = second_245_cast_fp16)[name = tensor<string, []>("first_221_cast_fp16")];
            tensor<fp16, [1024]> initializers_onnx_initializer_93_to_fp16 = const()[name = tensor<string, []>("initializers_onnx_initializer_93_to_fp16"), val = tensor<fp16, [1024]>(BLOBFILE(path = tensor<string, []>("@model_path/weights/weight.bin"), offset = tensor<uint64, []>(197144448)))];
            tensor<fp16, [1, 128, 1024]> first_223_cast_fp16 = mul(x = first_221_cast_fp16, y = initializers_onnx_initializer_93_to_fp16)[name = tensor<string, []>("first_223_cast_fp16")];
            tensor<fp16, [1024]> initializers_onnx_initializer_94_to_fp16 = const()[name = tensor<string, []>("initializers_onnx_initializer_94_to_fp16"), val = tensor<fp16, [1024]>(BLOBFILE(path = tensor<string, []>("@model_path/weights/weight.bin"), offset = tensor<uint64, []>(197146560)))];
            tensor<fp16, [1, 128, 1024]> x_71_cast_fp16 = add(x = first_223_cast_fp16, y = initializers_onnx_initializer_94_to_fp16)[name = tensor<string, []>("x_71_cast_fp16")];
            tensor<fp16, [4096, 1024]> first_227_weight_0_to_fp16 = const()[name = tensor<string, []>("first_227_weight_0_to_fp16"), val = tensor<fp16, [4096, 1024]>(BLOBFILE(path = tensor<string, []>("@model_path/weights/weight.bin"), offset = tensor<uint64, []>(197148672)))];
            tensor<fp16, [4096]> first_227_bias_0_to_fp16 = const()[name = tensor<string, []>("first_227_bias_0_to_fp16"), val = tensor<fp16, [4096]>(BLOBFILE(path = tensor<string, []>("@model_path/weights/weight.bin"), offset = tensor<uint64, []>(205537344)))];
            tensor<fp16, [1, 128, 4096]> first_227_cast_fp16 = linear(bias = first_227_bias_0_to_fp16, weight = first_227_weight_0_to_fp16, x = x_71_cast_fp16)[name = tensor<string, []>("first_227_cast_fp16")];
            tensor<string, []> x_73_mode_0 = const()[name = tensor<string, []>("x_73_mode_0"), val = tensor<string, []>("EXACT")];
            tensor<fp16, [1, 128, 4096]> x_73_cast_fp16 = gelu(mode = x_73_mode_0, x = first_227_cast_fp16)[name = tensor<string, []>("x_73_cast_fp16")];
            tensor<fp16, [1024, 4096]> first_235_weight_0_to_fp16 = const()[name = tensor<string, []>("first_235_weight_0_to_fp16"), val = tensor<fp16, [1024, 4096]>(BLOBFILE(path = tensor<string, []>("@model_path/weights/weight.bin"), offset = tensor<uint64, []>(205545600)))];
            tensor<fp16, [1024]> first_235_bias_0_to_fp16 = const()[name = tensor<string, []>("first_235_bias_0_to_fp16"), val = tensor<fp16, [1024]>(BLOBFILE(path = tensor<string, []>("@model_path/weights/weight.bin"), offset = tensor<uint64, []>(213934272)))];
            tensor<fp16, [1, 128, 1024]> first_235_cast_fp16 = linear(bias = first_235_bias_0_to_fp16, weight = first_235_weight_0_to_fp16, x = x_73_cast_fp16)[name = tensor<string, []>("first_235_cast_fp16")];
            tensor<fp16, [1, 128, 1024]> input_tensor_435_cast_fp16 = add(x = first_235_cast_fp16, y = x_71_cast_fp16)[name = tensor<string, []>("input_tensor_435_cast_fp16")];
            tensor<bool, []> var_3743 = const()[name = tensor<string, []>("op_3743"), val = tensor<bool, []>(true)];
            tensor<int32, [1]> var_3745 = const()[name = tensor<string, []>("op_3745"), val = tensor<int32, [1]>([-1])];
            tensor<fp16, [1, 128, 1]> second_263_cast_fp16 = reduce_mean(axes = var_3745, keep_dims = var_3743, x = input_tensor_435_cast_fp16)[name = tensor<string, []>("second_263_cast_fp16")];
            tensor<fp16, [1, 128, 1024]> input_tensor_437_cast_fp16 = sub(x = input_tensor_435_cast_fp16, y = second_263_cast_fp16)[name = tensor<string, []>("input_tensor_437_cast_fp16")];
            tensor<fp16, []> encoder_layer_5_output_LayerNorm_Constant_value_to_fp16 = const()[name = tensor<string, []>("encoder_layer_5_output_LayerNorm_Constant_value_to_fp16"), val = tensor<fp16, []>(0x1p+1)];
            tensor<fp16, [1, 128, 1024]> input_tensor_439_cast_fp16 = pow(x = input_tensor_437_cast_fp16, y = encoder_layer_5_output_LayerNorm_Constant_value_to_fp16)[name = tensor<string, []>("input_tensor_439_cast_fp16")];
            tensor<bool, []> var_3751 = const()[name = tensor<string, []>("op_3751"), val = tensor<bool, []>(true)];
            tensor<int32, [1]> var_3753 = const()[name = tensor<string, []>("op_3753"), val = tensor<int32, [1]>([-1])];
            tensor<fp16, [1, 128, 1]> first_237_cast_fp16 = reduce_mean(axes = var_3753, keep_dims = var_3751, x = input_tensor_439_cast_fp16)[name = tensor<string, []>("first_237_cast_fp16")];
            tensor<fp16, []> encoder_layer_5_output_LayerNorm_Constant_1_value_to_fp16 = const()[name = tensor<string, []>("encoder_layer_5_output_LayerNorm_Constant_1_value_to_fp16"), val = tensor<fp16, []>(0x1p-24)];
            tensor<fp16, [1, 128, 1]> input_tensor_441_cast_fp16 = add(x = first_237_cast_fp16, y = encoder_layer_5_output_LayerNorm_Constant_1_value_to_fp16)[name = tensor<string, []>("input_tensor_441_cast_fp16")];
            tensor<fp16, [1, 128, 1]> second_267_cast_fp16 = sqrt(x = input_tensor_441_cast_fp16)[name = tensor<string, []>("second_267_cast_fp16")];
            tensor<fp16, [1, 128, 1024]> first_239_cast_fp16 = real_div(x = input_tensor_437_cast_fp16, y = second_267_cast_fp16)[name = tensor<string, []>("first_239_cast_fp16")];
            tensor<fp16, [1024]> initializers_onnx_initializer_99_to_fp16 = const()[name = tensor<string, []>("initializers_onnx_initializer_99_to_fp16"), val = tensor<fp16, [1024]>(BLOBFILE(path = tensor<string, []>("@model_path/weights/weight.bin"), offset = tensor<uint64, []>(213936384)))];
            tensor<fp16, [1, 128, 1024]> first_241_cast_fp16 = mul(x = first_239_cast_fp16, y = initializers_onnx_initializer_99_to_fp16)[name = tensor<string, []>("first_241_cast_fp16")];
            tensor<fp16, [1024]> initializers_onnx_initializer_100_to_fp16 = const()[name = tensor<string, []>("initializers_onnx_initializer_100_to_fp16"), val = tensor<fp16, [1024]>(BLOBFILE(path = tensor<string, []>("@model_path/weights/weight.bin"), offset = tensor<uint64, []>(213938496)))];
            tensor<fp16, [1, 128, 1024]> x_75_cast_fp16 = add(x = first_241_cast_fp16, y = initializers_onnx_initializer_100_to_fp16)[name = tensor<string, []>("x_75_cast_fp16")];
            tensor<fp16, [1024, 1024]> input_tensor_465_weight_0_to_fp16 = const()[name = tensor<string, []>("input_tensor_465_weight_0_to_fp16"), val = tensor<fp16, [1024, 1024]>(BLOBFILE(path = tensor<string, []>("@model_path/weights/weight.bin"), offset = tensor<uint64, []>(213940608)))];
            tensor<fp16, [1024]> input_tensor_465_bias_0_to_fp16 = const()[name = tensor<string, []>("input_tensor_465_bias_0_to_fp16"), val = tensor<fp16, [1024]>(BLOBFILE(path = tensor<string, []>("@model_path/weights/weight.bin"), offset = tensor<uint64, []>(216037824)))];
            tensor<fp16, [1, 128, 1024]> input_tensor_465_cast_fp16 = linear(bias = input_tensor_465_bias_0_to_fp16, weight = input_tensor_465_weight_0_to_fp16, x = x_75_cast_fp16)[name = tensor<string, []>("input_tensor_465_cast_fp16")];
            tensor<fp16, [1024, 1024]> input_tensor_443_weight_0_to_fp16 = const()[name = tensor<string, []>("input_tensor_443_weight_0_to_fp16"), val = tensor<fp16, [1024, 1024]>(BLOBFILE(path = tensor<string, []>("@model_path/weights/weight.bin"), offset = tensor<uint64, []>(216039936)))];
            tensor<fp16, [1024]> input_tensor_443_bias_0_to_fp16 = const()[name = tensor<string, []>("input_tensor_443_bias_0_to_fp16"), val = tensor<fp16, [1024]>(BLOBFILE(path = tensor<string, []>("@model_path/weights/weight.bin"), offset = tensor<uint64, []>(218137152)))];
            tensor<fp16, [1, 128, 1024]> input_tensor_443_cast_fp16 = linear(bias = input_tensor_443_bias_0_to_fp16, weight = input_tensor_443_weight_0_to_fp16, x = x_75_cast_fp16)[name = tensor<string, []>("input_tensor_443_cast_fp16")];
            tensor<int32, [4]> var_3813 = const()[name = tensor<string, []>("op_3813"), val = tensor<int32, [4]>([1, 128, 16, 64])];
            tensor<fp16, [1, 128, 16, 64]> input_tensor_477_cast_fp16 = reshape(shape = var_3813, x = input_tensor_443_cast_fp16)[name = tensor<string, []>("input_tensor_477_cast_fp16")];
            tensor<fp16, [1024, 1024]> input_tensor_453_weight_0_to_fp16 = const()[name = tensor<string, []>("input_tensor_453_weight_0_to_fp16"), val = tensor<fp16, [1024, 1024]>(BLOBFILE(path = tensor<string, []>("@model_path/weights/weight.bin"), offset = tensor<uint64, []>(218139264)))];
            tensor<fp16, [1024]> input_tensor_453_bias_0_to_fp16 = const()[name = tensor<string, []>("input_tensor_453_bias_0_to_fp16"), val = tensor<fp16, [1024]>(BLOBFILE(path = tensor<string, []>("@model_path/weights/weight.bin"), offset = tensor<uint64, []>(220236480)))];
            tensor<fp16, [1, 128, 1024]> input_tensor_453_cast_fp16 = linear(bias = input_tensor_453_bias_0_to_fp16, weight = input_tensor_453_weight_0_to_fp16, x = x_75_cast_fp16)[name = tensor<string, []>("input_tensor_453_cast_fp16")];
            tensor<int32, [4]> var_3863 = const()[name = tensor<string, []>("op_3863"), val = tensor<int32, [4]>([1, 128, 16, 64])];
            tensor<fp16, [1, 128, 16, 64]> input_tensor_463_cast_fp16 = reshape(shape = var_3863, x = input_tensor_453_cast_fp16)[name = tensor<string, []>("input_tensor_463_cast_fp16")];
            tensor<int32, [4]> var_3869 = const()[name = tensor<string, []>("op_3869"), val = tensor<int32, [4]>([0, 2, 1, 3])];
            tensor<int32, [4]> var_3916 = const()[name = tensor<string, []>("op_3916"), val = tensor<int32, [4]>([1, 128, 16, 64])];
            tensor<fp16, [1, 128, 16, 64]> input_tensor_475_cast_fp16 = reshape(shape = var_3916, x = input_tensor_465_cast_fp16)[name = tensor<string, []>("input_tensor_475_cast_fp16")];
            tensor<bool, []> first_249_transpose_x_0 = const()[name = tensor<string, []>("first_249_transpose_x_0"), val = tensor<bool, []>(false)];
            tensor<bool, []> first_249_transpose_y_0 = const()[name = tensor<string, []>("first_249_transpose_y_0"), val = tensor<bool, []>(false)];
            tensor<int32, [4]> transpose_252_perm_0 = const()[name = tensor<string, []>("transpose_252_perm_0"), val = tensor<int32, [4]>([0, 2, -3, -1])];
            tensor<int32, [4]> transpose_253_perm_0 = const()[name = tensor<string, []>("transpose_253_perm_0"), val = tensor<int32, [4]>([0, 2, -1, -3])];
            tensor<fp16, [1, 16, 64, 128]> transpose_357 = transpose(perm = transpose_253_perm_0, x = input_tensor_477_cast_fp16)[name = tensor<string, []>("transpose_357")];
            tensor<fp16, [1, 16, 128, 64]> transpose_358 = transpose(perm = transpose_252_perm_0, x = input_tensor_475_cast_fp16)[name = tensor<string, []>("transpose_358")];
            tensor<fp16, [1, 16, 128, 128]> first_249_cast_fp16 = matmul(transpose_x = first_249_transpose_x_0, transpose_y = first_249_transpose_y_0, x = transpose_358, y = transpose_357)[name = tensor<string, []>("first_249_cast_fp16")];
            tensor<fp16, []> _inversed_first_251_y_0_to_fp16 = const()[name = tensor<string, []>("_inversed_first_251_y_0_to_fp16"), val = tensor<fp16, []>(0x1p-3)];
            tensor<fp16, [1, 16, 128, 128]> _inversed_first_251_cast_fp16 = mul(x = first_249_cast_fp16, y = _inversed_first_251_y_0_to_fp16)[name = tensor<string, []>("_inversed_first_251_cast_fp16")];
            tensor<fp16, [1, 16, 128, 128]> input_tensor_479_cast_fp16 = add(x = _inversed_first_251_cast_fp16, y = second_27_cast_fp16)[name = tensor<string, []>("input_tensor_479_cast_fp16")];
            tensor<int32, []> var_3935 = const()[name = tensor<string, []>("op_3935"), val = tensor<int32, []>(-1)];
            tensor<fp16, [1, 16, 128, 128]> result_13_cast_fp16 = softmax(axis = var_3935, x = input_tensor_479_cast_fp16)[name = tensor<string, []>("result_13_cast_fp16")];
            tensor<bool, []> input_tensor_483_transpose_x_0 = const()[name = tensor<string, []>("input_tensor_483_transpose_x_0"), val = tensor<bool, []>(false)];
            tensor<bool, []> input_tensor_483_transpose_y_0 = const()[name = tensor<string, []>("input_tensor_483_transpose_y_0"), val = tensor<bool, []>(false)];
            tensor<fp16, [1, 16, 128, 64]> transpose_359 = transpose(perm = var_3869, x = input_tensor_463_cast_fp16)[name = tensor<string, []>("transpose_359")];
            tensor<fp16, [1, 16, 128, 64]> input_tensor_483_cast_fp16 = matmul(transpose_x = input_tensor_483_transpose_x_0, transpose_y = input_tensor_483_transpose_y_0, x = result_13_cast_fp16, y = transpose_359)[name = tensor<string, []>("input_tensor_483_cast_fp16")];
            tensor<int32, [4]> var_3953 = const()[name = tensor<string, []>("op_3953"), val = tensor<int32, [4]>([0, 2, 1, 3])];
            tensor<int32, [3]> var_3998 = const()[name = tensor<string, []>("op_3998"), val = tensor<int32, [3]>([1, 128, 1024])];
            tensor<fp16, [1, 128, 16, 64]> transpose_356 = transpose(perm = var_3953, x = input_tensor_483_cast_fp16)[name = tensor<string, []>("transpose_356")];
            tensor<fp16, [1, 128, 1024]> x_81_cast_fp16 = reshape(shape = var_3998, x = transpose_356)[name = tensor<string, []>("x_81_cast_fp16")];
            tensor<fp16, [1024, 1024]> first_255_weight_0_to_fp16 = const()[name = tensor<string, []>("first_255_weight_0_to_fp16"), val = tensor<fp16, [1024, 1024]>(BLOBFILE(path = tensor<string, []>("@model_path/weights/weight.bin"), offset = tensor<uint64, []>(220238592)))];
            tensor<fp16, [1024]> first_255_bias_0_to_fp16 = const()[name = tensor<string, []>("first_255_bias_0_to_fp16"), val = tensor<fp16, [1024]>(BLOBFILE(path = tensor<string, []>("@model_path/weights/weight.bin"), offset = tensor<uint64, []>(222335808)))];
            tensor<fp16, [1, 128, 1024]> first_255_cast_fp16 = linear(bias = first_255_bias_0_to_fp16, weight = first_255_weight_0_to_fp16, x = x_81_cast_fp16)[name = tensor<string, []>("first_255_cast_fp16")];
            tensor<fp16, [1, 128, 1024]> input_tensor_495_cast_fp16 = add(x = first_255_cast_fp16, y = x_75_cast_fp16)[name = tensor<string, []>("input_tensor_495_cast_fp16")];
            tensor<bool, []> var_4006 = const()[name = tensor<string, []>("op_4006"), val = tensor<bool, []>(true)];
            tensor<int32, [1]> var_4008 = const()[name = tensor<string, []>("op_4008"), val = tensor<int32, [1]>([-1])];
            tensor<fp16, [1, 128, 1]> second_283_cast_fp16 = reduce_mean(axes = var_4008, keep_dims = var_4006, x = input_tensor_495_cast_fp16)[name = tensor<string, []>("second_283_cast_fp16")];
            tensor<fp16, [1, 128, 1024]> input_tensor_497_cast_fp16 = sub(x = input_tensor_495_cast_fp16, y = second_283_cast_fp16)[name = tensor<string, []>("input_tensor_497_cast_fp16")];
            tensor<fp16, []> encoder_layer_6_attention_output_LayerNorm_Constant_value_to_fp16 = const()[name = tensor<string, []>("encoder_layer_6_attention_output_LayerNorm_Constant_value_to_fp16"), val = tensor<fp16, []>(0x1p+1)];
            tensor<fp16, [1, 128, 1024]> input_tensor_499_cast_fp16 = pow(x = input_tensor_497_cast_fp16, y = encoder_layer_6_attention_output_LayerNorm_Constant_value_to_fp16)[name = tensor<string, []>("input_tensor_499_cast_fp16")];
            tensor<bool, []> var_4014 = const()[name = tensor<string, []>("op_4014"), val = tensor<bool, []>(true)];
            tensor<int32, [1]> var_4016 = const()[name = tensor<string, []>("op_4016"), val = tensor<int32, [1]>([-1])];
            tensor<fp16, [1, 128, 1]> first_257_cast_fp16 = reduce_mean(axes = var_4016, keep_dims = var_4014, x = input_tensor_499_cast_fp16)[name = tensor<string, []>("first_257_cast_fp16")];
            tensor<fp16, []> encoder_layer_6_attention_output_LayerNorm_Constant_1_value_to_fp16 = const()[name = tensor<string, []>("encoder_layer_6_attention_output_LayerNorm_Constant_1_value_to_fp16"), val = tensor<fp16, []>(0x1p-24)];
            tensor<fp16, [1, 128, 1]> input_tensor_501_cast_fp16 = add(x = first_257_cast_fp16, y = encoder_layer_6_attention_output_LayerNorm_Constant_1_value_to_fp16)[name = tensor<string, []>("input_tensor_501_cast_fp16")];
            tensor<fp16, [1, 128, 1]> second_287_cast_fp16 = sqrt(x = input_tensor_501_cast_fp16)[name = tensor<string, []>("second_287_cast_fp16")];
            tensor<fp16, [1, 128, 1024]> first_259_cast_fp16 = real_div(x = input_tensor_497_cast_fp16, y = second_287_cast_fp16)[name = tensor<string, []>("first_259_cast_fp16")];
            tensor<fp16, [1024]> initializers_onnx_initializer_109_to_fp16 = const()[name = tensor<string, []>("initializers_onnx_initializer_109_to_fp16"), val = tensor<fp16, [1024]>(BLOBFILE(path = tensor<string, []>("@model_path/weights/weight.bin"), offset = tensor<uint64, []>(222337920)))];
            tensor<fp16, [1, 128, 1024]> first_261_cast_fp16 = mul(x = first_259_cast_fp16, y = initializers_onnx_initializer_109_to_fp16)[name = tensor<string, []>("first_261_cast_fp16")];
            tensor<fp16, [1024]> initializers_onnx_initializer_110_to_fp16 = const()[name = tensor<string, []>("initializers_onnx_initializer_110_to_fp16"), val = tensor<fp16, [1024]>(BLOBFILE(path = tensor<string, []>("@model_path/weights/weight.bin"), offset = tensor<uint64, []>(222340032)))];
            tensor<fp16, [1, 128, 1024]> x_83_cast_fp16 = add(x = first_261_cast_fp16, y = initializers_onnx_initializer_110_to_fp16)[name = tensor<string, []>("x_83_cast_fp16")];
            tensor<fp16, [4096, 1024]> first_265_weight_0_to_fp16 = const()[name = tensor<string, []>("first_265_weight_0_to_fp16"), val = tensor<fp16, [4096, 1024]>(BLOBFILE(path = tensor<string, []>("@model_path/weights/weight.bin"), offset = tensor<uint64, []>(222342144)))];
            tensor<fp16, [4096]> first_265_bias_0_to_fp16 = const()[name = tensor<string, []>("first_265_bias_0_to_fp16"), val = tensor<fp16, [4096]>(BLOBFILE(path = tensor<string, []>("@model_path/weights/weight.bin"), offset = tensor<uint64, []>(230730816)))];
            tensor<fp16, [1, 128, 4096]> first_265_cast_fp16 = linear(bias = first_265_bias_0_to_fp16, weight = first_265_weight_0_to_fp16, x = x_83_cast_fp16)[name = tensor<string, []>("first_265_cast_fp16")];
            tensor<string, []> x_85_mode_0 = const()[name = tensor<string, []>("x_85_mode_0"), val = tensor<string, []>("EXACT")];
            tensor<fp16, [1, 128, 4096]> x_85_cast_fp16 = gelu(mode = x_85_mode_0, x = first_265_cast_fp16)[name = tensor<string, []>("x_85_cast_fp16")];
            tensor<fp16, [1024, 4096]> first_273_weight_0_to_fp16 = const()[name = tensor<string, []>("first_273_weight_0_to_fp16"), val = tensor<fp16, [1024, 4096]>(BLOBFILE(path = tensor<string, []>("@model_path/weights/weight.bin"), offset = tensor<uint64, []>(230739072)))];
            tensor<fp16, [1024]> first_273_bias_0_to_fp16 = const()[name = tensor<string, []>("first_273_bias_0_to_fp16"), val = tensor<fp16, [1024]>(BLOBFILE(path = tensor<string, []>("@model_path/weights/weight.bin"), offset = tensor<uint64, []>(239127744)))];
            tensor<fp16, [1, 128, 1024]> first_273_cast_fp16 = linear(bias = first_273_bias_0_to_fp16, weight = first_273_weight_0_to_fp16, x = x_85_cast_fp16)[name = tensor<string, []>("first_273_cast_fp16")];
            tensor<fp16, [1, 128, 1024]> input_tensor_505_cast_fp16 = add(x = first_273_cast_fp16, y = x_83_cast_fp16)[name = tensor<string, []>("input_tensor_505_cast_fp16")];
            tensor<bool, []> var_4040 = const()[name = tensor<string, []>("op_4040"), val = tensor<bool, []>(true)];
            tensor<int32, [1]> var_4042 = const()[name = tensor<string, []>("op_4042"), val = tensor<int32, [1]>([-1])];
            tensor<fp16, [1, 128, 1]> second_305_cast_fp16 = reduce_mean(axes = var_4042, keep_dims = var_4040, x = input_tensor_505_cast_fp16)[name = tensor<string, []>("second_305_cast_fp16")];
            tensor<fp16, [1, 128, 1024]> input_tensor_507_cast_fp16 = sub(x = input_tensor_505_cast_fp16, y = second_305_cast_fp16)[name = tensor<string, []>("input_tensor_507_cast_fp16")];
            tensor<fp16, []> encoder_layer_6_output_LayerNorm_Constant_value_to_fp16 = const()[name = tensor<string, []>("encoder_layer_6_output_LayerNorm_Constant_value_to_fp16"), val = tensor<fp16, []>(0x1p+1)];
            tensor<fp16, [1, 128, 1024]> input_tensor_509_cast_fp16 = pow(x = input_tensor_507_cast_fp16, y = encoder_layer_6_output_LayerNorm_Constant_value_to_fp16)[name = tensor<string, []>("input_tensor_509_cast_fp16")];
            tensor<bool, []> var_4048 = const()[name = tensor<string, []>("op_4048"), val = tensor<bool, []>(true)];
            tensor<int32, [1]> var_4050 = const()[name = tensor<string, []>("op_4050"), val = tensor<int32, [1]>([-1])];
            tensor<fp16, [1, 128, 1]> first_275_cast_fp16 = reduce_mean(axes = var_4050, keep_dims = var_4048, x = input_tensor_509_cast_fp16)[name = tensor<string, []>("first_275_cast_fp16")];
            tensor<fp16, []> encoder_layer_6_output_LayerNorm_Constant_1_value_to_fp16 = const()[name = tensor<string, []>("encoder_layer_6_output_LayerNorm_Constant_1_value_to_fp16"), val = tensor<fp16, []>(0x1p-24)];
            tensor<fp16, [1, 128, 1]> input_tensor_511_cast_fp16 = add(x = first_275_cast_fp16, y = encoder_layer_6_output_LayerNorm_Constant_1_value_to_fp16)[name = tensor<string, []>("input_tensor_511_cast_fp16")];
            tensor<fp16, [1, 128, 1]> second_309_cast_fp16 = sqrt(x = input_tensor_511_cast_fp16)[name = tensor<string, []>("second_309_cast_fp16")];
            tensor<fp16, [1, 128, 1024]> first_277_cast_fp16 = real_div(x = input_tensor_507_cast_fp16, y = second_309_cast_fp16)[name = tensor<string, []>("first_277_cast_fp16")];
            tensor<fp16, [1024]> initializers_onnx_initializer_115_to_fp16 = const()[name = tensor<string, []>("initializers_onnx_initializer_115_to_fp16"), val = tensor<fp16, [1024]>(BLOBFILE(path = tensor<string, []>("@model_path/weights/weight.bin"), offset = tensor<uint64, []>(239129856)))];
            tensor<fp16, [1, 128, 1024]> first_279_cast_fp16 = mul(x = first_277_cast_fp16, y = initializers_onnx_initializer_115_to_fp16)[name = tensor<string, []>("first_279_cast_fp16")];
            tensor<fp16, [1024]> initializers_onnx_initializer_116_to_fp16 = const()[name = tensor<string, []>("initializers_onnx_initializer_116_to_fp16"), val = tensor<fp16, [1024]>(BLOBFILE(path = tensor<string, []>("@model_path/weights/weight.bin"), offset = tensor<uint64, []>(239131968)))];
            tensor<fp16, [1, 128, 1024]> x_87_cast_fp16 = add(x = first_279_cast_fp16, y = initializers_onnx_initializer_116_to_fp16)[name = tensor<string, []>("x_87_cast_fp16")];
            tensor<fp16, [1024, 1024]> input_tensor_535_weight_0_to_fp16 = const()[name = tensor<string, []>("input_tensor_535_weight_0_to_fp16"), val = tensor<fp16, [1024, 1024]>(BLOBFILE(path = tensor<string, []>("@model_path/weights/weight.bin"), offset = tensor<uint64, []>(239134080)))];
            tensor<fp16, [1024]> input_tensor_535_bias_0_to_fp16 = const()[name = tensor<string, []>("input_tensor_535_bias_0_to_fp16"), val = tensor<fp16, [1024]>(BLOBFILE(path = tensor<string, []>("@model_path/weights/weight.bin"), offset = tensor<uint64, []>(241231296)))];
            tensor<fp16, [1, 128, 1024]> input_tensor_535_cast_fp16 = linear(bias = input_tensor_535_bias_0_to_fp16, weight = input_tensor_535_weight_0_to_fp16, x = x_87_cast_fp16)[name = tensor<string, []>("input_tensor_535_cast_fp16")];
            tensor<fp16, [1024, 1024]> input_tensor_513_weight_0_to_fp16 = const()[name = tensor<string, []>("input_tensor_513_weight_0_to_fp16"), val = tensor<fp16, [1024, 1024]>(BLOBFILE(path = tensor<string, []>("@model_path/weights/weight.bin"), offset = tensor<uint64, []>(241233408)))];
            tensor<fp16, [1024]> input_tensor_513_bias_0_to_fp16 = const()[name = tensor<string, []>("input_tensor_513_bias_0_to_fp16"), val = tensor<fp16, [1024]>(BLOBFILE(path = tensor<string, []>("@model_path/weights/weight.bin"), offset = tensor<uint64, []>(243330624)))];
            tensor<fp16, [1, 128, 1024]> input_tensor_513_cast_fp16 = linear(bias = input_tensor_513_bias_0_to_fp16, weight = input_tensor_513_weight_0_to_fp16, x = x_87_cast_fp16)[name = tensor<string, []>("input_tensor_513_cast_fp16")];
            tensor<int32, [4]> var_4110 = const()[name = tensor<string, []>("op_4110"), val = tensor<int32, [4]>([1, 128, 16, 64])];
            tensor<fp16, [1, 128, 16, 64]> input_tensor_547_cast_fp16 = reshape(shape = var_4110, x = input_tensor_513_cast_fp16)[name = tensor<string, []>("input_tensor_547_cast_fp16")];
            tensor<fp16, [1024, 1024]> input_tensor_523_weight_0_to_fp16 = const()[name = tensor<string, []>("input_tensor_523_weight_0_to_fp16"), val = tensor<fp16, [1024, 1024]>(BLOBFILE(path = tensor<string, []>("@model_path/weights/weight.bin"), offset = tensor<uint64, []>(243332736)))];
            tensor<fp16, [1024]> input_tensor_523_bias_0_to_fp16 = const()[name = tensor<string, []>("input_tensor_523_bias_0_to_fp16"), val = tensor<fp16, [1024]>(BLOBFILE(path = tensor<string, []>("@model_path/weights/weight.bin"), offset = tensor<uint64, []>(245429952)))];
            tensor<fp16, [1, 128, 1024]> input_tensor_523_cast_fp16 = linear(bias = input_tensor_523_bias_0_to_fp16, weight = input_tensor_523_weight_0_to_fp16, x = x_87_cast_fp16)[name = tensor<string, []>("input_tensor_523_cast_fp16")];
            tensor<int32, [4]> var_4160 = const()[name = tensor<string, []>("op_4160"), val = tensor<int32, [4]>([1, 128, 16, 64])];
            tensor<fp16, [1, 128, 16, 64]> input_tensor_533_cast_fp16 = reshape(shape = var_4160, x = input_tensor_523_cast_fp16)[name = tensor<string, []>("input_tensor_533_cast_fp16")];
            tensor<int32, [4]> var_4166 = const()[name = tensor<string, []>("op_4166"), val = tensor<int32, [4]>([0, 2, 1, 3])];
            tensor<int32, [4]> var_4213 = const()[name = tensor<string, []>("op_4213"), val = tensor<int32, [4]>([1, 128, 16, 64])];
            tensor<fp16, [1, 128, 16, 64]> input_tensor_545_cast_fp16 = reshape(shape = var_4213, x = input_tensor_535_cast_fp16)[name = tensor<string, []>("input_tensor_545_cast_fp16")];
            tensor<bool, []> first_287_transpose_x_0 = const()[name = tensor<string, []>("first_287_transpose_x_0"), val = tensor<bool, []>(false)];
            tensor<bool, []> first_287_transpose_y_0 = const()[name = tensor<string, []>("first_287_transpose_y_0"), val = tensor<bool, []>(false)];
            tensor<int32, [4]> transpose_254_perm_0 = const()[name = tensor<string, []>("transpose_254_perm_0"), val = tensor<int32, [4]>([0, 2, -3, -1])];
            tensor<int32, [4]> transpose_255_perm_0 = const()[name = tensor<string, []>("transpose_255_perm_0"), val = tensor<int32, [4]>([0, 2, -1, -3])];
            tensor<fp16, [1, 16, 64, 128]> transpose_353 = transpose(perm = transpose_255_perm_0, x = input_tensor_547_cast_fp16)[name = tensor<string, []>("transpose_353")];
            tensor<fp16, [1, 16, 128, 64]> transpose_354 = transpose(perm = transpose_254_perm_0, x = input_tensor_545_cast_fp16)[name = tensor<string, []>("transpose_354")];
            tensor<fp16, [1, 16, 128, 128]> first_287_cast_fp16 = matmul(transpose_x = first_287_transpose_x_0, transpose_y = first_287_transpose_y_0, x = transpose_354, y = transpose_353)[name = tensor<string, []>("first_287_cast_fp16")];
            tensor<fp16, []> _inversed_first_289_y_0_to_fp16 = const()[name = tensor<string, []>("_inversed_first_289_y_0_to_fp16"), val = tensor<fp16, []>(0x1p-3)];
            tensor<fp16, [1, 16, 128, 128]> _inversed_first_289_cast_fp16 = mul(x = first_287_cast_fp16, y = _inversed_first_289_y_0_to_fp16)[name = tensor<string, []>("_inversed_first_289_cast_fp16")];
            tensor<fp16, [1, 16, 128, 128]> input_tensor_549_cast_fp16 = add(x = _inversed_first_289_cast_fp16, y = second_27_cast_fp16)[name = tensor<string, []>("input_tensor_549_cast_fp16")];
            tensor<int32, []> var_4232 = const()[name = tensor<string, []>("op_4232"), val = tensor<int32, []>(-1)];
            tensor<fp16, [1, 16, 128, 128]> result_15_cast_fp16 = softmax(axis = var_4232, x = input_tensor_549_cast_fp16)[name = tensor<string, []>("result_15_cast_fp16")];
            tensor<bool, []> input_tensor_553_transpose_x_0 = const()[name = tensor<string, []>("input_tensor_553_transpose_x_0"), val = tensor<bool, []>(false)];
            tensor<bool, []> input_tensor_553_transpose_y_0 = const()[name = tensor<string, []>("input_tensor_553_transpose_y_0"), val = tensor<bool, []>(false)];
            tensor<fp16, [1, 16, 128, 64]> transpose_355 = transpose(perm = var_4166, x = input_tensor_533_cast_fp16)[name = tensor<string, []>("transpose_355")];
            tensor<fp16, [1, 16, 128, 64]> input_tensor_553_cast_fp16 = matmul(transpose_x = input_tensor_553_transpose_x_0, transpose_y = input_tensor_553_transpose_y_0, x = result_15_cast_fp16, y = transpose_355)[name = tensor<string, []>("input_tensor_553_cast_fp16")];
            tensor<int32, [4]> var_4250 = const()[name = tensor<string, []>("op_4250"), val = tensor<int32, [4]>([0, 2, 1, 3])];
            tensor<int32, [3]> var_4295 = const()[name = tensor<string, []>("op_4295"), val = tensor<int32, [3]>([1, 128, 1024])];
            tensor<fp16, [1, 128, 16, 64]> transpose_352 = transpose(perm = var_4250, x = input_tensor_553_cast_fp16)[name = tensor<string, []>("transpose_352")];
            tensor<fp16, [1, 128, 1024]> x_93_cast_fp16 = reshape(shape = var_4295, x = transpose_352)[name = tensor<string, []>("x_93_cast_fp16")];
            tensor<fp16, [1024, 1024]> first_293_weight_0_to_fp16 = const()[name = tensor<string, []>("first_293_weight_0_to_fp16"), val = tensor<fp16, [1024, 1024]>(BLOBFILE(path = tensor<string, []>("@model_path/weights/weight.bin"), offset = tensor<uint64, []>(245432064)))];
            tensor<fp16, [1024]> first_293_bias_0_to_fp16 = const()[name = tensor<string, []>("first_293_bias_0_to_fp16"), val = tensor<fp16, [1024]>(BLOBFILE(path = tensor<string, []>("@model_path/weights/weight.bin"), offset = tensor<uint64, []>(247529280)))];
            tensor<fp16, [1, 128, 1024]> first_293_cast_fp16 = linear(bias = first_293_bias_0_to_fp16, weight = first_293_weight_0_to_fp16, x = x_93_cast_fp16)[name = tensor<string, []>("first_293_cast_fp16")];
            tensor<fp16, [1, 128, 1024]> input_tensor_565_cast_fp16 = add(x = first_293_cast_fp16, y = x_87_cast_fp16)[name = tensor<string, []>("input_tensor_565_cast_fp16")];
            tensor<bool, []> var_4303 = const()[name = tensor<string, []>("op_4303"), val = tensor<bool, []>(true)];
            tensor<int32, [1]> var_4305 = const()[name = tensor<string, []>("op_4305"), val = tensor<int32, [1]>([-1])];
            tensor<fp16, [1, 128, 1]> second_325_cast_fp16 = reduce_mean(axes = var_4305, keep_dims = var_4303, x = input_tensor_565_cast_fp16)[name = tensor<string, []>("second_325_cast_fp16")];
            tensor<fp16, [1, 128, 1024]> input_tensor_567_cast_fp16 = sub(x = input_tensor_565_cast_fp16, y = second_325_cast_fp16)[name = tensor<string, []>("input_tensor_567_cast_fp16")];
            tensor<fp16, []> encoder_layer_7_attention_output_LayerNorm_Constant_value_to_fp16 = const()[name = tensor<string, []>("encoder_layer_7_attention_output_LayerNorm_Constant_value_to_fp16"), val = tensor<fp16, []>(0x1p+1)];
            tensor<fp16, [1, 128, 1024]> input_tensor_569_cast_fp16 = pow(x = input_tensor_567_cast_fp16, y = encoder_layer_7_attention_output_LayerNorm_Constant_value_to_fp16)[name = tensor<string, []>("input_tensor_569_cast_fp16")];
            tensor<bool, []> var_4311 = const()[name = tensor<string, []>("op_4311"), val = tensor<bool, []>(true)];
            tensor<int32, [1]> var_4313 = const()[name = tensor<string, []>("op_4313"), val = tensor<int32, [1]>([-1])];
            tensor<fp16, [1, 128, 1]> first_295_cast_fp16 = reduce_mean(axes = var_4313, keep_dims = var_4311, x = input_tensor_569_cast_fp16)[name = tensor<string, []>("first_295_cast_fp16")];
            tensor<fp16, []> encoder_layer_7_attention_output_LayerNorm_Constant_1_value_to_fp16 = const()[name = tensor<string, []>("encoder_layer_7_attention_output_LayerNorm_Constant_1_value_to_fp16"), val = tensor<fp16, []>(0x1p-24)];
            tensor<fp16, [1, 128, 1]> input_tensor_571_cast_fp16 = add(x = first_295_cast_fp16, y = encoder_layer_7_attention_output_LayerNorm_Constant_1_value_to_fp16)[name = tensor<string, []>("input_tensor_571_cast_fp16")];
            tensor<fp16, [1, 128, 1]> second_329_cast_fp16 = sqrt(x = input_tensor_571_cast_fp16)[name = tensor<string, []>("second_329_cast_fp16")];
            tensor<fp16, [1, 128, 1024]> first_297_cast_fp16 = real_div(x = input_tensor_567_cast_fp16, y = second_329_cast_fp16)[name = tensor<string, []>("first_297_cast_fp16")];
            tensor<fp16, [1024]> initializers_onnx_initializer_125_to_fp16 = const()[name = tensor<string, []>("initializers_onnx_initializer_125_to_fp16"), val = tensor<fp16, [1024]>(BLOBFILE(path = tensor<string, []>("@model_path/weights/weight.bin"), offset = tensor<uint64, []>(247531392)))];
            tensor<fp16, [1, 128, 1024]> first_299_cast_fp16 = mul(x = first_297_cast_fp16, y = initializers_onnx_initializer_125_to_fp16)[name = tensor<string, []>("first_299_cast_fp16")];
            tensor<fp16, [1024]> initializers_onnx_initializer_126_to_fp16 = const()[name = tensor<string, []>("initializers_onnx_initializer_126_to_fp16"), val = tensor<fp16, [1024]>(BLOBFILE(path = tensor<string, []>("@model_path/weights/weight.bin"), offset = tensor<uint64, []>(247533504)))];
            tensor<fp16, [1, 128, 1024]> x_95_cast_fp16 = add(x = first_299_cast_fp16, y = initializers_onnx_initializer_126_to_fp16)[name = tensor<string, []>("x_95_cast_fp16")];
            tensor<fp16, [4096, 1024]> first_303_weight_0_to_fp16 = const()[name = tensor<string, []>("first_303_weight_0_to_fp16"), val = tensor<fp16, [4096, 1024]>(BLOBFILE(path = tensor<string, []>("@model_path/weights/weight.bin"), offset = tensor<uint64, []>(247535616)))];
            tensor<fp16, [4096]> first_303_bias_0_to_fp16 = const()[name = tensor<string, []>("first_303_bias_0_to_fp16"), val = tensor<fp16, [4096]>(BLOBFILE(path = tensor<string, []>("@model_path/weights/weight.bin"), offset = tensor<uint64, []>(255924288)))];
            tensor<fp16, [1, 128, 4096]> first_303_cast_fp16 = linear(bias = first_303_bias_0_to_fp16, weight = first_303_weight_0_to_fp16, x = x_95_cast_fp16)[name = tensor<string, []>("first_303_cast_fp16")];
            tensor<string, []> x_97_mode_0 = const()[name = tensor<string, []>("x_97_mode_0"), val = tensor<string, []>("EXACT")];
            tensor<fp16, [1, 128, 4096]> x_97_cast_fp16 = gelu(mode = x_97_mode_0, x = first_303_cast_fp16)[name = tensor<string, []>("x_97_cast_fp16")];
            tensor<fp16, [1024, 4096]> first_311_weight_0_to_fp16 = const()[name = tensor<string, []>("first_311_weight_0_to_fp16"), val = tensor<fp16, [1024, 4096]>(BLOBFILE(path = tensor<string, []>("@model_path/weights/weight.bin"), offset = tensor<uint64, []>(255932544)))];
            tensor<fp16, [1024]> first_311_bias_0_to_fp16 = const()[name = tensor<string, []>("first_311_bias_0_to_fp16"), val = tensor<fp16, [1024]>(BLOBFILE(path = tensor<string, []>("@model_path/weights/weight.bin"), offset = tensor<uint64, []>(264321216)))];
            tensor<fp16, [1, 128, 1024]> first_311_cast_fp16 = linear(bias = first_311_bias_0_to_fp16, weight = first_311_weight_0_to_fp16, x = x_97_cast_fp16)[name = tensor<string, []>("first_311_cast_fp16")];
            tensor<fp16, [1, 128, 1024]> input_tensor_575_cast_fp16 = add(x = first_311_cast_fp16, y = x_95_cast_fp16)[name = tensor<string, []>("input_tensor_575_cast_fp16")];
            tensor<bool, []> var_4337 = const()[name = tensor<string, []>("op_4337"), val = tensor<bool, []>(true)];
            tensor<int32, [1]> var_4339 = const()[name = tensor<string, []>("op_4339"), val = tensor<int32, [1]>([-1])];
            tensor<fp16, [1, 128, 1]> second_347_cast_fp16 = reduce_mean(axes = var_4339, keep_dims = var_4337, x = input_tensor_575_cast_fp16)[name = tensor<string, []>("second_347_cast_fp16")];
            tensor<fp16, [1, 128, 1024]> input_tensor_577_cast_fp16 = sub(x = input_tensor_575_cast_fp16, y = second_347_cast_fp16)[name = tensor<string, []>("input_tensor_577_cast_fp16")];
            tensor<fp16, []> encoder_layer_7_output_LayerNorm_Constant_value_to_fp16 = const()[name = tensor<string, []>("encoder_layer_7_output_LayerNorm_Constant_value_to_fp16"), val = tensor<fp16, []>(0x1p+1)];
            tensor<fp16, [1, 128, 1024]> input_tensor_579_cast_fp16 = pow(x = input_tensor_577_cast_fp16, y = encoder_layer_7_output_LayerNorm_Constant_value_to_fp16)[name = tensor<string, []>("input_tensor_579_cast_fp16")];
            tensor<bool, []> var_4345 = const()[name = tensor<string, []>("op_4345"), val = tensor<bool, []>(true)];
            tensor<int32, [1]> var_4347 = const()[name = tensor<string, []>("op_4347"), val = tensor<int32, [1]>([-1])];
            tensor<fp16, [1, 128, 1]> first_313_cast_fp16 = reduce_mean(axes = var_4347, keep_dims = var_4345, x = input_tensor_579_cast_fp16)[name = tensor<string, []>("first_313_cast_fp16")];
            tensor<fp16, []> encoder_layer_7_output_LayerNorm_Constant_1_value_to_fp16 = const()[name = tensor<string, []>("encoder_layer_7_output_LayerNorm_Constant_1_value_to_fp16"), val = tensor<fp16, []>(0x1p-24)];
            tensor<fp16, [1, 128, 1]> input_tensor_581_cast_fp16 = add(x = first_313_cast_fp16, y = encoder_layer_7_output_LayerNorm_Constant_1_value_to_fp16)[name = tensor<string, []>("input_tensor_581_cast_fp16")];
            tensor<fp16, [1, 128, 1]> second_351_cast_fp16 = sqrt(x = input_tensor_581_cast_fp16)[name = tensor<string, []>("second_351_cast_fp16")];
            tensor<fp16, [1, 128, 1024]> first_315_cast_fp16 = real_div(x = input_tensor_577_cast_fp16, y = second_351_cast_fp16)[name = tensor<string, []>("first_315_cast_fp16")];
            tensor<fp16, [1024]> initializers_onnx_initializer_131_to_fp16 = const()[name = tensor<string, []>("initializers_onnx_initializer_131_to_fp16"), val = tensor<fp16, [1024]>(BLOBFILE(path = tensor<string, []>("@model_path/weights/weight.bin"), offset = tensor<uint64, []>(264323328)))];
            tensor<fp16, [1, 128, 1024]> first_317_cast_fp16 = mul(x = first_315_cast_fp16, y = initializers_onnx_initializer_131_to_fp16)[name = tensor<string, []>("first_317_cast_fp16")];
            tensor<fp16, [1024]> initializers_onnx_initializer_132_to_fp16 = const()[name = tensor<string, []>("initializers_onnx_initializer_132_to_fp16"), val = tensor<fp16, [1024]>(BLOBFILE(path = tensor<string, []>("@model_path/weights/weight.bin"), offset = tensor<uint64, []>(264325440)))];
            tensor<fp16, [1, 128, 1024]> x_99_cast_fp16 = add(x = first_317_cast_fp16, y = initializers_onnx_initializer_132_to_fp16)[name = tensor<string, []>("x_99_cast_fp16")];
            tensor<fp16, [1024, 1024]> input_tensor_605_weight_0_to_fp16 = const()[name = tensor<string, []>("input_tensor_605_weight_0_to_fp16"), val = tensor<fp16, [1024, 1024]>(BLOBFILE(path = tensor<string, []>("@model_path/weights/weight.bin"), offset = tensor<uint64, []>(264327552)))];
            tensor<fp16, [1024]> input_tensor_605_bias_0_to_fp16 = const()[name = tensor<string, []>("input_tensor_605_bias_0_to_fp16"), val = tensor<fp16, [1024]>(BLOBFILE(path = tensor<string, []>("@model_path/weights/weight.bin"), offset = tensor<uint64, []>(266424768)))];
            tensor<fp16, [1, 128, 1024]> input_tensor_605_cast_fp16 = linear(bias = input_tensor_605_bias_0_to_fp16, weight = input_tensor_605_weight_0_to_fp16, x = x_99_cast_fp16)[name = tensor<string, []>("input_tensor_605_cast_fp16")];
            tensor<fp16, [1024, 1024]> input_tensor_583_weight_0_to_fp16 = const()[name = tensor<string, []>("input_tensor_583_weight_0_to_fp16"), val = tensor<fp16, [1024, 1024]>(BLOBFILE(path = tensor<string, []>("@model_path/weights/weight.bin"), offset = tensor<uint64, []>(266426880)))];
            tensor<fp16, [1024]> input_tensor_583_bias_0_to_fp16 = const()[name = tensor<string, []>("input_tensor_583_bias_0_to_fp16"), val = tensor<fp16, [1024]>(BLOBFILE(path = tensor<string, []>("@model_path/weights/weight.bin"), offset = tensor<uint64, []>(268524096)))];
            tensor<fp16, [1, 128, 1024]> input_tensor_583_cast_fp16 = linear(bias = input_tensor_583_bias_0_to_fp16, weight = input_tensor_583_weight_0_to_fp16, x = x_99_cast_fp16)[name = tensor<string, []>("input_tensor_583_cast_fp16")];
            tensor<int32, [4]> var_4407 = const()[name = tensor<string, []>("op_4407"), val = tensor<int32, [4]>([1, 128, 16, 64])];
            tensor<fp16, [1, 128, 16, 64]> input_tensor_617_cast_fp16 = reshape(shape = var_4407, x = input_tensor_583_cast_fp16)[name = tensor<string, []>("input_tensor_617_cast_fp16")];
            tensor<fp16, [1024, 1024]> input_tensor_593_weight_0_to_fp16 = const()[name = tensor<string, []>("input_tensor_593_weight_0_to_fp16"), val = tensor<fp16, [1024, 1024]>(BLOBFILE(path = tensor<string, []>("@model_path/weights/weight.bin"), offset = tensor<uint64, []>(268526208)))];
            tensor<fp16, [1024]> input_tensor_593_bias_0_to_fp16 = const()[name = tensor<string, []>("input_tensor_593_bias_0_to_fp16"), val = tensor<fp16, [1024]>(BLOBFILE(path = tensor<string, []>("@model_path/weights/weight.bin"), offset = tensor<uint64, []>(270623424)))];
            tensor<fp16, [1, 128, 1024]> input_tensor_593_cast_fp16 = linear(bias = input_tensor_593_bias_0_to_fp16, weight = input_tensor_593_weight_0_to_fp16, x = x_99_cast_fp16)[name = tensor<string, []>("input_tensor_593_cast_fp16")];
            tensor<int32, [4]> var_4457 = const()[name = tensor<string, []>("op_4457"), val = tensor<int32, [4]>([1, 128, 16, 64])];
            tensor<fp16, [1, 128, 16, 64]> input_tensor_603_cast_fp16 = reshape(shape = var_4457, x = input_tensor_593_cast_fp16)[name = tensor<string, []>("input_tensor_603_cast_fp16")];
            tensor<int32, [4]> var_4463 = const()[name = tensor<string, []>("op_4463"), val = tensor<int32, [4]>([0, 2, 1, 3])];
            tensor<int32, [4]> var_4510 = const()[name = tensor<string, []>("op_4510"), val = tensor<int32, [4]>([1, 128, 16, 64])];
            tensor<fp16, [1, 128, 16, 64]> input_tensor_615_cast_fp16 = reshape(shape = var_4510, x = input_tensor_605_cast_fp16)[name = tensor<string, []>("input_tensor_615_cast_fp16")];
            tensor<bool, []> first_325_transpose_x_0 = const()[name = tensor<string, []>("first_325_transpose_x_0"), val = tensor<bool, []>(false)];
            tensor<bool, []> first_325_transpose_y_0 = const()[name = tensor<string, []>("first_325_transpose_y_0"), val = tensor<bool, []>(false)];
            tensor<int32, [4]> transpose_256_perm_0 = const()[name = tensor<string, []>("transpose_256_perm_0"), val = tensor<int32, [4]>([0, 2, -3, -1])];
            tensor<int32, [4]> transpose_257_perm_0 = const()[name = tensor<string, []>("transpose_257_perm_0"), val = tensor<int32, [4]>([0, 2, -1, -3])];
            tensor<fp16, [1, 16, 64, 128]> transpose_349 = transpose(perm = transpose_257_perm_0, x = input_tensor_617_cast_fp16)[name = tensor<string, []>("transpose_349")];
            tensor<fp16, [1, 16, 128, 64]> transpose_350 = transpose(perm = transpose_256_perm_0, x = input_tensor_615_cast_fp16)[name = tensor<string, []>("transpose_350")];
            tensor<fp16, [1, 16, 128, 128]> first_325_cast_fp16 = matmul(transpose_x = first_325_transpose_x_0, transpose_y = first_325_transpose_y_0, x = transpose_350, y = transpose_349)[name = tensor<string, []>("first_325_cast_fp16")];
            tensor<fp16, []> _inversed_first_327_y_0_to_fp16 = const()[name = tensor<string, []>("_inversed_first_327_y_0_to_fp16"), val = tensor<fp16, []>(0x1p-3)];
            tensor<fp16, [1, 16, 128, 128]> _inversed_first_327_cast_fp16 = mul(x = first_325_cast_fp16, y = _inversed_first_327_y_0_to_fp16)[name = tensor<string, []>("_inversed_first_327_cast_fp16")];
            tensor<fp16, [1, 16, 128, 128]> input_tensor_619_cast_fp16 = add(x = _inversed_first_327_cast_fp16, y = second_27_cast_fp16)[name = tensor<string, []>("input_tensor_619_cast_fp16")];
            tensor<int32, []> var_4529 = const()[name = tensor<string, []>("op_4529"), val = tensor<int32, []>(-1)];
            tensor<fp16, [1, 16, 128, 128]> result_17_cast_fp16 = softmax(axis = var_4529, x = input_tensor_619_cast_fp16)[name = tensor<string, []>("result_17_cast_fp16")];
            tensor<bool, []> input_tensor_623_transpose_x_0 = const()[name = tensor<string, []>("input_tensor_623_transpose_x_0"), val = tensor<bool, []>(false)];
            tensor<bool, []> input_tensor_623_transpose_y_0 = const()[name = tensor<string, []>("input_tensor_623_transpose_y_0"), val = tensor<bool, []>(false)];
            tensor<fp16, [1, 16, 128, 64]> transpose_351 = transpose(perm = var_4463, x = input_tensor_603_cast_fp16)[name = tensor<string, []>("transpose_351")];
            tensor<fp16, [1, 16, 128, 64]> input_tensor_623_cast_fp16 = matmul(transpose_x = input_tensor_623_transpose_x_0, transpose_y = input_tensor_623_transpose_y_0, x = result_17_cast_fp16, y = transpose_351)[name = tensor<string, []>("input_tensor_623_cast_fp16")];
            tensor<int32, [4]> var_4547 = const()[name = tensor<string, []>("op_4547"), val = tensor<int32, [4]>([0, 2, 1, 3])];
            tensor<int32, [3]> var_4592 = const()[name = tensor<string, []>("op_4592"), val = tensor<int32, [3]>([1, 128, 1024])];
            tensor<fp16, [1, 128, 16, 64]> transpose_348 = transpose(perm = var_4547, x = input_tensor_623_cast_fp16)[name = tensor<string, []>("transpose_348")];
            tensor<fp16, [1, 128, 1024]> x_105_cast_fp16 = reshape(shape = var_4592, x = transpose_348)[name = tensor<string, []>("x_105_cast_fp16")];
            tensor<fp16, [1024, 1024]> first_331_weight_0_to_fp16 = const()[name = tensor<string, []>("first_331_weight_0_to_fp16"), val = tensor<fp16, [1024, 1024]>(BLOBFILE(path = tensor<string, []>("@model_path/weights/weight.bin"), offset = tensor<uint64, []>(270625536)))];
            tensor<fp16, [1024]> first_331_bias_0_to_fp16 = const()[name = tensor<string, []>("first_331_bias_0_to_fp16"), val = tensor<fp16, [1024]>(BLOBFILE(path = tensor<string, []>("@model_path/weights/weight.bin"), offset = tensor<uint64, []>(272722752)))];
            tensor<fp16, [1, 128, 1024]> first_331_cast_fp16 = linear(bias = first_331_bias_0_to_fp16, weight = first_331_weight_0_to_fp16, x = x_105_cast_fp16)[name = tensor<string, []>("first_331_cast_fp16")];
            tensor<fp16, [1, 128, 1024]> input_tensor_635_cast_fp16 = add(x = first_331_cast_fp16, y = x_99_cast_fp16)[name = tensor<string, []>("input_tensor_635_cast_fp16")];
            tensor<bool, []> var_4600 = const()[name = tensor<string, []>("op_4600"), val = tensor<bool, []>(true)];
            tensor<int32, [1]> var_4602 = const()[name = tensor<string, []>("op_4602"), val = tensor<int32, [1]>([-1])];
            tensor<fp16, [1, 128, 1]> second_367_cast_fp16 = reduce_mean(axes = var_4602, keep_dims = var_4600, x = input_tensor_635_cast_fp16)[name = tensor<string, []>("second_367_cast_fp16")];
            tensor<fp16, [1, 128, 1024]> input_tensor_637_cast_fp16 = sub(x = input_tensor_635_cast_fp16, y = second_367_cast_fp16)[name = tensor<string, []>("input_tensor_637_cast_fp16")];
            tensor<fp16, []> encoder_layer_8_attention_output_LayerNorm_Constant_value_to_fp16 = const()[name = tensor<string, []>("encoder_layer_8_attention_output_LayerNorm_Constant_value_to_fp16"), val = tensor<fp16, []>(0x1p+1)];
            tensor<fp16, [1, 128, 1024]> input_tensor_639_cast_fp16 = pow(x = input_tensor_637_cast_fp16, y = encoder_layer_8_attention_output_LayerNorm_Constant_value_to_fp16)[name = tensor<string, []>("input_tensor_639_cast_fp16")];
            tensor<bool, []> var_4608 = const()[name = tensor<string, []>("op_4608"), val = tensor<bool, []>(true)];
            tensor<int32, [1]> var_4610 = const()[name = tensor<string, []>("op_4610"), val = tensor<int32, [1]>([-1])];
            tensor<fp16, [1, 128, 1]> first_333_cast_fp16 = reduce_mean(axes = var_4610, keep_dims = var_4608, x = input_tensor_639_cast_fp16)[name = tensor<string, []>("first_333_cast_fp16")];
            tensor<fp16, []> encoder_layer_8_attention_output_LayerNorm_Constant_1_value_to_fp16 = const()[name = tensor<string, []>("encoder_layer_8_attention_output_LayerNorm_Constant_1_value_to_fp16"), val = tensor<fp16, []>(0x1p-24)];
            tensor<fp16, [1, 128, 1]> input_tensor_641_cast_fp16 = add(x = first_333_cast_fp16, y = encoder_layer_8_attention_output_LayerNorm_Constant_1_value_to_fp16)[name = tensor<string, []>("input_tensor_641_cast_fp16")];
            tensor<fp16, [1, 128, 1]> second_371_cast_fp16 = sqrt(x = input_tensor_641_cast_fp16)[name = tensor<string, []>("second_371_cast_fp16")];
            tensor<fp16, [1, 128, 1024]> first_335_cast_fp16 = real_div(x = input_tensor_637_cast_fp16, y = second_371_cast_fp16)[name = tensor<string, []>("first_335_cast_fp16")];
            tensor<fp16, [1024]> initializers_onnx_initializer_141_to_fp16 = const()[name = tensor<string, []>("initializers_onnx_initializer_141_to_fp16"), val = tensor<fp16, [1024]>(BLOBFILE(path = tensor<string, []>("@model_path/weights/weight.bin"), offset = tensor<uint64, []>(272724864)))];
            tensor<fp16, [1, 128, 1024]> first_337_cast_fp16 = mul(x = first_335_cast_fp16, y = initializers_onnx_initializer_141_to_fp16)[name = tensor<string, []>("first_337_cast_fp16")];
            tensor<fp16, [1024]> initializers_onnx_initializer_142_to_fp16 = const()[name = tensor<string, []>("initializers_onnx_initializer_142_to_fp16"), val = tensor<fp16, [1024]>(BLOBFILE(path = tensor<string, []>("@model_path/weights/weight.bin"), offset = tensor<uint64, []>(272726976)))];
            tensor<fp16, [1, 128, 1024]> x_107_cast_fp16 = add(x = first_337_cast_fp16, y = initializers_onnx_initializer_142_to_fp16)[name = tensor<string, []>("x_107_cast_fp16")];
            tensor<fp16, [4096, 1024]> first_341_weight_0_to_fp16 = const()[name = tensor<string, []>("first_341_weight_0_to_fp16"), val = tensor<fp16, [4096, 1024]>(BLOBFILE(path = tensor<string, []>("@model_path/weights/weight.bin"), offset = tensor<uint64, []>(272729088)))];
            tensor<fp16, [4096]> first_341_bias_0_to_fp16 = const()[name = tensor<string, []>("first_341_bias_0_to_fp16"), val = tensor<fp16, [4096]>(BLOBFILE(path = tensor<string, []>("@model_path/weights/weight.bin"), offset = tensor<uint64, []>(281117760)))];
            tensor<fp16, [1, 128, 4096]> first_341_cast_fp16 = linear(bias = first_341_bias_0_to_fp16, weight = first_341_weight_0_to_fp16, x = x_107_cast_fp16)[name = tensor<string, []>("first_341_cast_fp16")];
            tensor<string, []> x_109_mode_0 = const()[name = tensor<string, []>("x_109_mode_0"), val = tensor<string, []>("EXACT")];
            tensor<fp16, [1, 128, 4096]> x_109_cast_fp16 = gelu(mode = x_109_mode_0, x = first_341_cast_fp16)[name = tensor<string, []>("x_109_cast_fp16")];
            tensor<fp16, [1024, 4096]> first_349_weight_0_to_fp16 = const()[name = tensor<string, []>("first_349_weight_0_to_fp16"), val = tensor<fp16, [1024, 4096]>(BLOBFILE(path = tensor<string, []>("@model_path/weights/weight.bin"), offset = tensor<uint64, []>(281126016)))];
            tensor<fp16, [1024]> first_349_bias_0_to_fp16 = const()[name = tensor<string, []>("first_349_bias_0_to_fp16"), val = tensor<fp16, [1024]>(BLOBFILE(path = tensor<string, []>("@model_path/weights/weight.bin"), offset = tensor<uint64, []>(289514688)))];
…
            tensor<fp16, [1024]> initializers_onnx_initializer_340_to_fp16 = const()[name = tensor<string, []>("initializers_onnx_initializer_340_to_fp16"), val = tensor<fp16, [1024]>(BLOBFILE(path = tensor<string, []>("@model_path/weights/weight.bin"), offset = tensor<uint64, []>(591840576)))];
            tensor<fp16, [1, 128, 1024]> x_255_cast_fp16 = add(x = first_811_cast_fp16, y = initializers_onnx_initializer_340_to_fp16)[name = tensor<string, []>("x_255_cast_fp16")];
            tensor<fp16, [1024, 1024]> input_tensor_1515_weight_0_to_fp16 = const()[name = tensor<string, []>("input_tensor_1515_weight_0_to_fp16"), val = tensor<fp16, [1024, 1024]>(BLOBFILE(path = tensor<string, []>("@model_path/weights/weight.bin"), offset = tensor<uint64, []>(591842688)))];
            tensor<fp16, [1024]> input_tensor_1515_bias_0_to_fp16 = const()[name = tensor<string, []>("input_tensor_1515_bias_0_to_fp16"), val = tensor<fp16, [1024]>(BLOBFILE(path = tensor<string, []>("@model_path/weights/weight.bin"), offset = tensor<uint64, []>(593939904)))];
            tensor<fp16, [1, 128, 1024]> input_tensor_1515_cast_fp16 = linear(bias = input_tensor_1515_bias_0_to_fp16, weight = input_tensor_1515_weight_0_to_fp16, x = x_255_cast_fp16)[name = tensor<string, []>("input_tensor_1515_cast_fp16")];
            tensor<fp16, [1024, 1024]> input_tensor_1493_weight_0_to_fp16 = const()[name = tensor<string, []>("input_tensor_1493_weight_0_to_fp16"), val = tensor<fp16, [1024, 1024]>(BLOBFILE(path = tensor<string, []>("@model_path/weights/weight.bin"), offset = tensor<uint64, []>(593942016)))];
            tensor<fp16, [1024]> input_tensor_1493_bias_0_to_fp16 = const()[name = tensor<string, []>("input_tensor_1493_bias_0_to_fp16"), val = tensor<fp16, [1024]>(BLOBFILE(path = tensor<string, []>("@model_path/weights/weight.bin"), offset = tensor<uint64, []>(596039232)))];
            tensor<fp16, [1, 128, 1024]> input_tensor_1493_cast_fp16 = linear(bias = input_tensor_1493_bias_0_to_fp16, weight = input_tensor_1493_weight_0_to_fp16, x = x_255_cast_fp16)[name = tensor<string, []>("input_tensor_1493_cast_fp16")];
            tensor<int32, [4]> var_8268 = const()[name = tensor<string, []>("op_8268"), val = tensor<int32, [4]>([1, 128, 16, 64])];
            tensor<fp16, [1, 128, 16, 64]> input_tensor_1527_cast_fp16 = reshape(shape = var_8268, x = input_tensor_1493_cast_fp16)[name = tensor<string, []>("input_tensor_1527_cast_fp16")];
            tensor<fp16, [1024, 1024]> input_tensor_1503_weight_0_to_fp16 = const()[name = tensor<string, []>("input_tensor_1503_weight_0_to_fp16"), val = tensor<fp16, [1024, 1024]>(BLOBFILE(path = tensor<string, []>("@model_path/weights/weight.bin"), offset = tensor<uint64, []>(596041344)))];
            tensor<fp16, [1024]> input_tensor_1503_bias_0_to_fp16 = const()[name = tensor<string, []>("input_tensor_1503_bias_0_to_fp16"), val = tensor<fp16, [1024]>(BLOBFILE(path = tensor<string, []>("@model_path/weights/weight.bin"), offset = tensor<uint64, []>(598138560)))];
            tensor<fp16, [1, 128, 1024]> input_tensor_1503_cast_fp16 = linear(bias = input_tensor_1503_bias_0_to_fp16, weight = input_tensor_1503_weight_0_to_fp16, x = x_255_cast_fp16)[name = tensor<string, []>("input_tensor_1503_cast_fp16")];
            tensor<int32, [4]> var_8318 = const()[name = tensor<string, []>("op_8318"), val = tensor<int32, [4]>([1, 128, 16, 64])];
            tensor<fp16, [1, 128, 16, 64]> input_tensor_1513_cast_fp16 = reshape(shape = var_8318, x = input_tensor_1503_cast_fp16)[name = tensor<string, []>("input_tensor_1513_cast_fp16")];
            tensor<int32, [4]> var_8324 = const()[name = tensor<string, []>("op_8324"), val = tensor<int32, [4]>([0, 2, 1, 3])];
            tensor<int32, [4]> var_8371 = const()[name = tensor<string, []>("op_8371"), val = tensor<int32, [4]>([1, 128, 16, 64])];
            tensor<fp16, [1, 128, 16, 64]> input_tensor_1525_cast_fp16 = reshape(shape = var_8371, x = input_tensor_1515_cast_fp16)[name = tensor<string, []>("input_tensor_1525_cast_fp16")];
            tensor<bool, []> first_819_transpose_x_0 = const()[name = tensor<string, []>("first_819_transpose_x_0"), val = tensor<bool, []>(false)];
            tensor<bool, []> first_819_transpose_y_0 = const()[name = tensor<string, []>("first_819_transpose_y_0"), val = tensor<bool, []>(false)];
            tensor<int32, [4]> transpose_282_perm_0 = const()[name = tensor<string, []>("transpose_282_perm_0"), val = tensor<int32, [4]>([0, 2, -3, -1])];
            tensor<int32, [4]> transpose_283_perm_0 = const()[name = tensor<string, []>("transpose_283_perm_0"), val = tensor<int32, [4]>([0, 2, -1, -3])];
            tensor<fp16, [1, 16, 64, 128]> transpose_297 = transpose(perm = transpose_283_perm_0, x = input_tensor_1527_cast_fp16)[name = tensor<string, []>("transpose_297")];
            tensor<fp16, [1, 16, 128, 64]> transpose_298 = transpose(perm = transpose_282_perm_0, x = input_tensor_1525_cast_fp16)[name = tensor<string, []>("transpose_298")];
            tensor<fp16, [1, 16, 128, 128]> first_819_cast_fp16 = matmul(transpose_x = first_819_transpose_x_0, transpose_y = first_819_transpose_y_0, x = transpose_298, y = transpose_297)[name = tensor<string, []>("first_819_cast_fp16")];
            tensor<fp16, []> _inversed_first_821_y_0_to_fp16 = const()[name = tensor<string, []>("_inversed_first_821_y_0_to_fp16"), val = tensor<fp16, []>(0x1p-3)];
            tensor<fp16, [1, 16, 128, 128]> _inversed_first_821_cast_fp16 = mul(x = first_819_cast_fp16, y = _inversed_first_821_y_0_to_fp16)[name = tensor<string, []>("_inversed_first_821_cast_fp16")];
            tensor<fp16, [1, 16, 128, 128]> input_tensor_1529_cast_fp16 = add(x = _inversed_first_821_cast_fp16, y = second_27_cast_fp16)[name = tensor<string, []>("input_tensor_1529_cast_fp16")];
            tensor<int32, []> var_8390 = const()[name = tensor<string, []>("op_8390"), val = tensor<int32, []>(-1)];
            tensor<fp16, [1, 16, 128, 128]> result_43_cast_fp16 = softmax(axis = var_8390, x = input_tensor_1529_cast_fp16)[name = tensor<string, []>("result_43_cast_fp16")];
            tensor<bool, []> input_tensor_1533_transpose_x_0 = const()[name = tensor<string, []>("input_tensor_1533_transpose_x_0"), val = tensor<bool, []>(false)];
            tensor<bool, []> input_tensor_1533_transpose_y_0 = const()[name = tensor<string, []>("input_tensor_1533_transpose_y_0"), val = tensor<bool, []>(false)];
            tensor<fp16, [1, 16, 128, 64]> transpose_299 = transpose(perm = var_8324, x = input_tensor_1513_cast_fp16)[name = tensor<string, []>("transpose_299")];
            tensor<fp16, [1, 16, 128, 64]> input_tensor_1533_cast_fp16 = matmul(transpose_x = input_tensor_1533_transpose_x_0, transpose_y = input_tensor_1533_transpose_y_0, x = result_43_cast_fp16, y = transpose_299)[name = tensor<string, []>("input_tensor_1533_cast_fp16")];
            tensor<int32, [4]> var_8408 = const()[name = tensor<string, []>("op_8408"), val = tensor<int32, [4]>([0, 2, 1, 3])];
            tensor<int32, [3]> var_8453 = const()[name = tensor<string, []>("op_8453"), val = tensor<int32, [3]>([1, 128, 1024])];
            tensor<fp16, [1, 128, 16, 64]> transpose_296 = transpose(perm = var_8408, x = input_tensor_1533_cast_fp16)[name = tensor<string, []>("transpose_296")];
            tensor<fp16, [1, 128, 1024]> x_261_cast_fp16 = reshape(shape = var_8453, x = transpose_296)[name = tensor<string, []>("x_261_cast_fp16")];
            tensor<fp16, [1024, 1024]> first_825_weight_0_to_fp16 = const()[name = tensor<string, []>("first_825_weight_0_to_fp16"), val = tensor<fp16, [1024, 1024]>(BLOBFILE(path = tensor<string, []>("@model_path/weights/weight.bin"), offset = tensor<uint64, []>(598140672)))];
            tensor<fp16, [1024]> first_825_bias_0_to_fp16 = const()[name = tensor<string, []>("first_825_bias_0_to_fp16"), val = tensor<fp16, [1024]>(BLOBFILE(path = tensor<string, []>("@model_path/weights/weight.bin"), offset = tensor<uint64, []>(600237888)))];
            tensor<fp16, [1, 128, 1024]> first_825_cast_fp16 = linear(bias = first_825_bias_0_to_fp16, weight = first_825_weight_0_to_fp16, x = x_261_cast_fp16)[name = tensor<string, []>("first_825_cast_fp16")];
            tensor<fp16, [1, 128, 1024]> input_tensor_1545_cast_fp16 = add(x = first_825_cast_fp16, y = x_255_cast_fp16)[name = tensor<string, []>("input_tensor_1545_cast_fp16")];
            tensor<bool, []> var_8461 = const()[name = tensor<string, []>("op_8461"), val = tensor<bool, []>(true)];
            tensor<int32, [1]> var_8463 = const()[name = tensor<string, []>("op_8463"), val = tensor<int32, [1]>([-1])];
            tensor<fp16, [1, 128, 1]> second_913_cast_fp16 = reduce_mean(axes = var_8463, keep_dims = var_8461, x = input_tensor_1545_cast_fp16)[name = tensor<string, []>("second_913_cast_fp16")];
            tensor<fp16, [1, 128, 1024]> input_tensor_1547_cast_fp16 = sub(x = input_tensor_1545_cast_fp16, y = second_913_cast_fp16)[name = tensor<string, []>("input_tensor_1547_cast_fp16")];
            tensor<fp16, []> encoder_layer_21_attention_output_LayerNorm_Constant_value_to_fp16 = const()[name = tensor<string, []>("encoder_layer_21_attention_output_LayerNorm_Constant_value_to_fp16"), val = tensor<fp16, []>(0x1p+1)];
            tensor<fp16, [1, 128, 1024]> input_tensor_1549_cast_fp16 = pow(x = input_tensor_1547_cast_fp16, y = encoder_layer_21_attention_output_LayerNorm_Constant_value_to_fp16)[name = tensor<string, []>("input_tensor_1549_cast_fp16")];
            tensor<bool, []> var_8469 = const()[name = tensor<string, []>("op_8469"), val = tensor<bool, []>(true)];
            tensor<int32, [1]> var_8471 = const()[name = tensor<string, []>("op_8471"), val = tensor<int32, [1]>([-1])];
            tensor<fp16, [1, 128, 1]> first_827_cast_fp16 = reduce_mean(axes = var_8471, keep_dims = var_8469, x = input_tensor_1549_cast_fp16)[name = tensor<string, []>("first_827_cast_fp16")];
            tensor<fp16, []> encoder_layer_21_attention_output_LayerNorm_Constant_1_value_to_fp16 = const()[name = tensor<string, []>("encoder_layer_21_attention_output_LayerNorm_Constant_1_value_to_fp16"), val = tensor<fp16, []>(0x1p-24)];
            tensor<fp16, [1, 128, 1]> input_tensor_1551_cast_fp16 = add(x = first_827_cast_fp16, y = encoder_layer_21_attention_output_LayerNorm_Constant_1_value_to_fp16)[name = tensor<string, []>("input_tensor_1551_cast_fp16")];
            tensor<fp16, [1, 128, 1]> second_917_cast_fp16 = sqrt(x = input_tensor_1551_cast_fp16)[name = tensor<string, []>("second_917_cast_fp16")];
            tensor<fp16, [1, 128, 1024]> first_829_cast_fp16 = real_div(x = input_tensor_1547_cast_fp16, y = second_917_cast_fp16)[name = tensor<string, []>("first_829_cast_fp16")];
            tensor<fp16, [1024]> initializers_onnx_initializer_349_to_fp16 = const()[name = tensor<string, []>("initializers_onnx_initializer_349_to_fp16"), val = tensor<fp16, [1024]>(BLOBFILE(path = tensor<string, []>("@model_path/weights/weight.bin"), offset = tensor<uint64, []>(600240000)))];
            tensor<fp16, [1, 128, 1024]> first_831_cast_fp16 = mul(x = first_829_cast_fp16, y = initializers_onnx_initializer_349_to_fp16)[name = tensor<string, []>("first_831_cast_fp16")];
            tensor<fp16, [1024]> initializers_onnx_initializer_350_to_fp16 = const()[name = tensor<string, []>("initializers_onnx_initializer_350_to_fp16"), val = tensor<fp16, [1024]>(BLOBFILE(path = tensor<string, []>("@model_path/weights/weight.bin"), offset = tensor<uint64, []>(600242112)))];
            tensor<fp16, [1, 128, 1024]> x_263_cast_fp16 = add(x = first_831_cast_fp16, y = initializers_onnx_initializer_350_to_fp16)[name = tensor<string, []>("x_263_cast_fp16")];
            tensor<fp16, [4096, 1024]> first_835_weight_0_to_fp16 = const()[name = tensor<string, []>("first_835_weight_0_to_fp16"), val = tensor<fp16, [4096, 1024]>(BLOBFILE(path = tensor<string, []>("@model_path/weights/weight.bin"), offset = tensor<uint64, []>(600244224)))];
            tensor<fp16, [4096]> first_835_bias_0_to_fp16 = const()[name = tensor<string, []>("first_835_bias_0_to_fp16"), val = tensor<fp16, [4096]>(BLOBFILE(path = tensor<string, []>("@model_path/weights/weight.bin"), offset = tensor<uint64, []>(608632896)))];
            tensor<fp16, [1, 128, 4096]> first_835_cast_fp16 = linear(bias = first_835_bias_0_to_fp16, weight = first_835_weight_0_to_fp16, x = x_263_cast_fp16)[name = tensor<string, []>("first_835_cast_fp16")];
            tensor<string, []> x_265_mode_0 = const()[name = tensor<string, []>("x_265_mode_0"), val = tensor<string, []>("EXACT")];
            tensor<fp16, [1, 128, 4096]> x_265_cast_fp16 = gelu(mode = x_265_mode_0, x = first_835_cast_fp16)[name = tensor<string, []>("x_265_cast_fp16")];
            tensor<fp16, [1024, 4096]> first_843_weight_0_to_fp16 = const()[name = tensor<string, []>("first_843_weight_0_to_fp16"), val = tensor<fp16, [1024, 4096]>(BLOBFILE(path = tensor<string, []>("@model_path/weights/weight.bin"), offset = tensor<uint64, []>(608641152)))];
            tensor<fp16, [1024]> first_843_bias_0_to_fp16 = const()[name = tensor<string, []>("first_843_bias_0_to_fp16"), val = tensor<fp16, [1024]>(BLOBFILE(path = tensor<string, []>("@model_path/weights/weight.bin"), offset = tensor<uint64, []>(617029824)))];
            tensor<fp16, [1, 128, 1024]> first_843_cast_fp16 = linear(bias = first_843_bias_0_to_fp16, weight = first_843_weight_0_to_fp16, x = x_265_cast_fp16)[name = tensor<string, []>("first_843_cast_fp16")];
            tensor<fp16, [1, 128, 1024]> input_tensor_1555_cast_fp16 = add(x = first_843_cast_fp16, y = x_263_cast_fp16)[name = tensor<string, []>("input_tensor_1555_cast_fp16")];
            tensor<bool, []> var_8495 = const()[name = tensor<string, []>("op_8495"), val = tensor<bool, []>(true)];
            tensor<int32, [1]> var_8497 = const()[name = tensor<string, []>("op_8497"), val = tensor<int32, [1]>([-1])];
            tensor<fp16, [1, 128, 1]> second_935_cast_fp16 = reduce_mean(axes = var_8497, keep_dims = var_8495, x = input_tensor_1555_cast_fp16)[name = tensor<string, []>("second_935_cast_fp16")];
            tensor<fp16, [1, 128, 1024]> input_tensor_1557_cast_fp16 = sub(x = input_tensor_1555_cast_fp16, y = second_935_cast_fp16)[name = tensor<string, []>("input_tensor_1557_cast_fp16")];
            tensor<fp16, []> encoder_layer_21_output_LayerNorm_Constant_value_to_fp16 = const()[name = tensor<string, []>("encoder_layer_21_output_LayerNorm_Constant_value_to_fp16"), val = tensor<fp16, []>(0x1p+1)];
            tensor<fp16, [1, 128, 1024]> input_tensor_1559_cast_fp16 = pow(x = input_tensor_1557_cast_fp16, y = encoder_layer_21_output_LayerNorm_Constant_value_to_fp16)[name = tensor<string, []>("input_tensor_1559_cast_fp16")];
            tensor<bool, []> var_8503 = const()[name = tensor<string, []>("op_8503"), val = tensor<bool, []>(true)];
            tensor<int32, [1]> var_8505 = const()[name = tensor<string, []>("op_8505"), val = tensor<int32, [1]>([-1])];
            tensor<fp16, [1, 128, 1]> first_845_cast_fp16 = reduce_mean(axes = var_8505, keep_dims = var_8503, x = input_tensor_1559_cast_fp16)[name = tensor<string, []>("first_845_cast_fp16")];
            tensor<fp16, []> encoder_layer_21_output_LayerNorm_Constant_1_value_to_fp16 = const()[name = tensor<string, []>("encoder_layer_21_output_LayerNorm_Constant_1_value_to_fp16"), val = tensor<fp16, []>(0x1p-24)];
            tensor<fp16, [1, 128, 1]> input_tensor_1561_cast_fp16 = add(x = first_845_cast_fp16, y = encoder_layer_21_output_LayerNorm_Constant_1_value_to_fp16)[name = tensor<string, []>("input_tensor_1561_cast_fp16")];
            tensor<fp16, [1, 128, 1]> second_939_cast_fp16 = sqrt(x = input_tensor_1561_cast_fp16)[name = tensor<string, []>("second_939_cast_fp16")];
            tensor<fp16, [1, 128, 1024]> first_847_cast_fp16 = real_div(x = input_tensor_1557_cast_fp16, y = second_939_cast_fp16)[name = tensor<string, []>("first_847_cast_fp16")];
            tensor<fp16, [1024]> initializers_onnx_initializer_355_to_fp16 = const()[name = tensor<string, []>("initializers_onnx_initializer_355_to_fp16"), val = tensor<fp16, [1024]>(BLOBFILE(path = tensor<string, []>("@model_path/weights/weight.bin"), offset = tensor<uint64, []>(617031936)))];
            tensor<fp16, [1, 128, 1024]> first_849_cast_fp16 = mul(x = first_847_cast_fp16, y = initializers_onnx_initializer_355_to_fp16)[name = tensor<string, []>("first_849_cast_fp16")];
            tensor<fp16, [1024]> initializers_onnx_initializer_356_to_fp16 = const()[name = tensor<string, []>("initializers_onnx_initializer_356_to_fp16"), val = tensor<fp16, [1024]>(BLOBFILE(path = tensor<string, []>("@model_path/weights/weight.bin"), offset = tensor<uint64, []>(617034048)))];
            tensor<fp16, [1, 128, 1024]> x_267_cast_fp16 = add(x = first_849_cast_fp16, y = initializers_onnx_initializer_356_to_fp16)[name = tensor<string, []>("x_267_cast_fp16")];
            tensor<fp16, [1024, 1024]> input_tensor_1585_weight_0_to_fp16 = const()[name = tensor<string, []>("input_tensor_1585_weight_0_to_fp16"), val = tensor<fp16, [1024, 1024]>(BLOBFILE(path = tensor<string, []>("@model_path/weights/weight.bin"), offset = tensor<uint64, []>(617036160)))];
            tensor<fp16, [1024]> input_tensor_1585_bias_0_to_fp16 = const()[name = tensor<string, []>("input_tensor_1585_bias_0_to_fp16"), val = tensor<fp16, [1024]>(BLOBFILE(path = tensor<string, []>("@model_path/weights/weight.bin"), offset = tensor<uint64, []>(619133376)))];
            tensor<fp16, [1, 128, 1024]> input_tensor_1585_cast_fp16 = linear(bias = input_tensor_1585_bias_0_to_fp16, weight = input_tensor_1585_weight_0_to_fp16, x = x_267_cast_fp16)[name = tensor<string, []>("input_tensor_1585_cast_fp16")];
            tensor<fp16, [1024, 1024]> input_tensor_1563_weight_0_to_fp16 = const()[name = tensor<string, []>("input_tensor_1563_weight_0_to_fp16"), val = tensor<fp16, [1024, 1024]>(BLOBFILE(path = tensor<string, []>("@model_path/weights/weight.bin"), offset = tensor<uint64, []>(619135488)))];
            tensor<fp16, [1024]> input_tensor_1563_bias_0_to_fp16 = const()[name = tensor<string, []>("input_tensor_1563_bias_0_to_fp16"), val = tensor<fp16, [1024]>(BLOBFILE(path = tensor<string, []>("@model_path/weights/weight.bin"), offset = tensor<uint64, []>(621232704)))];
            tensor<fp16, [1, 128, 1024]> input_tensor_1563_cast_fp16 = linear(bias = input_tensor_1563_bias_0_to_fp16, weight = input_tensor_1563_weight_0_to_fp16, x = x_267_cast_fp16)[name = tensor<string, []>("input_tensor_1563_cast_fp16")];
            tensor<int32, [4]> var_8565 = const()[name = tensor<string, []>("op_8565"), val = tensor<int32, [4]>([1, 128, 16, 64])];
            tensor<fp16, [1, 128, 16, 64]> input_tensor_1597_cast_fp16 = reshape(shape = var_8565, x = input_tensor_1563_cast_fp16)[name = tensor<string, []>("input_tensor_1597_cast_fp16")];
            tensor<fp16, [1024, 1024]> input_tensor_1573_weight_0_to_fp16 = const()[name = tensor<string, []>("input_tensor_1573_weight_0_to_fp16"), val = tensor<fp16, [1024, 1024]>(BLOBFILE(path = tensor<string, []>("@model_path/weights/weight.bin"), offset = tensor<uint64, []>(621234816)))];
            tensor<fp16, [1024]> input_tensor_1573_bias_0_to_fp16 = const()[name = tensor<string, []>("input_tensor_1573_bias_0_to_fp16"), val = tensor<fp16, [1024]>(BLOBFILE(path = tensor<string, []>("@model_path/weights/weight.bin"), offset = tensor<uint64, []>(623332032)))];
            tensor<fp16, [1, 128, 1024]> input_tensor_1573_cast_fp16 = linear(bias = input_tensor_1573_bias_0_to_fp16, weight = input_tensor_1573_weight_0_to_fp16, x = x_267_cast_fp16)[name = tensor<string, []>("input_tensor_1573_cast_fp16")];
            tensor<int32, [4]> var_8615 = const()[name = tensor<string, []>("op_8615"), val = tensor<int32, [4]>([1, 128, 16, 64])];
            tensor<fp16, [1, 128, 16, 64]> input_tensor_1583_cast_fp16 = reshape(shape = var_8615, x = input_tensor_1573_cast_fp16)[name = tensor<string, []>("input_tensor_1583_cast_fp16")];
            tensor<int32, [4]> var_8621 = const()[name = tensor<string, []>("op_8621"), val = tensor<int32, [4]>([0, 2, 1, 3])];
            tensor<int32, [4]> var_8668 = const()[name = tensor<string, []>("op_8668"), val = tensor<int32, [4]>([1, 128, 16, 64])];
            tensor<fp16, [1, 128, 16, 64]> input_tensor_1595_cast_fp16 = reshape(shape = var_8668, x = input_tensor_1585_cast_fp16)[name = tensor<string, []>("input_tensor_1595_cast_fp16")];
            tensor<bool, []> first_857_transpose_x_0 = const()[name = tensor<string, []>("first_857_transpose_x_0"), val = tensor<bool, []>(false)];
            tensor<bool, []> first_857_transpose_y_0 = const()[name = tensor<string, []>("first_857_transpose_y_0"), val = tensor<bool, []>(false)];
            tensor<int32, [4]> transpose_284_perm_0 = const()[name = tensor<string, []>("transpose_284_perm_0"), val = tensor<int32, [4]>([0, 2, -3, -1])];
            tensor<int32, [4]> transpose_285_perm_0 = const()[name = tensor<string, []>("transpose_285_perm_0"), val = tensor<int32, [4]>([0, 2, -1, -3])];
            tensor<fp16, [1, 16, 64, 128]> transpose_293 = transpose(perm = transpose_285_perm_0, x = input_tensor_1597_cast_fp16)[name = tensor<string, []>("transpose_293")];
            tensor<fp16, [1, 16, 128, 64]> transpose_294 = transpose(perm = transpose_284_perm_0, x = input_tensor_1595_cast_fp16)[name = tensor<string, []>("transpose_294")];
            tensor<fp16, [1, 16, 128, 128]> first_857_cast_fp16 = matmul(transpose_x = first_857_transpose_x_0, transpose_y = first_857_transpose_y_0, x = transpose_294, y = transpose_293)[name = tensor<string, []>("first_857_cast_fp16")];
            tensor<fp16, []> _inversed_first_859_y_0_to_fp16 = const()[name = tensor<string, []>("_inversed_first_859_y_0_to_fp16"), val = tensor<fp16, []>(0x1p-3)];
            tensor<fp16, [1, 16, 128, 128]> _inversed_first_859_cast_fp16 = mul(x = first_857_cast_fp16, y = _inversed_first_859_y_0_to_fp16)[name = tensor<string, []>("_inversed_first_859_cast_fp16")];
            tensor<fp16, [1, 16, 128, 128]> input_tensor_1599_cast_fp16 = add(x = _inversed_first_859_cast_fp16, y = second_27_cast_fp16)[name = tensor<string, []>("input_tensor_1599_cast_fp16")];
            tensor<int32, []> var_8687 = const()[name = tensor<string, []>("op_8687"), val = tensor<int32, []>(-1)];
            tensor<fp16, [1, 16, 128, 128]> result_45_cast_fp16 = softmax(axis = var_8687, x = input_tensor_1599_cast_fp16)[name = tensor<string, []>("result_45_cast_fp16")];
            tensor<bool, []> input_tensor_1603_transpose_x_0 = const()[name = tensor<string, []>("input_tensor_1603_transpose_x_0"), val = tensor<bool, []>(false)];
            tensor<bool, []> input_tensor_1603_transpose_y_0 = const()[name = tensor<string, []>("input_tensor_1603_transpose_y_0"), val = tensor<bool, []>(false)];
            tensor<fp16, [1, 16, 128, 64]> transpose_295 = transpose(perm = var_8621, x = input_tensor_1583_cast_fp16)[name = tensor<string, []>("transpose_295")];
            tensor<fp16, [1, 16, 128, 64]> input_tensor_1603_cast_fp16 = matmul(transpose_x = input_tensor_1603_transpose_x_0, transpose_y = input_tensor_1603_transpose_y_0, x = result_45_cast_fp16, y = transpose_295)[name = tensor<string, []>("input_tensor_1603_cast_fp16")];
            tensor<int32, [4]> var_8705 = const()[name = tensor<string, []>("op_8705"), val = tensor<int32, [4]>([0, 2, 1, 3])];
            tensor<int32, [3]> var_8750 = const()[name = tensor<string, []>("op_8750"), val = tensor<int32, [3]>([1, 128, 1024])];
            tensor<fp16, [1, 128, 16, 64]> transpose_292 = transpose(perm = var_8705, x = input_tensor_1603_cast_fp16)[name = tensor<string, []>("transpose_292")];
            tensor<fp16, [1, 128, 1024]> x_273_cast_fp16 = reshape(shape = var_8750, x = transpose_292)[name = tensor<string, []>("x_273_cast_fp16")];
            tensor<fp16, [1024, 1024]> first_863_weight_0_to_fp16 = const()[name = tensor<string, []>("first_863_weight_0_to_fp16"), val = tensor<fp16, [1024, 1024]>(BLOBFILE(path = tensor<string, []>("@model_path/weights/weight.bin"), offset = tensor<uint64, []>(623334144)))];
            tensor<fp16, [1024]> first_863_bias_0_to_fp16 = const()[name = tensor<string, []>("first_863_bias_0_to_fp16"), val = tensor<fp16, [1024]>(BLOBFILE(path = tensor<string, []>("@model_path/weights/weight.bin"), offset = tensor<uint64, []>(625431360)))];
            tensor<fp16, [1, 128, 1024]> first_863_cast_fp16 = linear(bias = first_863_bias_0_to_fp16, weight = first_863_weight_0_to_fp16, x = x_273_cast_fp16)[name = tensor<string, []>("first_863_cast_fp16")];
            tensor<fp16, [1, 128, 1024]> input_tensor_1615_cast_fp16 = add(x = first_863_cast_fp16, y = x_267_cast_fp16)[name = tensor<string, []>("input_tensor_1615_cast_fp16")];
            tensor<bool, []> var_8758 = const()[name = tensor<string, []>("op_8758"), val = tensor<bool, []>(true)];
            tensor<int32, [1]> var_8760 = const()[name = tensor<string, []>("op_8760"), val = tensor<int32, [1]>([-1])];
            tensor<fp16, [1, 128, 1]> second_955_cast_fp16 = reduce_mean(axes = var_8760, keep_dims = var_8758, x = input_tensor_1615_cast_fp16)[name = tensor<string, []>("second_955_cast_fp16")];
            tensor<fp16, [1, 128, 1024]> input_tensor_1617_cast_fp16 = sub(x = input_tensor_1615_cast_fp16, y = second_955_cast_fp16)[name = tensor<string, []>("input_tensor_1617_cast_fp16")];
            tensor<fp16, []> encoder_layer_22_attention_output_LayerNorm_Constant_value_to_fp16 = const()[name = tensor<string, []>("encoder_layer_22_attention_output_LayerNorm_Constant_value_to_fp16"), val = tensor<fp16, []>(0x1p+1)];
            tensor<fp16, [1, 128, 1024]> input_tensor_1619_cast_fp16 = pow(x = input_tensor_1617_cast_fp16, y = encoder_layer_22_attention_output_LayerNorm_Constant_value_to_fp16)[name = tensor<string, []>("input_tensor_1619_cast_fp16")];
            tensor<bool, []> var_8766 = const()[name = tensor<string, []>("op_8766"), val = tensor<bool, []>(true)];
            tensor<int32, [1]> var_8768 = const()[name = tensor<string, []>("op_8768"), val = tensor<int32, [1]>([-1])];
            tensor<fp16, [1, 128, 1]> first_865_cast_fp16 = reduce_mean(axes = var_8768, keep_dims = var_8766, x = input_tensor_1619_cast_fp16)[name = tensor<string, []>("first_865_cast_fp16")];
            tensor<fp16, []> encoder_layer_22_attention_output_LayerNorm_Constant_1_value_to_fp16 = const()[name = tensor<string, []>("encoder_layer_22_attention_output_LayerNorm_Constant_1_value_to_fp16"), val = tensor<fp16, []>(0x1p-24)];
            tensor<fp16, [1, 128, 1]> input_tensor_1621_cast_fp16 = add(x = first_865_cast_fp16, y = encoder_layer_22_attention_output_LayerNorm_Constant_1_value_to_fp16)[name = tensor<string, []>("input_tensor_1621_cast_fp16")];
            tensor<fp16, [1, 128, 1]> second_959_cast_fp16 = sqrt(x = input_tensor_1621_cast_fp16)[name = tensor<string, []>("second_959_cast_fp16")];
            tensor<fp16, [1, 128, 1024]> first_867_cast_fp16 = real_div(x = input_tensor_1617_cast_fp16, y = second_959_cast_fp16)[name = tensor<string, []>("first_867_cast_fp16")];
            tensor<fp16, [1024]> initializers_onnx_initializer_365_to_fp16 = const()[name = tensor<string, []>("initializers_onnx_initializer_365_to_fp16"), val = tensor<fp16, [1024]>(BLOBFILE(path = tensor<string, []>("@model_path/weights/weight.bin"), offset = tensor<uint64, []>(625433472)))];
            tensor<fp16, [1, 128, 1024]> first_869_cast_fp16 = mul(x = first_867_cast_fp16, y = initializers_onnx_initializer_365_to_fp16)[name = tensor<string, []>("first_869_cast_fp16")];
            tensor<fp16, [1024]> initializers_onnx_initializer_366_to_fp16 = const()[name = tensor<string, []>("initializers_onnx_initializer_366_to_fp16"), val = tensor<fp16, [1024]>(BLOBFILE(path = tensor<string, []>("@model_path/weights/weight.bin"), offset = tensor<uint64, []>(625435584)))];
            tensor<fp16, [1, 128, 1024]> x_275_cast_fp16 = add(x = first_869_cast_fp16, y = initializers_onnx_initializer_366_to_fp16)[name = tensor<string, []>("x_275_cast_fp16")];
            tensor<fp16, [4096, 1024]> first_873_weight_0_to_fp16 = const()[name = tensor<string, []>("first_873_weight_0_to_fp16"), val = tensor<fp16, [4096, 1024]>(BLOBFILE(path = tensor<string, []>("@model_path/weights/weight.bin"), offset = tensor<uint64, []>(625437696)))];
            tensor<fp16, [4096]> first_873_bias_0_to_fp16 = const()[name = tensor<string, []>("first_873_bias_0_to_fp16"), val = tensor<fp16, [4096]>(BLOBFILE(path = tensor<string, []>("@model_path/weights/weight.bin"), offset = tensor<uint64, []>(633826368)))];
            tensor<fp16, [1, 128, 4096]> first_873_cast_fp16 = linear(bias = first_873_bias_0_to_fp16, weight = first_873_weight_0_to_fp16, x = x_275_cast_fp16)[name = tensor<string, []>("first_873_cast_fp16")];
            tensor<string, []> x_277_mode_0 = const()[name = tensor<string, []>("x_277_mode_0"), val = tensor<string, []>("EXACT")];
            tensor<fp16, [1, 128, 4096]> x_277_cast_fp16 = gelu(mode = x_277_mode_0, x = first_873_cast_fp16)[name = tensor<string, []>("x_277_cast_fp16")];
            tensor<fp16, [1024, 4096]> first_881_weight_0_to_fp16 = const()[name = tensor<string, []>("first_881_weight_0_to_fp16"), val = tensor<fp16, [1024, 4096]>(BLOBFILE(path = tensor<string, []>("@model_path/weights/weight.bin"), offset = tensor<uint64, []>(633834624)))];
            tensor<fp16, [1024]> first_881_bias_0_to_fp16 = const()[name = tensor<string, []>("first_881_bias_0_to_fp16"), val = tensor<fp16, [1024]>(BLOBFILE(path = tensor<string, []>("@model_path/weights/weight.bin"), offset = tensor<uint64, []>(642223296)))];
            tensor<fp16, [1, 128, 1024]> first_881_cast_fp16 = linear(bias = first_881_bias_0_to_fp16, weight = first_881_weight_0_to_fp16, x = x_277_cast_fp16)[name = tensor<string, []>("first_881_cast_fp16")];
            tensor<fp16, [1, 128, 1024]> input_tensor_1625_cast_fp16 = add(x = first_881_cast_fp16, y = x_275_cast_fp16)[name = tensor<string, []>("input_tensor_1625_cast_fp16")];
            tensor<bool, []> var_8792 = const()[name = tensor<string, []>("op_8792"), val = tensor<bool, []>(true)];
            tensor<int32, [1]> var_8794 = const()[name = tensor<string, []>("op_8794"), val = tensor<int32, [1]>([-1])];
            tensor<fp16, [1, 128, 1]> second_977_cast_fp16 = reduce_mean(axes = var_8794, keep_dims = var_8792, x = input_tensor_1625_cast_fp16)[name = tensor<string, []>("second_977_cast_fp16")];
            tensor<fp16, [1, 128, 1024]> input_tensor_1627_cast_fp16 = sub(x = input_tensor_1625_cast_fp16, y = second_977_cast_fp16)[name = tensor<string, []>("input_tensor_1627_cast_fp16")];
            tensor<fp16, []> encoder_layer_22_output_LayerNorm_Constant_value_to_fp16 = const()[name = tensor<string, []>("encoder_layer_22_output_LayerNorm_Constant_value_to_fp16"), val = tensor<fp16, []>(0x1p+1)];
            tensor<fp16, [1, 128, 1024]> input_tensor_1629_cast_fp16 = pow(x = input_tensor_1627_cast_fp16, y = encoder_layer_22_output_LayerNorm_Constant_value_to_fp16)[name = tensor<string, []>("input_tensor_1629_cast_fp16")];
            tensor<bool, []> var_8800 = const()[name = tensor<string, []>("op_8800"), val = tensor<bool, []>(true)];
            tensor<int32, [1]> var_8802 = const()[name = tensor<string, []>("op_8802"), val = tensor<int32, [1]>([-1])];
            tensor<fp16, [1, 128, 1]> first_883_cast_fp16 = reduce_mean(axes = var_8802, keep_dims = var_8800, x = input_tensor_1629_cast_fp16)[name = tensor<string, []>("first_883_cast_fp16")];
            tensor<fp16, []> encoder_layer_22_output_LayerNorm_Constant_1_value_to_fp16 = const()[name = tensor<string, []>("encoder_layer_22_output_LayerNorm_Constant_1_value_to_fp16"), val = tensor<fp16, []>(0x1p-24)];
            tensor<fp16, [1, 128, 1]> input_tensor_1631_cast_fp16 = add(x = first_883_cast_fp16, y = encoder_layer_22_output_LayerNorm_Constant_1_value_to_fp16)[name = tensor<string, []>("input_tensor_1631_cast_fp16")];
            tensor<fp16, [1, 128, 1]> second_981_cast_fp16 = sqrt(x = input_tensor_1631_cast_fp16)[name = tensor<string, []>("second_981_cast_fp16")];
            tensor<fp16, [1, 128, 1024]> first_885_cast_fp16 = real_div(x = input_tensor_1627_cast_fp16, y = second_981_cast_fp16)[name = tensor<string, []>("first_885_cast_fp16")];
            tensor<fp16, [1024]> initializers_onnx_initializer_371_to_fp16 = const()[name = tensor<string, []>("initializers_onnx_initializer_371_to_fp16"), val = tensor<fp16, [1024]>(BLOBFILE(path = tensor<string, []>("@model_path/weights/weight.bin"), offset = tensor<uint64, []>(642225408)))];
            tensor<fp16, [1, 128, 1024]> first_887_cast_fp16 = mul(x = first_885_cast_fp16, y = initializers_onnx_initializer_371_to_fp16)[name = tensor<string, []>("first_887_cast_fp16")];
            tensor<fp16, [1024]> initializers_onnx_initializer_372_to_fp16 = const()[name = tensor<string, []>("initializers_onnx_initializer_372_to_fp16"), val = tensor<fp16, [1024]>(BLOBFILE(path = tensor<string, []>("@model_path/weights/weight.bin"), offset = tensor<uint64, []>(642227520)))];
            tensor<fp16, [1, 128, 1024]> x_279_cast_fp16 = add(x = first_887_cast_fp16, y = initializers_onnx_initializer_372_to_fp16)[name = tensor<string, []>("x_279_cast_fp16")];
            tensor<fp16, [1024, 1024]> input_tensor_1655_weight_0_to_fp16 = const()[name = tensor<string, []>("input_tensor_1655_weight_0_to_fp16"), val = tensor<fp16, [1024, 1024]>(BLOBFILE(path = tensor<string, []>("@model_path/weights/weight.bin"), offset = tensor<uint64, []>(642229632)))];
            tensor<fp16, [1024]> input_tensor_1655_bias_0_to_fp16 = const()[name = tensor<string, []>("input_tensor_1655_bias_0_to_fp16"), val = tensor<fp16, [1024]>(BLOBFILE(path = tensor<string, []>("@model_path/weights/weight.bin"), offset = tensor<uint64, []>(644326848)))];
            tensor<fp16, [1, 128, 1024]> input_tensor_1655_cast_fp16 = linear(bias = input_tensor_1655_bias_0_to_fp16, weight = input_tensor_1655_weight_0_to_fp16, x = x_279_cast_fp16)[name = tensor<string, []>("input_tensor_1655_cast_fp16")];
            tensor<fp16, [1024, 1024]> input_tensor_1633_weight_0_to_fp16 = const()[name = tensor<string, []>("input_tensor_1633_weight_0_to_fp16"), val = tensor<fp16, [1024, 1024]>(BLOBFILE(path = tensor<string, []>("@model_path/weights/weight.bin"), offset = tensor<uint64, []>(644328960)))];
            tensor<fp16, [1024]> input_tensor_1633_bias_0_to_fp16 = const()[name = tensor<string, []>("input_tensor_1633_bias_0_to_fp16"), val = tensor<fp16, [1024]>(BLOBFILE(path = tensor<string, []>("@model_path/weights/weight.bin"), offset = tensor<uint64, []>(646426176)))];
            tensor<fp16, [1, 128, 1024]> input_tensor_1633_cast_fp16 = linear(bias = input_tensor_1633_bias_0_to_fp16, weight = input_tensor_1633_weight_0_to_fp16, x = x_279_cast_fp16)[name = tensor<string, []>("input_tensor_1633_cast_fp16")];
            tensor<int32, [4]> var_8862 = const()[name = tensor<string, []>("op_8862"), val = tensor<int32, [4]>([1, 128, 16, 64])];
            tensor<fp16, [1, 128, 16, 64]> input_tensor_1667_cast_fp16 = reshape(shape = var_8862, x = input_tensor_1633_cast_fp16)[name = tensor<string, []>("input_tensor_1667_cast_fp16")];
            tensor<fp16, [1024, 1024]> input_tensor_1643_weight_0_to_fp16 = const()[name = tensor<string, []>("input_tensor_1643_weight_0_to_fp16"), val = tensor<fp16, [1024, 1024]>(BLOBFILE(path = tensor<string, []>("@model_path/weights/weight.bin"), offset = tensor<uint64, []>(646428288)))];
            tensor<fp16, [1024]> input_tensor_1643_bias_0_to_fp16 = const()[name = tensor<string, []>("input_tensor_1643_bias_0_to_fp16"), val = tensor<fp16, [1024]>(BLOBFILE(path = tensor<string, []>("@model_path/weights/weight.bin"), offset = tensor<uint64, []>(648525504)))];
            tensor<fp16, [1, 128, 1024]> input_tensor_1643_cast_fp16 = linear(bias = input_tensor_1643_bias_0_to_fp16, weight = input_tensor_1643_weight_0_to_fp16, x = x_279_cast_fp16)[name = tensor<string, []>("input_tensor_1643_cast_fp16")];
            tensor<int32, [4]> var_8912 = const()[name = tensor<string, []>("op_8912"), val = tensor<int32, [4]>([1, 128, 16, 64])];
            tensor<fp16, [1, 128, 16, 64]> input_tensor_1653_cast_fp16 = reshape(shape = var_8912, x = input_tensor_1643_cast_fp16)[name = tensor<string, []>("input_tensor_1653_cast_fp16")];
            tensor<int32, [4]> var_8918 = const()[name = tensor<string, []>("op_8918"), val = tensor<int32, [4]>([0, 2, 1, 3])];
            tensor<int32, [4]> var_8965 = const()[name = tensor<string, []>("op_8965"), val = tensor<int32, [4]>([1, 128, 16, 64])];
            tensor<fp16, [1, 128, 16, 64]> input_tensor_1665_cast_fp16 = reshape(shape = var_8965, x = input_tensor_1655_cast_fp16)[name = tensor<string, []>("input_tensor_1665_cast_fp16")];
            tensor<bool, []> first_895_transpose_x_0 = const()[name = tensor<string, []>("first_895_transpose_x_0"), val = tensor<bool, []>(false)];
            tensor<bool, []> first_895_transpose_y_0 = const()[name = tensor<string, []>("first_895_transpose_y_0"), val = tensor<bool, []>(false)];
            tensor<int32, [4]> transpose_286_perm_0 = const()[name = tensor<string, []>("transpose_286_perm_0"), val = tensor<int32, [4]>([0, 2, -3, -1])];
            tensor<int32, [4]> transpose_287_perm_0 = const()[name = tensor<string, []>("transpose_287_perm_0"), val = tensor<int32, [4]>([0, 2, -1, -3])];
            tensor<fp16, [1, 16, 64, 128]> transpose_289 = transpose(perm = transpose_287_perm_0, x = input_tensor_1667_cast_fp16)[name = tensor<string, []>("transpose_289")];
            tensor<fp16, [1, 16, 128, 64]> transpose_290 = transpose(perm = transpose_286_perm_0, x = input_tensor_1665_cast_fp16)[name = tensor<string, []>("transpose_290")];
            tensor<fp16, [1, 16, 128, 128]> first_895_cast_fp16 = matmul(transpose_x = first_895_transpose_x_0, transpose_y = first_895_transpose_y_0, x = transpose_290, y = transpose_289)[name = tensor<string, []>("first_895_cast_fp16")];
            tensor<fp16, []> _inversed_first_897_y_0_to_fp16 = const()[name = tensor<string, []>("_inversed_first_897_y_0_to_fp16"), val = tensor<fp16, []>(0x1p-3)];
            tensor<fp16, [1, 16, 128, 128]> _inversed_first_897_cast_fp16 = mul(x = first_895_cast_fp16, y = _inversed_first_897_y_0_to_fp16)[name = tensor<string, []>("_inversed_first_897_cast_fp16")];
            tensor<fp16, [1, 16, 128, 128]> input_tensor_1669_cast_fp16 = add(x = _inversed_first_897_cast_fp16, y = second_27_cast_fp16)[name = tensor<string, []>("input_tensor_1669_cast_fp16")];
            tensor<int32, []> var_8984 = const()[name = tensor<string, []>("op_8984"), val = tensor<int32, []>(-1)];
            tensor<fp16, [1, 16, 128, 128]> result_cast_fp16 = softmax(axis = var_8984, x = input_tensor_1669_cast_fp16)[name = tensor<string, []>("result_cast_fp16")];
            tensor<bool, []> input_tensor_1673_transpose_x_0 = const()[name = tensor<string, []>("input_tensor_1673_transpose_x_0"), val = tensor<bool, []>(false)];
            tensor<bool, []> input_tensor_1673_transpose_y_0 = const()[name = tensor<string, []>("input_tensor_1673_transpose_y_0"), val = tensor<bool, []>(false)];
            tensor<fp16, [1, 16, 128, 64]> transpose_291 = transpose(perm = var_8918, x = input_tensor_1653_cast_fp16)[name = tensor<string, []>("transpose_291")];
            tensor<fp16, [1, 16, 128, 64]> input_tensor_1673_cast_fp16 = matmul(transpose_x = input_tensor_1673_transpose_x_0, transpose_y = input_tensor_1673_transpose_y_0, x = result_cast_fp16, y = transpose_291)[name = tensor<string, []>("input_tensor_1673_cast_fp16")];
            tensor<int32, [4]> var_9002 = const()[name = tensor<string, []>("op_9002"), val = tensor<int32, [4]>([0, 2, 1, 3])];
            tensor<int32, [3]> var_9047 = const()[name = tensor<string, []>("op_9047"), val = tensor<int32, [3]>([1, 128, 1024])];
            tensor<fp16, [1, 128, 16, 64]> transpose_288 = transpose(perm = var_9002, x = input_tensor_1673_cast_fp16)[name = tensor<string, []>("transpose_288")];
            tensor<fp16, [1, 128, 1024]> x_285_cast_fp16 = reshape(shape = var_9047, x = transpose_288)[name = tensor<string, []>("x_285_cast_fp16")];
            tensor<fp16, [1024, 1024]> first_901_weight_0_to_fp16 = const()[name = tensor<string, []>("first_901_weight_0_to_fp16"), val = tensor<fp16, [1024, 1024]>(BLOBFILE(path = tensor<string, []>("@model_path/weights/weight.bin"), offset = tensor<uint64, []>(648527616)))];
            tensor<fp16, [1024]> first_901_bias_0_to_fp16 = const()[name = tensor<string, []>("first_901_bias_0_to_fp16"), val = tensor<fp16, [1024]>(BLOBFILE(path = tensor<string, []>("@model_path/weights/weight.bin"), offset = tensor<uint64, []>(650624832)))];
            tensor<fp16, [1, 128, 1024]> first_901_cast_fp16 = linear(bias = first_901_bias_0_to_fp16, weight = first_901_weight_0_to_fp16, x = x_285_cast_fp16)[name = tensor<string, []>("first_901_cast_fp16")];
            tensor<fp16, [1, 128, 1024]> input_tensor_1685_cast_fp16 = add(x = first_901_cast_fp16, y = x_279_cast_fp16)[name = tensor<string, []>("input_tensor_1685_cast_fp16")];
            tensor<bool, []> var_9055 = const()[name = tensor<string, []>("op_9055"), val = tensor<bool, []>(true)];
            tensor<int32, [1]> var_9057 = const()[name = tensor<string, []>("op_9057"), val = tensor<int32, [1]>([-1])];
            tensor<fp16, [1, 128, 1]> second_997_cast_fp16 = reduce_mean(axes = var_9057, keep_dims = var_9055, x = input_tensor_1685_cast_fp16)[name = tensor<string, []>("second_997_cast_fp16")];
            tensor<fp16, [1, 128, 1024]> input_tensor_1687_cast_fp16 = sub(x = input_tensor_1685_cast_fp16, y = second_997_cast_fp16)[name = tensor<string, []>("input_tensor_1687_cast_fp16")];
            tensor<fp16, []> encoder_layer_23_attention_output_LayerNorm_Constant_value_to_fp16 = const()[name = tensor<string, []>("encoder_layer_23_attention_output_LayerNorm_Constant_value_to_fp16"), val = tensor<fp16, []>(0x1p+1)];
            tensor<fp16, [1, 128, 1024]> input_tensor_1689_cast_fp16 = pow(x = input_tensor_1687_cast_fp16, y = encoder_layer_23_attention_output_LayerNorm_Constant_value_to_fp16)[name = tensor<string, []>("input_tensor_1689_cast_fp16")];
            tensor<bool, []> var_9063 = const()[name = tensor<string, []>("op_9063"), val = tensor<bool, []>(true)];
            tensor<int32, [1]> var_9065 = const()[name = tensor<string, []>("op_9065"), val = tensor<int32, [1]>([-1])];
            tensor<fp16, [1, 128, 1]> first_903_cast_fp16 = reduce_mean(axes = var_9065, keep_dims = var_9063, x = input_tensor_1689_cast_fp16)[name = tensor<string, []>("first_903_cast_fp16")];
            tensor<fp16, []> encoder_layer_23_attention_output_LayerNorm_Constant_1_value_to_fp16 = const()[name = tensor<string, []>("encoder_layer_23_attention_output_LayerNorm_Constant_1_value_to_fp16"), val = tensor<fp16, []>(0x1p-24)];
            tensor<fp16, [1, 128, 1]> input_tensor_1691_cast_fp16 = add(x = first_903_cast_fp16, y = encoder_layer_23_attention_output_LayerNorm_Constant_1_value_to_fp16)[name = tensor<string, []>("input_tensor_1691_cast_fp16")];
            tensor<fp16, [1, 128, 1]> second_1001_cast_fp16 = sqrt(x = input_tensor_1691_cast_fp16)[name = tensor<string, []>("second_1001_cast_fp16")];
            tensor<fp16, [1, 128, 1024]> first_905_cast_fp16 = real_div(x = input_tensor_1687_cast_fp16, y = second_1001_cast_fp16)[name = tensor<string, []>("first_905_cast_fp16")];
            tensor<fp16, [1024]> initializers_onnx_initializer_381_to_fp16 = const()[name = tensor<string, []>("initializers_onnx_initializer_381_to_fp16"), val = tensor<fp16, [1024]>(BLOBFILE(path = tensor<string, []>("@model_path/weights/weight.bin"), offset = tensor<uint64, []>(650626944)))];
            tensor<fp16, [1, 128, 1024]> first_907_cast_fp16 = mul(x = first_905_cast_fp16, y = initializers_onnx_initializer_381_to_fp16)[name = tensor<string, []>("first_907_cast_fp16")];
            tensor<fp16, [1024]> initializers_onnx_initializer_382_to_fp16 = const()[name = tensor<string, []>("initializers_onnx_initializer_382_to_fp16"), val = tensor<fp16, [1024]>(BLOBFILE(path = tensor<string, []>("@model_path/weights/weight.bin"), offset = tensor<uint64, []>(650629056)))];
            tensor<fp16, [1, 128, 1024]> x_287_cast_fp16 = add(x = first_907_cast_fp16, y = initializers_onnx_initializer_382_to_fp16)[name = tensor<string, []>("x_287_cast_fp16")];
            tensor<fp16, [4096, 1024]> first_911_weight_0_to_fp16 = const()[name = tensor<string, []>("first_911_weight_0_to_fp16"), val = tensor<fp16, [4096, 1024]>(BLOBFILE(path = tensor<string, []>("@model_path/weights/weight.bin"), offset = tensor<uint64, []>(650631168)))];
            tensor<fp16, [4096]> first_911_bias_0_to_fp16 = const()[name = tensor<string, []>("first_911_bias_0_to_fp16"), val = tensor<fp16, [4096]>(BLOBFILE(path = tensor<string, []>("@model_path/weights/weight.bin"), offset = tensor<uint64, []>(659019840)))];
            tensor<fp16, [1, 128, 4096]> first_911_cast_fp16 = linear(bias = first_911_bias_0_to_fp16, weight = first_911_weight_0_to_fp16, x = x_287_cast_fp16)[name = tensor<string, []>("first_911_cast_fp16")];
            tensor<string, []> x_mode_0 = const()[name = tensor<string, []>("x_mode_0"), val = tensor<string, []>("EXACT")];
            tensor<fp16, [1, 128, 4096]> x_cast_fp16 = gelu(mode = x_mode_0, x = first_911_cast_fp16)[name = tensor<string, []>("x_cast_fp16")];
            tensor<fp16, [1024, 4096]> first_919_weight_0_to_fp16 = const()[name = tensor<string, []>("first_919_weight_0_to_fp16"), val = tensor<fp16, [1024, 4096]>(BLOBFILE(path = tensor<string, []>("@model_path/weights/weight.bin"), offset = tensor<uint64, []>(659028096)))];
            tensor<fp16, [1024]> first_919_bias_0_to_fp16 = const()[name = tensor<string, []>("first_919_bias_0_to_fp16"), val = tensor<fp16, [1024]>(BLOBFILE(path = tensor<string, []>("@model_path/weights/weight.bin"), offset = tensor<uint64, []>(667416768)))];
            tensor<fp16, [1, 128, 1024]> first_919_cast_fp16 = linear(bias = first_919_bias_0_to_fp16, weight = first_919_weight_0_to_fp16, x = x_cast_fp16)[name = tensor<string, []>("first_919_cast_fp16")];
            tensor<fp16, [1, 128, 1024]> input_tensor_1695_cast_fp16 = add(x = first_919_cast_fp16, y = x_287_cast_fp16)[name = tensor<string, []>("input_tensor_1695_cast_fp16")];
            tensor<bool, []> var_9089 = const()[name = tensor<string, []>("op_9089"), val = tensor<bool, []>(true)];
            tensor<int32, [1]> var_9091 = const()[name = tensor<string, []>("op_9091"), val = tensor<int32, [1]>([-1])];
            tensor<fp16, [1, 128, 1]> second_1019_cast_fp16 = reduce_mean(axes = var_9091, keep_dims = var_9089, x = input_tensor_1695_cast_fp16)[name = tensor<string, []>("second_1019_cast_fp16")];
            tensor<fp16, [1, 128, 1024]> input_tensor_1697_cast_fp16 = sub(x = input_tensor_1695_cast_fp16, y = second_1019_cast_fp16)[name = tensor<string, []>("input_tensor_1697_cast_fp16")];
            tensor<fp16, []> encoder_layer_23_output_LayerNorm_Constant_value_to_fp16 = const()[name = tensor<string, []>("encoder_layer_23_output_LayerNorm_Constant_value_to_fp16"), val = tensor<fp16, []>(0x1p+1)];
            tensor<fp16, [1, 128, 1024]> input_tensor_1699_cast_fp16 = pow(x = input_tensor_1697_cast_fp16, y = encoder_layer_23_output_LayerNorm_Constant_value_to_fp16)[name = tensor<string, []>("input_tensor_1699_cast_fp16")];
            tensor<bool, []> var_9097 = const()[name = tensor<string, []>("op_9097"), val = tensor<bool, []>(true)];
            tensor<int32, [1]> var_9099 = const()[name = tensor<string, []>("op_9099"), val = tensor<int32, [1]>([-1])];
            tensor<fp16, [1, 128, 1]> first_921_cast_fp16 = reduce_mean(axes = var_9099, keep_dims = var_9097, x = input_tensor_1699_cast_fp16)[name = tensor<string, []>("first_921_cast_fp16")];
            tensor<fp16, []> encoder_layer_23_output_LayerNorm_Constant_1_value_to_fp16 = const()[name = tensor<string, []>("encoder_layer_23_output_LayerNorm_Constant_1_value_to_fp16"), val = tensor<fp16, []>(0x1p-24)];
            tensor<fp16, [1, 128, 1]> input_tensor_cast_fp16 = add(x = first_921_cast_fp16, y = encoder_layer_23_output_LayerNorm_Constant_1_value_to_fp16)[name = tensor<string, []>("input_tensor_cast_fp16")];
            tensor<fp16, [1, 128, 1]> second_1023_cast_fp16 = sqrt(x = input_tensor_cast_fp16)[name = tensor<string, []>("second_1023_cast_fp16")];
            tensor<fp16, [1, 128, 1024]> first_923_cast_fp16 = real_div(x = input_tensor_1697_cast_fp16, y = second_1023_cast_fp16)[name = tensor<string, []>("first_923_cast_fp16")];
            tensor<fp16, [1024]> initializers_onnx_initializer_387_to_fp16 = const()[name = tensor<string, []>("initializers_onnx_initializer_387_to_fp16"), val = tensor<fp16, [1024]>(BLOBFILE(path = tensor<string, []>("@model_path/weights/weight.bin"), offset = tensor<uint64, []>(667418880)))];
            tensor<fp16, [1, 128, 1024]> first_cast_fp16 = mul(x = first_923_cast_fp16, y = initializers_onnx_initializer_387_to_fp16)[name = tensor<string, []>("first_cast_fp16")];
            tensor<fp16, [1024]> initializers_onnx_initializer_388_to_fp16 = const()[name = tensor<string, []>("initializers_onnx_initializer_388_to_fp16"), val = tensor<fp16, [1024]>(BLOBFILE(path = tensor<string, []>("@model_path/weights/weight.bin"), offset = tensor<uint64, []>(667420992)))];
            tensor<fp16, [1, 128, 1024]> var_9107_cast_fp16 = add(x = first_cast_fp16, y = initializers_onnx_initializer_388_to_fp16)[name = tensor<string, []>("op_9107_cast_fp16")];
            tensor<string, []> var_9107_cast_fp16_to_fp32_dtype_0 = const()[name = tensor<string, []>("op_9107_cast_fp16_to_fp32_dtype_0"), val = tensor<string, []>("fp32")];
            tensor<fp32, [1, 128, 1024]> var_9107 = cast(dtype = var_9107_cast_fp16_to_fp32_dtype_0, x = var_9107_cast_fp16)[name = tensor<string, []>("cast_338")];
        } -> (var_9107);
}