program(1.0)
[buildInfo = dict<tensor<string, []>, tensor<string, []>>({{"coremlc-component-MIL", "3510.2.1"}, {"coremlc-version", "3500.32.1"}, {"coremltools-component-torch", "2.10.0"}, {"coremltools-source-dialect", "TorchScript"}, {"coremltools-version", "7.2"}})]
{
    func main<ios15>(tensor<int32, [1, 128]> attention_mask, tensor<int32, [1, 128]> input_ids, tensor<int32, [1, 128]> token_type_ids) {
            tensor<int32, [1]> input_tensor_1_axes_0 = const()[name = tensor<string, []>("input_tensor_1_axes_0"), val = tensor<int32, [1]>([1])];
            tensor<int32, [1, 1, 128]> input_tensor_1 = expand_dims(axes = input_tensor_1_axes_0, x = attention_mask)[name = tensor<string, []>("input_tensor_1")];
            tensor<int32, [1]> input_tensor_3_axes_0 = const()[name = tensor<string, []>("input_tensor_3_axes_0"), val = tensor<int32, [1]>([2])];
            tensor<int32, [1, 1, 1, 128]> input_tensor_3 = expand_dims(axes = input_tensor_3_axes_0, x = input_tensor_1)[name = tensor<string, []>("input_tensor_3")];
            tensor<fp16, []> Constant_value_to_fp16 = const()[name = tensor<string, []>("Constant_value_to_fp16"), val = tensor<fp16, []>(0x1p+0)];
            tensor<string, []> second_1_to_fp16_dtype_0 = const()[name = tensor<string, []>("second_1_to_fp16_dtype_0"), val = tensor<string, []>("fp16")];
            tensor<fp16, [1, 1, 1, 128]> cast_171 = cast(dtype = second_1_to_fp16_dtype_0, x = input_tensor_3)[name = tensor<string, []>("cast_171")];
            tensor<fp16, [1, 1, 1, 128]> first_3_cast_fp16 = sub(x = Constant_value_to_fp16, y = cast_171)[name = tensor<string, []>("first_3_cast_fp16")];
            tensor<fp16, []> Constant_1_value_to_fp16 = const()[name = tensor<string, []>("Constant_1_value_to_fp16"), val = tensor<fp16, []>(-inf)];
            tensor<fp16, [1, 1, 1, 128]> second_27_cast_fp16 = mul(x = first_3_cast_fp16, y = Constant_1_value_to_fp16)[name = tensor<string, []>("second_27_cast_fp16")];
            tensor<int32, []> first_5_axis_0 = const()[name = tensor<string, []>("first_5_axis_0"), val = tensor<int32, []>(0)];
            tensor<fp16, [30522, 384]> initializers_onnx_initializer_0_to_fp16 = const()[name = tensor<string, []>("initializers_onnx_initializer_0_to_fp16"), val = tensor<fp16, [30522, 384]>(BLOBFILE(path = tensor<string, []>("@model_path/weights/weight.bin"), offset = tensor<uint64, []>(64)))];
            tensor<fp16, [1, 128, 384]> first_5_cast_fp16 = gather(axis = first_5_axis_0, indices = input_ids, x = initializers_onnx_initializer_0_to_fp16)[name = tensor<string, []>("first_5_cast_fp16")];
            tensor<int32, []> second_5_axis_0 = const()[name = tensor<string, []>("second_5_axis_0"), val = tensor<int32, []>(0)];
            tensor<fp16, [2, 384]> initializers_onnx_initializer_1_to_fp16 = const()[name = tensor<string, []>("initializers_onnx_initializer_1_to_fp16"), val = tensor<fp16, [2, 384]>(BLOBFILE(path = tensor<string, []>("@model_path/weights/weight.bin"), offset = tensor<uint64, []>(23441024)))];
            tensor<fp16, [1, 128, 384]> second_5_cast_fp16 = gather(axis = second_5_axis_0, indices = token_type_ids, x = initializers_onnx_initializer_1_to_fp16)[name = tensor<string, []>("second_5_cast_fp16")];
            tensor<fp16, [1, 128, 384]> first_7_cast_fp16 = add(x = first_5_cast_fp16, y = second_5_cast_fp16)[name = tensor<string, []>("first_7_cast_fp16")];
            tensor<fp16, [1, 128, 384]> second_7_to_fp16 = const()[name = tensor<string, []>("second_7_to_fp16"), val = tensor<fp16, [1, 128, 384]>(BLOBFILE(path = tensor<string, []>("@model_path/weights/weight.bin"), offset = tensor<uint64, []>(23442624)))];
            tensor<fp16, [1, 128, 384]> input_tensor_15_cast_fp16 = add(x = first_7_cast_fp16, y = second_7_to_fp16)[name = tensor<string, []>("input_tensor_15_cast_fp16")];
            tensor<bool, []> var_1025 = const()[name = tensor<string, []>("op_1025"), val = tensor<bool, []>(true)];
            tensor<int32, [1]> var_1027 = const()[name = tensor<string, []>("op_1027"), val = tensor<int32, [1]>([-1])];
            tensor<fp16, [1, 128, 1]> second_9_cast_fp16 = reduce_mean(axes = var_1027, keep_dims = var_1025, x = input_tensor_15_cast_fp16)[name = tensor<string, []>("second_9_cast_fp16")];
            tensor<fp16, [1, 128, 384]> input_tensor_17_cast_fp16 = sub(x = input_tensor_15_cast_fp16, y = second_9_cast_fp16)[name = tensor<string, []>("input_tensor_17_cast_fp16")];
            tensor<fp16, []> embeddings_LayerNorm_Constant_value_to_fp16 = const()[name = tensor<string, []>("embeddings_LayerNorm_Constant_value_to_fp16"), val = tensor<fp16, []>(0x1p+1)];
            tensor<fp16, [1, 128, 384]> input_tensor_19_cast_fp16 = pow(x = input_tensor_17_cast_fp16, y = embeddings_LayerNorm_Constant_value_to_fp16)[name = tensor<string, []>("input_tensor_19_cast_fp16")];
            tensor<bool, []> var_1033 = const()[name = tensor<string, []>("op_1033"), val = tensor<bool, []>(true)];
            tensor<int32, [1]> var_1035 = const()[name = tensor<string, []>("op_1035"), val = tensor<int32, [1]>([-1])];
            tensor<fp16, [1, 128, 1]> first_9_cast_fp16 = reduce_mean(axes = var_1035, keep_dims = var_1033, x = input_tensor_19_cast_fp16)[name = tensor<string, []>("first_9_cast_fp16")];
            tensor<fp16, []> embeddings_LayerNorm_Constant_1_value_to_fp16 = const()[name = tensor<string, []>("embeddings_LayerNorm_Constant_1_value_to_fp16"), val = tensor<fp16, []>(0x1p-24)];
            tensor<fp16, [1, 128, 1]> input_tensor_21_cast_fp16 = add(x = first_9_cast_fp16, y = embeddings_LayerNorm_Constant_1_value_to_fp16)[name = tensor<string, []>("input_tensor_21_cast_fp16")];
            tensor<fp16, [1, 128, 1]> second_13_cast_fp16 = sqrt(x = input_tensor_21_cast_fp16)[name = tensor<string, []>("second_13_cast_fp16")];
            tensor<fp16, [1, 128, 384]> first_11_cast_fp16 = real_div(x = input_tensor_17_cast_fp16, y = second_13_cast_fp16)[name = tensor<string, []>("first_11_cast_fp16")];
            tensor<fp16, [384]> initializers_onnx_initializer_3_to_fp16 = const()[name = tensor<string, []>("initializers_onnx_initializer_3_to_fp16"), val = tensor<fp16, [384]>(BLOBFILE(path = tensor<string, []>("@model_path/weights/weight.bin"), offset = tensor<uint64, []>(23540992)))];
            tensor<fp16, [1, 128, 384]> first_13_cast_fp16 = mul(x = first_11_cast_fp16, y = initializers_onnx_initializer_3_to_fp16)[name = tensor<string, []>("first_13_cast_fp16")];
            tensor<fp16, [384]> initializers_onnx_initializer_4_to_fp16 = const()[name = tensor<string, []>("initializers_onnx_initializer_4_to_fp16"), val = tensor<fp16, [384]>(BLOBFILE(path = tensor<string, []>("@model_path/weights/weight.bin"), offset = tensor<uint64, []>(23541824)))];
            tensor<fp16, [1, 128, 384]> x_3_cast_fp16 = add(x = first_13_cast_fp16, y = initializers_onnx_initializer_4_to_fp16)[name = tensor<string, []>("x_3_cast_fp16")];
            tensor<fp16, [384, 384]> input_tensor_45_weight_0_to_fp16 = const()[name = tensor<string, []>("input_tensor_45_weight_0_to_fp16"), val = tensor<fp16, [384, 384]>(BLOBFILE(path = tensor<string, []>("@model_path/weights/weight.bin"), offset = tensor<uint64, []>(23542656)))];
            tensor<fp16, [384]> input_tensor_45_bias_0_to_fp16 = const()[name = tensor<string, []>("input_tensor_45_bias_0_to_fp16"), val = tensor<fp16, [384]>(BLOBFILE(path = tensor<string, []>("@model_path/weights/weight.bin"), offset = tensor<uint64, []>(23837632)))];
            tensor<fp16, [1, 128, 384]> input_tensor_45_cast_fp16 = linear(bias = input_tensor_45_bias_0_to_fp16, weight = input_tensor_45_weight_0_to_fp16, x = x_3_cast_fp16)[name = tensor<string, []>("input_tensor_45_cast_fp16")];
            tensor<fp16, [384, 384]> input_tensor_23_weight_0_to_fp16 = const()[name = tensor<string, []>("input_tensor_23_weight_0_to_fp16"), val = tensor<fp16, [384, 384]>(BLOBFILE(path = tensor<string, []>("@model_path/weights/weight.bin"), offset = tensor<uint64, []>(23838464)))];
            tensor<fp16, [384]> input_tensor_23_bias_0_to_fp16 = const()[name = tensor<string, []>("input_tensor_23_bias_0_to_fp16"), val = tensor<fp16, [384]>(BLOBFILE(path = tensor<string, []>("@model_path/weights/weight.bin"), offset = tensor<uint64, []>(24133440)))];
            tensor<fp16, [1, 128, 384]> input_tensor_23_cast_fp16 = linear(bias = input_tensor_23_bias_0_to_fp16, weight = input_tensor_23_weight_0_to_fp16, x = x_3_cast_fp16)[name = tensor<string, []>("input_tensor_23_cast_fp16")];
            tensor<int32, [4]> var_1095 = const()[name = tensor<string, []>("op_1095"), val = tensor<int32, [4]>([1, 128, 12, 32])];
            tensor<fp16, [1, 128, 12, 32]> input_tensor_57_cast_fp16 = reshape(shape = var_1095, x = input_tensor_23_cast_fp16)[name = tensor<string, []>("input_tensor_57_cast_fp16")];
            tensor<fp16, [384, 384]> input_tensor_33_weight_0_to_fp16 = const()[name = tensor<string, []>("input_tensor_33_weight_0_to_fp16"), val = tensor<fp16, [384, 384]>(BLOBFILE(path = tensor<string, []>("@model_path/weights/weight.bin"), offset = tensor<uint64, []>(24134272)))];
            tensor<fp16, [384]> input_tensor_33_bias_0_to_fp16 = const()[name = tensor<string, []>("input_tensor_33_bias_0_to_fp16"), val = tensor<fp16, [384]>(BLOBFILE(path = tensor<string, []>("@model_path/weights/weight.bin"), offset = tensor<uint64, []>(24429248)))];
            tensor<fp16, [1, 128, 384]> input_tensor_33_cast_fp16 = linear(bias = input_tensor_33_bias_0_to_fp16, weight = input_tensor_33_weight_0_to_fp16, x = x_3_cast_fp16)[name = tensor<string, []>("input_tensor_33_cast_fp16")];
            tensor<int32, [4]> var_1145 = const()[name = tensor<string, []>("op_1145"), val = tensor<int32, [4]>([1, 128, 12, 32])];
            tensor<fp16, [1, 128, 12, 32]> input_tensor_43_cast_fp16 = reshape(shape = var_1145, x = input_tensor_33_cast_fp16)[name = tensor<string, []>("input_tensor_43_cast_fp16")];
            tensor<int32, [4]> var_1151 = const()[name = tensor<string, []>("op_1151"), val = tensor<int32, [4]>([0, 2, 1, 3])];
            tensor<int32, [4]> var_1198 = const()[name = tensor<string, []>("op_1198"), val = tensor<int32, [4]>([1, 128, 12, 32])];
            tensor<fp16, [1, 128, 12, 32]> input_tensor_55_cast_fp16 = reshape(shape = var_1198, x = input_tensor_45_cast_fp16)[name = tensor<string, []>("input_tensor_55_cast_fp16")];
            tensor<bool, []> first_21_transpose_x_0 = const()[name = tensor<string, []>("first_21_transpose_x_0"), val = tensor<bool, []>(false)];
            tensor<bool, []> first_21_transpose_y_0 = const()[name = tensor<string, []>("first_21_transpose_y_0"), val = tensor<bool, []>(false)];
            tensor<int32, [4]> transpose_120_perm_0 = const()[name = tensor<string, []>("transpose_120_perm_0"), val = tensor<int32, [4]>([0, 2, -3, -1])];
            tensor<int32, [4]> transpose_121_perm_0 = const()[name = tensor<string, []>("transpose_121_perm_0"), val = tensor<int32, [4]>([0, 2, -1, -3])];
            tensor<fp16, [1, 12, 32, 128]> transpose_189 = transpose(perm = transpose_121_perm_0, x = input_tensor_57_cast_fp16)[name = tensor<string, []>("transpose_189")];
            tensor<fp16, [1, 12, 128, 32]> transpose_190 = transpose(perm = transpose_120_perm_0, x = input_tensor_55_cast_fp16)[name = tensor<string, []>("transpose_190")];
            tensor<fp16, [1, 12, 128, 128]> first_21_cast_fp16 = matmul(transpose_x = first_21_transpose_x_0, transpose_y = first_21_transpose_y_0, x = transpose_190, y = transpose_189)[name = tensor<string, []>("first_21_cast_fp16")];
            tensor<fp16, []> _inversed_first_23_y_0_to_fp16 = const()[name = tensor<string, []>("_inversed_first_23_y_0_to_fp16"), val = tensor<fp16, []>(0x1.6ap-3)];
            tensor<fp16, [1, 12, 128, 128]> _inversed_first_23_cast_fp16 = mul(x = first_21_cast_fp16, y = _inversed_first_23_y_0_to_fp16)[name = tensor<string, []>("_inversed_first_23_cast_fp16")];
            tensor<fp16, [1, 12, 128, 128]> input_tensor_59_cast_fp16 = add(x = _inversed_first_23_cast_fp16, y = second_27_cast_fp16)[name = tensor<string, []>("input_tensor_59_cast_fp16")];
            tensor<int32, []> var_1217 = const()[name = tensor<string, []>("op_1217"), val = tensor<int32, []>(-1)];
            tensor<fp16, [1, 12, 128, 128]> result_1_cast_fp16 = softmax(axis = var_1217, x = input_tensor_59_cast_fp16)[name = tensor<string, []>("result_1_cast_fp16")];
            tensor<bool, []> input_tensor_63_transpose_x_0 = const()[name = tensor<string, []>("input_tensor_63_transpose_x_0"), val = tensor<bool, []>(false)];
            tensor<bool, []> input_tensor_63_transpose_y_0 = const()[name = tensor<string, []>("input_tensor_63_transpose_y_0"), val = tensor<bool, []>(false)];
            tensor<fp16, [1, 12, 128, 32]> transpose_191 = transpose(perm = var_1151, x = input_tensor_43_cast_fp16)[name = tensor<string, []>("transpose_191")];
            tensor<fp16, [1, 12, 128, 32]> input_tensor_63_cast_fp16 = matmul(transpose_x = input_tensor_63_transpose_x_0, transpose_y = input_tensor_63_transpose_y_0, x = result_1_cast_fp16, y = transpose_191)[name = tensor<string, []>("input_tensor_63_cast_fp16")];
            tensor<int32, [4]> var_1235 = const()[name = tensor<string, []>("op_1235"), val = tensor<int32, [4]>([0, 2, 1, 3])];
            tensor<int32, [3]> var_1280 = const()[name = tensor<string, []>("op_1280"), val = tensor<int32, [3]>([1, 128, 384])];
            tensor<fp16, [1, 128, 12, 32]> transpose_188 = transpose(perm = var_1235, x = input_tensor_63_cast_fp16)[name = tensor<string, []>("transpose_188")];
            tensor<fp16, [1, 128, 384]> x_9_cast_fp16 = reshape(shape = var_1280, x = transpose_188)[name = tensor<string, []>("x_9_cast_fp16")];
            tensor<fp16, [384, 384]> first_27_weight_0_to_fp16 = const()[name = tensor<string, []>("first_27_weight_0_to_fp16"), val = tensor<fp16, [384, 384]>(BLOBFILE(path = tensor<string, []>("@model_path/weights/weight.bin"), offset = tensor<uint64, []>(24430080)))];
            tensor<fp16, [384]> first_27_bias_0_to_fp16 = const()[name = tensor<string, []>("first_27_bias_0_to_fp16"), val = tensor<fp16, [384]>(BLOBFILE(path = tensor<string, []>("@model_path/weights/weight.bin"), offset = tensor<uint64, []>(24725056)))];
            tensor<fp16, [1, 128, 384]> first_27_cast_fp16 = linear(bias = first_27_bias_0_to_fp16, weight = first_27_weight_0_to_fp16, x = x_9_cast_fp16)[name = tensor<string, []>("first_27_cast_fp16")];
            tensor<fp16, [1, 128, 384]> input_tensor_75_cast_fp16 = add(x = first_27_cast_fp16, y = x_3_cast_fp16)[name = tensor<string, []>("input_tensor_75_cast_fp16")];
            tensor<bool, []> var_1288 = const()[name = tensor<string, []>("op_1288"), val = tensor<bool, []>(true)];
            tensor<int32, [1]> var_1290 = const()[name = tensor<string, []>("op_1290"), val = tensor<int32, [1]>([-1])];
            tensor<fp16, [1, 128, 1]> second_31_cast_fp16 = reduce_mean(axes = var_1290, keep_dims = var_1288, x = input_tensor_75_cast_fp16)[name = tensor<string, []>("second_31_cast_fp16")];
            tensor<fp16, [1, 128, 384]> input_tensor_77_cast_fp16 = sub(x = input_tensor_75_cast_fp16, y = second_31_cast_fp16)[name = tensor<string, []>("input_tensor_77_cast_fp16")];
            tensor<fp16, []> encoder_layer_0_attention_output_LayerNorm_Constant_value_to_fp16 = const()[name = tensor<string, []>("encoder_layer_0_attention_output_LayerNorm_Constant_value_to_fp16"), val = tensor<fp16, []>(0x1p+1)];
            tensor<fp16, [1, 128, 384]> input_tensor_79_cast_fp16 = pow(x = input_tensor_77_cast_fp16, y = encoder_layer_0_attention_output_LayerNorm_Constant_value_to_fp16)[name = tensor<string, []>("input_tensor_79_cast_fp16")];
            tensor<bool, []> var_1296 = const()[name = tensor<string, []>("op_1296"), val = tensor<bool, []>(true)];
            tensor<int32, [1]> var_1298 = const()[name = tensor<string, []>("op_1298"), val = tensor<int32, [1]>([-1])];
            tensor<fp16, [1, 128, 1]> first_29_cast_fp16 = reduce_mean(axes = var_1298, keep_dims = var_1296, x = input_tensor_79_cast_fp16)[name = tensor<string, []>("first_29_cast_fp16")];
            tensor<fp16, []> encoder_layer_0_attention_output_LayerNorm_Constant_1_value_to_fp16 = const()[name = tensor<string, []>("encoder_layer_0_attention_output_LayerNorm_Constant_1_value_to_fp16"), val = tensor<fp16, []>(0x1p-24)];
            tensor<fp16, [1, 128, 1]> input_tensor_81_cast_fp16 = add(x = first_29_cast_fp16, y = encoder_layer_0_attention_output_LayerNorm_Constant_1_value_to_fp16)[name = tensor<string, []>("input_tensor_81_cast_fp16")];
            tensor<fp16, [1, 128, 1]> second_35_cast_fp16 = sqrt(x = input_tensor_81_cast_fp16)[name = tensor<string, []>("second_35_cast_fp16")];
            tensor<fp16, [1, 128, 384]> first_31_cast_fp16 = real_div(x = input_tensor_77_cast_fp16, y = second_35_cast_fp16)[name = tensor<string, []>("first_31_cast_fp16")];
            tensor<fp16, [384]> initializers_onnx_initializer_13_to_fp16 = const()[name = tensor<string, []>("initializers_onnx_initializer_13_to_fp16"), val = tensor<fp16, [384]>(BLOBFILE(path = tensor<string, []>("@model_path/weights/weight.bin"), offset = tensor<uint64, []>(24725888)))];
            tensor<fp16, [1, 128, 384]> first_33_cast_fp16 = mul(x = first_31_cast_fp16, y = initializers_onnx_initializer_13_to_fp16)[name = tensor<string, []>("first_33_cast_fp16")];
            tensor<fp16, [384]> initializers_onnx_initializer_14_to_fp16 = const()[name = tensor<string, []>("initializers_onnx_initializer_14_to_fp16"), val = tensor<fp16, [384]>(BLOBFILE(path = tensor<string, []>("@model_path/weights/weight.bin"), offset = tensor<uint64, []>(24726720)))];
            tensor<fp16, [1, 128, 384]> x_11_cast_fp16 = add(x = first_33_cast_fp16, y = initializers_onnx_initializer_14_to_fp16)[name = tensor<string, []>("x_11_cast_fp16")];
            tensor<fp16, [1536, 384]> first_37_weight_0_to_fp16 = const()[name = tensor<string, []>("first_37_weight_0_to_fp16"), val = tensor<fp16, [1536, 384]>(BLOBFILE(path = tensor<string, []>("@model_path/weights/weight.bin"), offset = tensor<uint64, []>(24727552)))];
            tensor<fp16, [1536]> first_37_bias_0_to_fp16 = const()[name = tensor<string, []>("first_37_bias_0_to_fp16"), val = tensor<fp16, [1536]>(BLOBFILE(path = tensor<string, []>("@model_path/weights/weight.bin"), offset = tensor<uint64, []>(25907264)))];
            tensor<fp16, [1, 128, 1536]> first_37_cast_fp16 = linear(bias = first_37_bias_0_to_fp16, weight = first_37_weight_0_to_fp16, x = x_11_cast_fp16)[name = tensor<string, []>("first_37_cast_fp16")];
            tensor<string, []> x_13_mode_0 = const()[name = tensor<string, []>("x_13_mode_0"), val = tensor<string, []>("EXACT")];
            tensor<fp16, [1, 128, 1536]> x_13_cast_fp16 = gelu(mode = x_13_mode_0, x = first_37_cast_fp16)[name = tensor<string, []>("x_13_cast_fp16")];
            tensor<fp16, [384, 1536]> first_45_weight_0_to_fp16 = const()[name = tensor<string, []>("first_45_weight_0_to_fp16"), val = tensor<fp16, [384, 1536]>(BLOBFILE(path = tensor<string, []>("@model_path/weights/weight.bin"), offset = tensor<uint64, []>(25910400)))];
            tensor<fp16, [384]> first_45_bias_0_to_fp16 = const()[name = tensor<string, []>("first_45_bias_0_to_fp16"), val = tensor<fp16, [384]>(BLOBFILE(path = tensor<string, []>("@model_path/weights/weight.bin"), offset = tensor<uint64, []>(27090112)))];
            tensor<fp16, [1, 128, 384]> first_45_cast_fp16 = linear(bias = first_45_bias_0_to_fp16, weight = first_45_weight_0_to_fp16, x = x_13_cast_fp16)[name = tensor<string, []>("first_45_cast_fp16")];
            tensor<fp16, [1, 128, 384]> input_tensor_85_cast_fp16 = add(x = first_45_cast_fp16, y = x_11_cast_fp16)[name = tensor<string, []>("input_tensor_85_cast_fp16")];
            tensor<bool, []> var_1322 = const()[name = tensor<string, []>("op_1322"), val = tensor<bool, []>(true)];
            tensor<int32, [1]> var_1324 = const()[name = tensor<string, []>("op_1324"), val = tensor<int32, [1]>([-1])];
            tensor<fp16, [1, 128, 1]> second_53_cast_fp16 = reduce_mean(axes = var_1324, keep_dims = var_1322, x = input_tensor_85_cast_fp16)[name = tensor<string, []>("second_53_cast_fp16")];
            tensor<fp16, [1, 128, 384]> input_tensor_87_cast_fp16 = sub(x = input_tensor_85_cast_fp16, y = second_53_cast_fp16)[name = tensor<string, []>("input_tensor_87_cast_fp16")];
            tensor<fp16, []> encoder_layer_0_output_LayerNorm_Constant_value_to_fp16 = const()[name = tensor<string, []>("encoder_layer_0_output_LayerNorm_Constant_value_to_fp16"), val = tensor<fp16, []>(0x1p+1)];
            tensor<fp16, [1, 128, 384]> input_tensor_89_cast_fp16 = pow(x = input_tensor_87_cast_fp16, y = encoder_layer_0_output_LayerNorm_Constant_value_to_fp16)[name = tensor<string, []>("input_tensor_89_cast_fp16")];
            tensor<bool, []> var_1330 = const()[name = tensor<string, []>("op_1330"), val = tensor<bool, []>(true)];
            tensor<int32, [1]> var_1332 = const()[name = tensor<string, []>("op_1332"), val = tensor<int32, [1]>([-1])];
            tensor<fp16, [1, 128, 1]> first_47_cast_fp16 = reduce_mean(axes = var_1332, keep_dims = var_1330, x = input_tensor_89_cast_fp16)[name = tensor<string, []>("first_47_cast_fp16")];
            tensor<fp16, []> encoder_layer_0_output_LayerNorm_Constant_1_value_to_fp16 = const()[name = tensor<string, []>("encoder_layer_0_output_LayerNorm_Constant_1_value_to_fp16"), val = tensor<fp16, []>(0x1p-24)];
            tensor<fp16, [1, 128, 1]> input_tensor_91_cast_fp16 = add(x = first_47_cast_fp16, y = encoder_layer_0_output_LayerNorm_Constant_1_value_to_fp16)[name = tensor<string, []>("input_tensor_91_cast_fp16")];
            tensor<fp16, [1, 128, 1]> second_57_cast_fp16 = sqrt(x = input_tensor_91_cast_fp16)[name = tensor<string, []>("second_57_cast_fp16")];
            tensor<fp16, [1, 128, 384]> first_49_cast_fp16 = real_div(x = input_tensor_87_cast_fp16, y = second_57_cast_fp16)[name = tensor<string, []>("first_49_cast_fp16")];
            tensor<fp16, [384]> initializers_onnx_initializer_19_to_fp16 = const()[name = tensor<string, []>("initializers_onnx_initializer_19_to_fp16"), val = tensor<fp16, [384]>(BLOBFILE(path = tensor<string, []>("@model_path/weights/weight.bin"), offset = tensor<uint64, []>(27090944)))];
            tensor<fp16, [1, 128, 384]> first_51_cast_fp16 = mul(x = first_49_cast_fp16, y = initializers_onnx_initializer_19_to_fp16)[name = tensor<string, []>("first_51_cast_fp16")];
            tensor<fp16, [384]> initializers_onnx_initializer_20_to_fp16 = const()[name = tensor<string, []>("initializers_onnx_initializer_20_to_fp16"), val = tensor<fp16, [384]>(BLOBFILE(path = tensor<string, []>("@model_path/weights/weight.bin"), offset = tensor<uint64, []>(27091776)))];
            tensor<fp16, [1, 128, 384]> x_15_cast_fp16 = add(x = first_51_cast_fp16, y = initializers_onnx_initializer_20_to_fp16)[name = tensor<string, []>("x_15_cast_fp16")];
            tensor<fp16, [384, 384]> input_tensor_115_weight_0_to_fp16 = const()[name = tensor<string, []>("input_tensor_115_weight_0_to_fp16"), val = tensor<fp16, [384, 384]>(BLOBFILE(path = tensor<string, []>("@model_path/weights/weight.bin"), offset = tensor<uint64, []>(27092608)))];
            tensor<fp16, [384]> input_tensor_115_bias_0_to_fp16 = const()[name = tensor<string, []>("input_tensor_115_bias_0_to_fp16"), val = tensor<fp16, [384]>(BLOBFILE(path = tensor<string, []>("@model_path/weights/weight.bin"), offset = tensor<uint64, []>(27387584)))];
            tensor<fp16, [1, 128, 384]> input_tensor_115_cast_fp16 = linear(bias = input_tensor_115_bias_0_to_fp16, weight = input_tensor_115_weight_0_to_fp16, x = x_15_cast_fp16)[name = tensor<string, []>("input_tensor_115_cast_fp16")];
            tensor<fp16, [384, 384]> input_tensor_93_weight_0_to_fp16 = const()[name = tensor<string, []>("input_tensor_93_weight_0_to_fp16"), val = tensor<fp16, [384, 384]>(BLOBFILE(path = tensor<string, []>("@model_path/weights/weight.bin"), offset = tensor<uint64, []>(27388416)))];
            tensor<fp16, [384]> input_tensor_93_bias_0_to_fp16 = const()[name = tensor<string, []>("input_tensor_93_bias_0_to_fp16"), val = tensor<fp16, [384]>(BLOBFILE(path = tensor<string, []>("@model_path/weights/weight.bin"), offset = tensor<uint64, []>(27683392)))];
            tensor<fp16, [1, 128, 384]> input_tensor_93_cast_fp16 = linear(bias = input_tensor_93_bias_0_to_fp16, weight = input_tensor_93_weight_0_to_fp16, x = x_15_cast_fp16)[name = tensor<string, []>("input_tensor_93_cast_fp16")];
            tensor<int32, [4]> var_1392 = const()[name = tensor<string, []>("op_1392"), val = tensor<int32, [4]>([1, 128, 12, 32])];
            tensor<fp16, [1, 128, 12, 32]> input_tensor_127_cast_fp16 = reshape(shape = var_1392, x = input_tensor_93_cast_fp16)[name = tensor<string, []>("input_tensor_127_cast_fp16")];
            tensor<fp16, [384, 384]> input_tensor_103_weight_0_to_fp16 = const()[name = tensor<string, []>("input_tensor_103_weight_0_to_fp16"), val = tensor<fp16, [384, 384]>(BLOBFILE(path = tensor<string, []>("@model_path/weights/weight.bin"), offset = tensor<uint64, []>(27684224)))];
            tensor<fp16, [384]> input_tensor_103_bias_0_to_fp16 = const()[name = tensor<string, []>("input_tensor_103_bias_0_to_fp16"), val = tensor<fp16, [384]>(BLOBFILE(path = tensor<string, []>("@model_path/weights/weight.bin"), offset = tensor<uint64, []>(27979200)))];
            tensor<fp16, [1, 128, 384]> input_tensor_103_cast_fp16 = linear(bias = input_tensor_103_bias_0_to_fp16, weight = input_tensor_103_weight_0_to_fp16, x = x_15_cast_fp16)[name = tensor<string, []>("input_tensor_103_cast_fp16")];
            tensor<int32, [4]> var_1442 = const()[name = tensor<string, []>("op_1442"), val = tensor<int32, [4]>([1, 128, 12, 32])];
            tensor<fp16, [1, 128, 12, 32]> input_tensor_113_cast_fp16 = reshape(shape = var_1442, x = input_tensor_103_cast_fp16)[name = tensor<string, []>("input_tensor_113_cast_fp16")];
            tensor<int32, [4]> var_1448 = const()[name = tensor<string, []>("op_1448"), val = tensor<int32, [4]>([0, 2, 1, 3])];
            tensor<int32, [4]> var_1495 = const()[name = tensor<string, []>("op_1495"), val = tensor<int32, [4]>([1, 128, 12, 32])];
            tensor<fp16, [1, 128, 12, 32]> input_tensor_125_cast_fp16 = reshape(shape = var_1495, x = input_tensor_115_cast_fp16)[name = tensor<string, []>("input_tensor_125_cast_fp16")];
            tensor<bool, []> first_59_transpose_x_0 = const()[name = tensor<string, []>("first_59_transpose_x_0"), val = tensor<bool, []>(false)];
            tensor<bool, []> first_59_transpose_y_0 = const()[name = tensor<string, []>("first_59_transpose_y_0"), val = tensor<bool, []>(false)];
            tensor<int32, [4]> transpose_122_perm_0 = const()[name = tensor<string, []>("transpose_122_perm_0"), val = tensor<int32, [4]>([0, 2, -3, -1])];
            tensor<int32, [4]> transpose_123_perm_0 = const()[name = tensor<string, []>("transpose_123_perm_0"), val = tensor<int32, [4]>([0, 2, -1, -3])];
            tensor<fp16, [1, 12, 32, 128]> transpose_185 = transpose(perm = transpose_123_perm_0, x = input_tensor_127_cast_fp16)[name = tensor<string, []>("transpose_185")];
            tensor<fp16, [1, 12, 128, 32]> transpose_186 = transpose(perm = transpose_122_perm_0, x = input_tensor_125_cast_fp16)[name = tensor<string, []>("transpose_186")];
            tensor<fp16, [1, 12, 128, 128]> first_59_cast_fp16 = matmul(transpose_x = first_59_transpose_x_0, transpose_y = first_59_transpose_y_0, x = transpose_186, y = transpose_185)[name = tensor<string, []>("first_59_cast_fp16")];
            tensor<fp16, []> _inversed_first_61_y_0_to_fp16 = const()[name = tensor<string, []>("_inversed_first_61_y_0_to_fp16"), val = tensor<fp16, []>(0x1.6ap-3)];
            tensor<fp16, [1, 12, 128, 128]> _inversed_first_61_cast_fp16 = mul(x = first_59_cast_fp16, y = _inversed_first_61_y_0_to_fp16)[name = tensor<string, []>("_inversed_first_61_cast_fp16")];
            tensor<fp16, [1, 12, 128, 128]> input_tensor_129_cast_fp16 = add(x = _inversed_first_61_cast_fp16, y = second_27_cast_fp16)[name = tensor<string, []>("input_tensor_129_cast_fp16")];
            tensor<int32, []> var_1514 = const()[name = tensor<string, []>("op_1514"), val = tensor<int32, []>(-1)];
            tensor<fp16, [1, 12, 128, 128]> result_3_cast_fp16 = softmax(axis = var_1514, x = input_tensor_129_cast_fp16)[name = tensor<string, []>("result_3_cast_fp16")];
            tensor<bool, []> input_tensor_133_transpose_x_0 = const()[name = tensor<string, []>("input_tensor_133_transpose_x_0"), val = tensor<bool, []>(false)];
            tensor<bool, []> input_tensor_133_transpose_y_0 = const()[name = tensor<string, []>("input_tensor_133_transpose_y_0"), val = tensor<bool, []>(false)];
            tensor<fp16, [1, 12, 128, 32]> transpose_187 = transpose(perm = var_1448, x = input_tensor_113_cast_fp16)[name = tensor<string, []>("transpose_187")];
            tensor<fp16, [1, 12, 128, 32]> input_tensor_133_cast_fp16 = matmul(transpose_x = input_tensor_133_transpose_x_0, transpose_y = input_tensor_133_transpose_y_0, x = result_3_cast_fp16, y = transpose_187)[name = tensor<string, []>("input_tensor_133_cast_fp16")];
            tensor<int32, [4]> var_1532 = const()[name = tensor<string, []>("op_1532"), val = tensor<int32, [4]>([0, 2, 1, 3])];
            tensor<int32, [3]> var_1577 = const()[name = tensor<string, []>("op_1577"), val = tensor<int32, [3]>([1, 128, 384])];
            tensor<fp16, [1, 128, 12, 32]> transpose_184 = transpose(perm = var_1532, x = input_tensor_133_cast_fp16)[name = tensor<string, []>("transpose_184")];
            tensor<fp16, [1, 128, 384]> x_21_cast_fp16 = reshape(shape = var_1577, x = transpose_184)[name = tensor<string, []>("x_21_cast_fp16")];
            tensor<fp16, [384, 384]> first_65_weight_0_to_fp16 = const()[name = tensor<string, []>("first_65_weight_0_to_fp16"), val = tensor<fp16, [384, 384]>(BLOBFILE(path = tensor<string, []>("@model_path/weights/weight.bin"), offset = tensor<uint64, []>(27980032)))];
            tensor<fp16, [384]> first_65_bias_0_to_fp16 = const()[name = tensor<string, []>("first_65_bias_0_to_fp16"), val = tensor<fp16, [384]>(BLOBFILE(path = tensor<string, []>("@model_path/weights/weight.bin"), offset = tensor<uint64, []>(28275008)))];
            tensor<fp16, [1, 128, 384]> first_65_cast_fp16 = linear(bias = first_65_bias_0_to_fp16, weight = first_65_weight_0_to_fp16, x = x_21_cast_fp16)[name = tensor<string, []>("first_65_cast_fp16")];
            tensor<fp16, [1, 128, 384]> input_tensor_145_cast_fp16 = add(x = first_65_cast_fp16, y = x_15_cast_fp16)[name = tensor<string, []>("input_tensor_145_cast_fp16")];
            tensor<bool, []> var_1585 = const()[name = tensor<string, []>("op_1585"), val = tensor<bool, []>(true)];
            tensor<int32, [1]> var_1587 = const()[name = tensor<string, []>("op_1587"), val = tensor<int32, [1]>([-1])];
            tensor<fp16, [1, 128, 1]> second_73_cast_fp16 = reduce_mean(axes = var_1587, keep_dims = var_1585, x = input_tensor_145_cast_fp16)[name = tensor<string, []>("second_73_cast_fp16")];
            tensor<fp16, [1, 128, 384]> input_tensor_147_cast_fp16 = sub(x = input_tensor_145_cast_fp16, y = second_73_cast_fp16)[name = tensor<string, []>("input_tensor_147_cast_fp16")];
            tensor<fp16, []> encoder_layer_1_attention_output_LayerNorm_Constant_value_to_fp16 = const()[name = tensor<string, []>("encoder_layer_1_attention_output_LayerNorm_Constant_value_to_fp16"), val = tensor<fp16, []>(0x1p+1)];
            tensor<fp16, [1, 128, 384]> input_tensor_149_cast_fp16 = pow(x = input_tensor_147_cast_fp16, y = encoder_layer_1_attention_output_LayerNorm_Constant_value_to_fp16)[name = tensor<string, []>("input_tensor_149_cast_fp16")];
            tensor<bool, []> var_1593 = const()[name = tensor<string, []>("op_1593"), val = tensor<bool, []>(true)];
            tensor<int32, [1]> var_1595 = const()[name = tensor<string, []>("op_1595"), val = tensor<int32, [1]>([-1])];
            tensor<fp16, [1, 128, 1]> first_67_cast_fp16 = reduce_mean(axes = var_1595, keep_dims = var_1593, x = input_tensor_149_cast_fp16)[name = tensor<string, []>("first_67_cast_fp16")];
            tensor<fp16, []> encoder_layer_1_attention_output_LayerNorm_Constant_1_value_to_fp16 = const()[name = tensor<string, []>("encoder_layer_1_attention_output_LayerNorm_Constant_1_value_to_fp16"), val = tensor<fp16, []>(0x1p-24)];
            tensor<fp16, [1, 128, 1]> input_tensor_151_cast_fp16 = add(x = first_67_cast_fp16, y = encoder_layer_1_attention_output_LayerNorm_Constant_1_value_to_fp16)[name = tensor<string, []>("input_tensor_151_cast_fp16")];
            tensor<fp16, [1, 128, 1]> second_77_cast_fp16 = sqrt(x = input_tensor_151_cast_fp16)[name = tensor<string, []>("second_77_cast_fp16")];
            tensor<fp16, [1, 128, 384]> first_69_cast_fp16 = real_div(x = input_tensor_147_cast_fp16, y = second_77_cast_fp16)[name = tensor<string, []>("first_69_cast_fp16")];
            tensor<fp16, [384]> initializers_onnx_initializer_29_to_fp16 = const()[name = tensor<string, []>("initializers_onnx_initializer_29_to_fp16"), val = tensor<fp16, [384]>(BLOBFILE(path = tensor<string, []>("@model_path/weights/weight.bin"), offset = tensor<uint64, []>(28275840)))];
            tensor<fp16, [1, 128, 384]> first_71_cast_fp16 = mul(x = first_69_cast_fp16, y = initializers_onnx_initializer_29_to_fp16)[name = tensor<string, []>("first_71_cast_fp16")];
            tensor<fp16, [384]> initializers_onnx_initializer_30_to_fp16 = const()[name = tensor<string, []>("initializers_onnx_initializer_30_to_fp16"), val = tensor<fp16, [384]>(BLOBFILE(path = tensor<string, []>("@model_path/weights/weight.bin"), offset = tensor<uint64, []>(28276672)))];
            tensor<fp16, [1, 128, 384]> x_23_cast_fp16 = add(x = first_71_cast_fp16, y = initializers_onnx_initializer_30_to_fp16)[name = tensor<string, []>("x_23_cast_fp16")];
            tensor<fp16, [1536, 384]> first_75_weight_0_to_fp16 = const()[name = tensor<string, []>("first_75_weight_0_to_fp16"), val = tensor<fp16, [1536, 384]>(BLOBFILE(path = tensor<string, []>("@model_path/weights/weight.bin"), offset = tensor<uint64, []>(28277504)))];
            tensor<fp16, [1536]> first_75_bias_0_to_fp16 = const()[name = tensor<string, []>("first_75_bias_0_to_fp16"), val = tensor<fp16, [1536]>(BLOBFILE(path = tensor<string, []>("@model_path/weights/weight.bin"), offset = tensor<uint64, []>(29457216)))];
            tensor<fp16, [1, 128, 1536]> first_75_cast_fp16 = linear(bias = first_75_bias_0_to_fp16, weight = first_75_weight_0_to_fp16, x = x_23_cast_fp16)[name = tensor<string, []>("first_75_cast_fp16")];
            tensor<string, []> x_25_mode_0 = const()[name = tensor<string, []>("x_25_mode_0"), val = tensor<string, []>("EXACT")];
            tensor<fp16, [1, 128, 1536]> x_25_cast_fp16 = gelu(mode = x_25_mode_0, x = first_75_cast_fp16)[name = tensor<string, []>("x_25_cast_fp16")];
            tensor<fp16, [384, 1536]> first_83_weight_0_to_fp16 = const()[name = tensor<string, []>("first_83_weight_0_to_fp16"), val = tensor<fp16, [384, 1536]>(BLOBFILE(path = tensor<string, []>("@model_path/weights/weight.bin"), offset = tensor<uint64, []>(29460352)))];
            tensor<fp16, [384]> first_83_bias_0_to_fp16 = const()[name = tensor<string, []>("first_83_bias_0_to_fp16"), val = tensor<fp16, [384]>(BLOBFILE(path = tensor<string, []>("@model_path/weights/weight.bin"), offset = tensor<uint64, []>(30640064)))];
            tensor<fp16, [1, 128, 384]> first_83_cast_fp16 = linear(bias = first_83_bias_0_to_fp16, weight = first_83_weight_0_to_fp16, x = x_25_cast_fp16)[name = tensor<string, []>("first_83_cast_fp16")];
            tensor<fp16, [1, 128, 384]> input_tensor_155_cast_fp16 = add(x = first_83_cast_fp16, y = x_23_cast_fp16)[name = tensor<string, []>("input_tensor_155_cast_fp16")];
            tensor<bool, []> var_1619 = const()[name = tensor<string, []>("op_1619"), val = tensor<bool, []>(true)];
            tensor<int32, [1]> var_1621 = const()[name = tensor<string, []>("op_1621"), val = tensor<int32, [1]>([-1])];
            tensor<fp16, [1, 128, 1]> second_95_cast_fp16 = reduce_mean(axes = var_1621, keep_dims = var_1619, x = input_tensor_155_cast_fp16)[name = tensor<string, []>("second_95_cast_fp16")];
            tensor<fp16, [1, 128, 384]> input_tensor_157_cast_fp16 = sub(x = input_tensor_155_cast_fp16, y = second_95_cast_fp16)[name = tensor<string, []>("input_tensor_157_cast_fp16")];
            tensor<fp16, []> encoder_layer_1_output_LayerNorm_Constant_value_to_fp16 = const()[name = tensor<string, []>("encoder_layer_1_output_LayerNorm_Constant_value_to_fp16"), val = tensor<fp16, []>(0x1p+1)];
            tensor<fp16, [1, 128, 384]> input_tensor_159_cast_fp16 = pow(x = input_tensor_157_cast_fp16, y = encoder_layer_1_output_LayerNorm_Constant_value_to_fp16)[name = tensor<string, []>("input_tensor_159_cast_fp16")];
            tensor<bool, []> var_1627 = const()[name = tensor<string, []>("op_1627"), val = tensor<bool, []>(true)];
            tensor<int32, [1]> var_1629 = const()[name = tensor<string, []>("op_1629"), val = tensor<int32, [1]>([-1])];
            tensor<fp16, [1, 128, 1]> first_85_cast_fp16 = reduce_mean(axes = var_1629, keep_dims = var_1627, x = input_tensor_159_cast_fp16)[name = tensor<string, []>("first_85_cast_fp16")];
            tensor<fp16, []> encoder_layer_1_output_LayerNorm_Constant_1_value_to_fp16 = const()[name = tensor<string, []>("encoder_layer_1_output_LayerNorm_Constant_1_value_to_fp16"), val = tensor<fp16, []>(0x1p-24)];
            tensor<fp16, [1, 128, 1]> input_tensor_161_cast_fp16 = add(x = first_85_cast_fp16, y = encoder_layer_1_output_LayerNorm_Constant_1_value_to_fp16)[name = tensor<string, []>("input_tensor_161_cast_fp16")];
            tensor<fp16, [1, 128, 1]> second_99_cast_fp16 = sqrt(x = input_tensor_161_cast_fp16)[name = tensor<string, []>("second_99_cast_fp16")];
            tensor<fp16, [1, 128, 384]> first_87_cast_fp16 = real_div(x = input_tensor_157_cast_fp16, y = second_99_cast_fp16)[name = tensor<string, []>("first_87_cast_fp16")];
            tensor<fp16, [384]> initializers_onnx_initializer_35_to_fp16 = const()[name = tensor<string, []>("initializers_onnx_initializer_35_to_fp16"), val = tensor<fp16, [384]>(BLOBFILE(path = tensor<string, []>("@model_path/weights/weight.bin"), offset = tensor<uint64, []>(30640896)))];
            tensor<fp16, [1, 128, 384]> first_89_cast_fp16 = mul(x = first_87_cast_fp16, y = initializers_onnx_initializer_35_to_fp16)[name = tensor<string, []>("first_89_cast_fp16")];
            tensor<fp16, [384]> initializers_onnx_initializer_36_to_fp16 = const()[name = tensor<string, []>("initializers_onnx_initializer_36_to_fp16"), val = tensor<fp16, [384]>(BLOBFILE(path = tensor<string, []>("@model_path/weights/weight.bin"), offset = tensor<uint64, []>(30641728)))];
            tensor<fp16, [1, 128, 384]> x_27_cast_fp16 = add(x = first_89_cast_fp16, y = initializers_onnx_initializer_36_to_fp16)[name = tensor<string, []>("x_27_cast_fp16")];
            tensor<fp16, [384, 384]> input_tensor_185_weight_0_to_fp16 = const()[name = tensor<string, []>("input_tensor_185_weight_0_to_fp16"), val = tensor<fp16, [384, 384]>(BLOBFILE(path = tensor<string, []>("@model_path/weights/weight.bin"), offset = tensor<uint64, []>(30642560)))];
            tensor<fp16, [384]> input_tensor_185_bias_0_to_fp16 = const()[name = tensor<string, []>("input_tensor_185_bias_0_to_fp16"), val = tensor<fp16, [384]>(BLOBFILE(path = tensor<string, []>("@model_path/weights/weight.bin"), offset = tensor<uint64, []>(30937536)))];
            tensor<fp16, [1, 128, 384]> input_tensor_185_cast_fp16 = linear(bias = input_tensor_185_bias_0_to_fp16, weight = input_tensor_185_weight_0_to_fp16, x = x_27_cast_fp16)[name = tensor<string, []>("input_tensor_185_cast_fp16")];
            tensor<fp16, [384, 384]> input_tensor_163_weight_0_to_fp16 = const()[name = tensor<string, []>("input_tensor_163_weight_0_to_fp16"), val = tensor<fp16, [384, 384]>(BLOBFILE(path = tensor<string, []>("@model_path/weights/weight.bin"), offset = tensor<uint64, []>(30938368)))];
            tensor<fp16, [384]> input_tensor_163_bias_0_to_fp16 = const()[name = tensor<string, []>("input_tensor_163_bias_0_to_fp16"), val = tensor<fp16, [384]>(BLOBFILE(path = tensor<string, []>("@model_path/weights/weight.bin"), offset = tensor<uint64, []>(31233344)))];
            tensor<fp16, [1, 128, 384]> input_tensor_163_cast_fp16 = linear(bias = input_tensor_163_bias_0_to_fp16, weight = input_tensor_163_weight_0_to_fp16, x = x_27_cast_fp16)[name = tensor<string, []>("input_tensor_163_cast_fp16")];
            tensor<int32, [4]> var_1689 = const()[name = tensor<string, []>("op_1689"), val = tensor<int32, [4]>([1, 128, 12, 32])];
            tensor<fp16, [1, 128, 12, 32]> input_tensor_197_cast_fp16 = reshape(shape = var_1689, x = input_tensor_163_cast_fp16)[name = tensor<string, []>("input_tensor_197_cast_fp16")];
            tensor<fp16, [384, 384]> input_tensor_173_weight_0_to_fp16 = const()[name = tensor<string, []>("input_tensor_173_weight_0_to_fp16"), val = tensor<fp16, [384, 384]>(BLOBFILE(path = tensor<string, []>("@model_path/weights/weight.bin"), offset = tensor<uint64, []>(31234176)))];
            tensor<fp16, [384]> input_tensor_173_bias_0_to_fp16 = const()[name = tensor<string, []>("input_tensor_173_bias_0_to_fp16"), val = tensor<fp16, [384]>(BLOBFILE(path = tensor<string, []>("@model_path/weights/weight.bin"), offset = tensor<uint64, []>(31529152)))];
            tensor<fp16, [1, 128, 384]> input_tensor_173_cast_fp16 = linear(bias = input_tensor_173_bias_0_to_fp16, weight = input_tensor_173_weight_0_to_fp16, x = x_27_cast_fp16)[name = tensor<string, []>("input_tensor_173_cast_fp16")];
            tensor<int32, [4]> var_1739 = const()[name = tensor<string, []>("op_1739"), val = tensor<int32, [4]>([1, 128, 12, 32])];
            tensor<fp16, [1, 128, 12, 32]> input_tensor_183_cast_fp16 = reshape(shape = var_1739, x = input_tensor_173_cast_fp16)[name = tensor<string, []>("input_tensor_183_cast_fp16")];
            tensor<int32, [4]> var_1745 = const()[name = tensor<string, []>("op_1745"), val = tensor<int32, [4]>([0, 2, 1, 3])];
            tensor<int32, [4]> var_1792 = const()[name = tensor<string, []>("op_1792"), val = tensor<int32, [4]>([1, 128, 12, 32])];
            tensor<fp16, [1, 128, 12, 32]> input_tensor_195_cast_fp16 = reshape(shape = var_1792, x = input_tensor_185_cast_fp16)[name = tensor<string, []>("input_tensor_195_cast_fp16")];
            tensor<bool, []> first_97_transpose_x_0 = const()[name = tensor<string, []>("first_97_transpose_x_0"), val = tensor<bool, []>(false)];
            tensor<bool, []> first_97_transpose_y_0 = const()[name = tensor<string, []>("first_97_transpose_y_0"), val = tensor<bool, []>(false)];
            tensor<int32, [4]> transpose_124_perm_0 = const()[name = tensor<string, []>("transpose_124_perm_0"), val = tensor<int32, [4]>([0, 2, -3, -1])];
            tensor<int32, [4]> transpose_125_perm_0 = const()[name = tensor<string, []>("transpose_125_perm_0"), val = tensor<int32, [4]>([0, 2, -1, -3])];
            tensor<fp16, [1, 12, 32, 128]> transpose_181 = transpose(perm = transpose_125_perm_0, x = input_tensor_197_cast_fp16)[name = tensor<string, []>("transpose_181")];
            tensor<fp16, [1, 12, 128, 32]> transpose_182 = transpose(perm = transpose_124_perm_0, x = input_tensor_195_cast_fp16)[name = tensor<string, []>("transpose_182")];
            tensor<fp16, [1, 12, 128, 128]> first_97_cast_fp16 = matmul(transpose_x = first_97_transpose_x_0, transpose_y = first_97_transpose_y_0, x = transpose_182, y = transpose_181)[name = tensor<string, []>("first_97_cast_fp16")];
            tensor<fp16, []> _inversed_first_99_y_0_to_fp16 = const()[name = tensor<string, []>("_inversed_first_99_y_0_to_fp16"), val = tensor<fp16, []>(0x1.6ap-3)];
            tensor<fp16, [1, 12, 128, 128]> _inversed_first_99_cast_fp16 = mul(x = first_97_cast_fp16, y = _inversed_first_99_y_0_to_fp16)[name = tensor<string, []>("_inversed_first_99_cast_fp16")];
            tensor<fp16, [1, 12, 128, 128]> input_tensor_199_cast_fp16 = add(x = _inversed_first_99_cast_fp16, y = second_27_cast_fp16)[name = tensor<string, []>("input_tensor_199_cast_fp16")];
            tensor<int32, []> var_1811 = const()[name = tensor<string, []>("op_1811"), val = tensor<int32, []>(-1)];
            tensor<fp16, [1, 12, 128, 128]> result_5_cast_fp16 = softmax(axis = var_1811, x = input_tensor_199_cast_fp16)[name = tensor<string, []>("result_5_cast_fp16")];
            tensor<bool, []> input_tensor_203_transpose_x_0 = const()[name = tensor<string, []>("input_tensor_203_transpose_x_0"), val = tensor<bool, []>(false)];
            tensor<bool, []> input_tensor_203_transpose_y_0 = const()[name = tensor<string, []>("input_tensor_203_transpose_y_0"), val = tensor<bool, []>(false)];
            tensor<fp16, [1, 12, 128, 32]> transpose_183 = transpose(perm = var_1745, x = input_tensor_183_cast_fp16)[name = tensor<string, []>("transpose_183")];
            tensor<fp16, [1, 12, 128, 32]> input_tensor_203_cast_fp16 = matmul(transpose_x = input_tensor_203_transpose_x_0, transpose_y = input_tensor_203_transpose_y_0, x = result_5_cast_fp16, y = transpose_183)[name = tensor<string, []>("input_tensor_203_cast_fp16")];
            tensor<int32, [4]> var_1829 = const()[name = tensor<string, []>("op_1829"), val = tensor<int32, [4]>([0, 2, 1, 3])];
            tensor<int32, [3]> var_1874 = const()[name = tensor<string, []>("op_1874"), val = tensor<int32, [3]>([1, 128, 384])];
            tensor<fp16, [1, 128, 12, 32]> transpose_180 = transpose(perm = var_1829, x = input_tensor_203_cast_fp16)[name = tensor<string, []>("transpose_180")];
            tensor<fp16, [1, 128, 384]> x_33_cast_fp16 = reshape(shape = var_1874, x = transpose_180)[name = tensor<string, []>("x_33_cast_fp16")];
            tensor<fp16, [384, 384]> first_103_weight_0_to_fp16 = const()[name = tensor<string, []>("first_103_weight_0_to_fp16"), val = tensor<fp16, [384, 384]>(BLOBFILE(path = tensor<string, []>("@model_path/weights/weight.bin"), offset = tensor<uint64, []>(31529984)))];
            tensor<fp16, [384]> first_103_bias_0_to_fp16 = const()[name = tensor<string, []>("first_103_bias_0_to_fp16"), val = tensor<fp16, [384]>(BLOBFILE(path = tensor<string, []>("@model_path/weights/weight.bin"), offset = tensor<uint64, []>(31824960)))];
            tensor<fp16, [1, 128, 384]> first_103_cast_fp16 = linear(bias = first_103_bias_0_to_fp16, weight = first_103_weight_0_to_fp16, x = x_33_cast_fp16)[name = tensor<string, []>("first_103_cast_fp16")];
            tensor<fp16, [1, 128, 384]> input_tensor_215_cast_fp16 = add(x = first_103_cast_fp16, y = x_27_cast_fp16)[name = tensor<string, []>("input_tensor_215_cast_fp16")];
            tensor<bool, []> var_1882 = const()[name = tensor<string, []>("op_1882"), val = tensor<bool, []>(true)];
            tensor<int32, [1]> var_1884 = const()[name = tensor<string, []>("op_1884"), val = tensor<int32, [1]>([-1])];
            tensor<fp16, [1, 128, 1]> second_115_cast_fp16 = reduce_mean(axes = var_1884, keep_dims = var_1882, x = input_tensor_215_cast_fp16)[name = tensor<string, []>("second_115_cast_fp16")];
            tensor<fp16, [1, 128, 384]> input_tensor_217_cast_fp16 = sub(x = input_tensor_215_cast_fp16, y = second_115_cast_fp16)[name = tensor<string, []>("input_tensor_217_cast_fp16")];
            tensor<fp16, []> encoder_layer_2_attention_output_LayerNorm_Constant_value_to_fp16 = const()[name = tensor<string, []>("encoder_layer_2_attention_output_LayerNorm_Constant_value_to_fp16"), val = tensor<fp16, []>(0x1p+1)];
            tensor<fp16, [1, 128, 384]> input_tensor_219_cast_fp16 = pow(x = input_tensor_217_cast_fp16, y = encoder_layer_2_attention_output_LayerNorm_Constant_value_to_fp16)[name = tensor<string, []>("input_tensor_219_cast_fp16")];
            tensor<bool, []> var_1890 = const()[name = tensor<string, []>("op_1890"), val = tensor<bool, []>(true)];
            tensor<int32, [1]> var_1892 = const()[name = tensor<string, []>("op_1892"), val = tensor<int32, [1]>([-1])];
            tensor<fp16, [1, 128, 1]> first_105_cast_fp16 = reduce_mean(axes = var_1892, keep_dims = var_1890, x = input_tensor_219_cast_fp16)[name = tensor<string, []>("first_105_cast_fp16")];
            tensor<fp16, []> encoder_layer_2_attention_output_LayerNorm_Constant_1_value_to_fp16 = const()[name = tensor<string, []>("encoder_layer_2_attention_output_LayerNorm_Constant_1_value_to_fp16"), val = tensor<fp16, []>(0x1p-24)];
            tensor<fp16, [1, 128, 1]> input_tensor_221_cast_fp16 = add(x = first_105_cast_fp16, y = encoder_layer_2_attention_output_LayerNorm_Constant_1_value_to_fp16)[name = tensor<string, []>("input_tensor_221_cast_fp16")];
            tensor<fp16, [1, 128, 1]> second_119_cast_fp16 = sqrt(x = input_tensor_221_cast_fp16)[name = tensor<string, []>("second_119_cast_fp16")];
            tensor<fp16, [1, 128, 384]> first_107_cast_fp16 = real_div(x = input_tensor_217_cast_fp16, y = second_119_cast_fp16)[name = tensor<string, []>("first_107_cast_fp16")];
            tensor<fp16, [384]> initializers_onnx_initializer_45_to_fp16 = const()[name = tensor<string, []>("initializers_onnx_initializer_45_to_fp16"), val = tensor<fp16, [384]>(BLOBFILE(path = tensor<string, []>("@model_path/weights/weight.bin"), offset = tensor<uint64, []>(31825792)))];
            tensor<fp16, [1, 128, 384]> first_109_cast_fp16 = mul(x = first_107_cast_fp16, y = initializers_onnx_initializer_45_to_fp16)[name = tensor<string, []>("first_109_cast_fp16")];
            tensor<fp16, [384]> initializers_onnx_initializer_46_to_fp16 = const()[name = tensor<string, []>("initializers_onnx_initializer_46_to_fp16"), val = tensor<fp16, [384]>(BLOBFILE(path = tensor<string, []>("@model_path/weights/weight.bin"), offset = tensor<uint64, []>(31826624)))];
            tensor<fp16, [1, 128, 384]> x_35_cast_fp16 = add(x = first_109_cast_fp16, y = initializers_onnx_initializer_46_to_fp16)[name = tensor<string, []>("x_35_cast_fp16")];
            tensor<fp16, [1536, 384]> first_113_weight_0_to_fp16 = const()[name = tensor<string, []>("first_113_weight_0_to_fp16"), val = tensor<fp16, [1536, 384]>(BLOBFILE(path = tensor<string, []>("@model_path/weights/weight.bin"), offset = tensor<uint64, []>(31827456)))];
            tensor<fp16, [1536]> first_113_bias_0_to_fp16 = const()[name = tensor<string, []>("first_113_bias_0_to_fp16"), val = tensor<fp16, [1536]>(BLOBFILE(path = tensor<string, []>("@model_path/weights/weight.bin"), offset = tensor<uint64, []>(33007168)))];
            tensor<fp16, [1, 128, 1536]> first_113_cast_fp16 = linear(bias = first_113_bias_0_to_fp16, weight = first_113_weight_0_to_fp16, x = x_35_cast_fp16)[name = tensor<string, []>("first_113_cast_fp16")];
            tensor<string, []> x_37_mode_0 = const()[name = tensor<string, []>("x_37_mode_0"), val = tensor<string, []>("EXACT")];
            tensor<fp16, [1, 128, 1536]> x_37_cast_fp16 = gelu(mode = x_37_mode_0, x = first_113_cast_fp16)[name = tensor<string, []>("x_37_cast_fp16")];
            tensor<fp16, [384, 1536]> first_121_weight_0_to_fp16 = const()[name = tensor<string, []>("first_121_weight_0_to_fp16"), val = tensor<fp16, [384, 1536]>(BLOBFILE(path = tensor<string, []>("@model_path/weights/weight.bin"), offset = tensor<uint64, []>(33010304)))];
            tensor<fp16, [384]> first_121_bias_0_to_fp16 = const()[name = tensor<string, []>("first_121_bias_0_to_fp16"), val = tensor<fp16, [384]>(BLOBFILE(path = tensor<string, []>("@model_path/weights/weight.bin"), offset = tensor<uint64, []>(34190016)))];
            tensor<fp16, [1, 128, 384]> first_121_cast_fp16 = linear(bias = first_121_bias_0_to_fp16, weight = first_121_weight_0_to_fp16, x = x_37_cast_fp16)[name = tensor<string, []>("first_121_cast_fp16")];
            tensor<fp16, [1, 128, 384]> input_tensor_225_cast_fp16 = add(x = first_121_cast_fp16, y = x_35_cast_fp16)[name = tensor<string, []>("input_tensor_225_cast_fp16")];
            tensor<bool, []> var_1916 = const()[name = tensor<string, []>("op_1916"), val = tensor<bool, []>(true)];
            tensor<int32, [1]> var_1918 = const()[name = tensor<string, []>("op_1918"), val = tensor<int32, [1]>([-1])];
            tensor<fp16, [1, 128, 1]> second_137_cast_fp16 = reduce_mean(axes = var_1918, keep_dims = var_1916, x = input_tensor_225_cast_fp16)[name = tensor<string, []>("second_137_cast_fp16")];
            tensor<fp16, [1, 128, 384]> input_tensor_227_cast_fp16 = sub(x = input_tensor_225_cast_fp16, y = second_137_cast_fp16)[name = tensor<string, []>("input_tensor_227_cast_fp16")];
            tensor<fp16, []> encoder_layer_2_output_LayerNorm_Constant_value_to_fp16 = const()[name = tensor<string, []>("encoder_layer_2_output_LayerNorm_Constant_value_to_fp16"), val = tensor<fp16, []>(0x1p+1)];
            tensor<fp16, [1, 128, 384]> input_tensor_229_cast_fp16 = pow(x = input_tensor_227_cast_fp16, y = encoder_layer_2_output_LayerNorm_Constant_value_to_fp16)[name = tensor<string, []>("input_tensor_229_cast_fp16")];
            tensor<bool, []> var_1924 = const()[name = tensor<string, []>("op_1924"), val = tensor<bool, []>(true)];
            tensor<int32, [1]> var_1926 = const()[name = tensor<string, []>("op_1926"), val = tensor<int32, [1]>([-1])];
            tensor<fp16, [1, 128, 1]> first_123_cast_fp16 = reduce_mean(axes = var_1926, keep_dims = var_1924, x = input_tensor_229_cast_fp16)[name = tensor<string, []>("first_123_cast_fp16")];
            tensor<fp16, []> encoder_layer_2_output_LayerNorm_Constant_1_value_to_fp16 = const()[name = tensor<string, []>("encoder_layer_2_output_LayerNorm_Constant_1_value_to_fp16"), val = tensor<fp16, []>(0x1p-24)];
            tensor<fp16, [1, 128, 1]> input_tensor_231_cast_fp16 = add(x = first_123_cast_fp16, y = encoder_layer_2_output_LayerNorm_Constant_1_value_to_fp16)[name = tensor<string, []>("input_tensor_231_cast_fp16")];
            tensor<fp16, [1, 128, 1]> second_141_cast_fp16 = sqrt(x = input_tensor_231_cast_fp16)[name = tensor<string, []>("second_141_cast_fp16")];
            tensor<fp16, [1, 128, 384]> first_125_cast_fp16 = real_div(x = input_tensor_227_cast_fp16, y = second_141_cast_fp16)[name = tensor<string, []>("first_125_cast_fp16")];
            tensor<fp16, [384]> initializers_onnx_initializer_51_to_fp16 = const()[name = tensor<string, []>("initializers_onnx_initializer_51_to_fp16"), val = tensor<fp16, [384]>(BLOBFILE(path = tensor<string, []>("@model_path/weights/weight.bin"), offset = tensor<uint64, []>(34190848)))];
            tensor<fp16, [1, 128, 384]> first_127_cast_fp16 = mul(x = first_125_cast_fp16, y = initializers_onnx_initializer_51_to_fp16)[name = tensor<string, []>("first_127_cast_fp16")];
            tensor<fp16, [384]> initializers_onnx_initializer_52_to_fp16 = const()[name = tensor<string, []>("initializers_onnx_initializer_52_to_fp16"), val = tensor<fp16, [384]>(BLOBFILE(path = tensor<string, []>("@model_path/weights/weight.bin"), offset = tensor<uint64, []>(34191680)))];
            tensor<fp16, [1, 128, 384]> x_39_cast_fp16 = add(x = first_127_cast_fp16, y = initializers_onnx_initializer_52_to_fp16)[name = tensor<string, []>("x_39_cast_fp16")];
            tensor<fp16, [384, 384]> input_tensor_255_weight_0_to_fp16 = const()[name = tensor<string, []>("input_tensor_255_weight_0_to_fp16"), val = tensor<fp16, [384, 384]>(BLOBFILE(path = tensor<string, []>("@model_path/weights/weight.bin"), offset = tensor<uint64, []>(34192512)))];
            tensor<fp16, [384]> input_tensor_255_bias_0_to_fp16 = const()[name = tensor<string, []>("input_tensor_255_bias_0_to_fp16"), val = tensor<fp16, [384]>(BLOBFILE(path = tensor<string, []>("@model_path/weights/weight.bin"), offset = tensor<uint64, []>(34487488)))];
            tensor<fp16, [1, 128, 384]> input_tensor_255_cast_fp16 = linear(bias = input_tensor_255_bias_0_to_fp16, weight = input_tensor_255_weight_0_to_fp16, x = x_39_cast_fp16)[name = tensor<string, []>("input_tensor_255_cast_fp16")];
            tensor<fp16, [384, 384]> input_tensor_233_weight_0_to_fp16 = const()[name = tensor<string, []>("input_tensor_233_weight_0_to_fp16"), val = tensor<fp16, [384, 384]>(BLOBFILE(path = tensor<string, []>("@model_path/weights/weight.bin"), offset = tensor<uint64, []>(34488320)))];
            tensor<fp16, [384]> input_tensor_233_bias_0_to_fp16 = const()[name = tensor<string, []>("input_tensor_233_bias_0_to_fp16"), val = tensor<fp16, [384]>(BLOBFILE(path = tensor<string, []>("@model_path/weights/weight.bin"), offset = tensor<uint64, []>(34783296)))];
            tensor<fp16, [1, 128, 384]> input_tensor_233_cast_fp16 = linear(bias = input_tensor_233_bias_0_to_fp16, weight = input_tensor_233_weight_0_to_fp16, x = x_39_cast_fp16)[name = tensor<string, []>("input_tensor_233_cast_fp16")];
            tensor<int32, [4]> var_1986 = const()[name = tensor<string, []>("op_1986"), val = tensor<int32, [4]>([1, 128, 12, 32])];
            tensor<fp16, [1, 128, 12, 32]> input_tensor_267_cast_fp16 = reshape(shape = var_1986, x = input_tensor_233_cast_fp16)[name = tensor<string, []>("input_tensor_267_cast_fp16")];
            tensor<fp16, [384, 384]> input_tensor_243_weight_0_to_fp16 = const()[name = tensor<string, []>("input_tensor_243_weight_0_to_fp16"), val = tensor<fp16, [384, 384]>(BLOBFILE(path = tensor<string, []>("@model_path/weights/weight.bin"), offset = tensor<uint64, []>(34784128)))];
            tensor<fp16, [384]> input_tensor_243_bias_0_to_fp16 = const()[name = tensor<string, []>("input_tensor_243_bias_0_to_fp16"), val = tensor<fp16, [384]>(BLOBFILE(path = tensor<string, []>("@model_path/weights/weight.bin"), offset = tensor<uint64, []>(35079104)))];
            tensor<fp16, [1, 128, 384]> input_tensor_243_cast_fp16 = linear(bias = input_tensor_243_bias_0_to_fp16, weight = input_tensor_243_weight_0_to_fp16, x = x_39_cast_fp16)[name = tensor<string, []>("input_tensor_243_cast_fp16")];
            tensor<int32, [4]> var_2036 = const()[name = tensor<string, []>("op_2036"), val = tensor<int32, [4]>([1, 128, 12, 32])];
            tensor<fp16, [1, 128, 12, 32]> input_tensor_253_cast_fp16 = reshape(shape = var_2036, x = input_tensor_243_cast_fp16)[name = tensor<string, []>("input_tensor_253_cast_fp16")];
            tensor<int32, [4]> var_2042 = const()[name = tensor<string, []>("op_2042"), val = tensor<int32, [4]>([0, 2, 1, 3])];
            tensor<int32, [4]> var_2089 = const()[name = tensor<string, []>("op_2089"), val = tensor<int32, [4]>([1, 128, 12, 32])];
            tensor<fp16, [1, 128, 12, 32]> input_tensor_265_cast_fp16 = reshape(shape = var_2089, x = input_tensor_255_cast_fp16)[name = tensor<string, []>("input_tensor_265_cast_fp16")];
            tensor<bool, []> first_135_transpose_x_0 = const()[name = tensor<string, []>("first_135_transpose_x_0"), val = tensor<bool, []>(false)];
            tensor<bool, []> first_135_transpose_y_0 = const()[name = tensor<string, []>("first_135_transpose_y_0"), val = tensor<bool, []>(false)];
            tensor<int32, [4]> transpose_126_perm_0 = const()[name = tensor<string, []>("transpose_126_perm_0"), val = tensor<int32, [4]>([0, 2, -3, -1])];
            tensor<int32, [4]> transpose_127_perm_0 = const()[name = tensor<string, []>("transpose_127_perm_0"), val = tensor<int32, [4]>([0, 2, -1, -3])];
            tensor<fp16, [1, 12, 32, 128]> transpose_177 = transpose(perm = transpose_127_perm_0, x = input_tensor_267_cast_fp16)[name = tensor<string, []>("transpose_177")];
            tensor<fp16, [1, 12, 128, 32]> transpose_178 = transpose(perm = transpose_126_perm_0, x = input_tensor_265_cast_fp16)[name = tensor<string, []>("transpose_178")];
            tensor<fp16, [1, 12, 128, 128]> first_135_cast_fp16 = matmul(transpose_x = first_135_transpose_x_0, transpose_y = first_135_transpose_y_0, x = transpose_178, y = transpose_177)[name = tensor<string, []>("first_135_cast_fp16")];
            tensor<fp16, []> _inversed_first_137_y_0_to_fp16 = const()[name = tensor<string, []>("_inversed_first_137_y_0_to_fp16"), val = tensor<fp16, []>(0x1.6ap-3)];
            tensor<fp16, [1, 12, 128, 128]> _inversed_first_137_cast_fp16 = mul(x = first_135_cast_fp16, y = _inversed_first_137_y_0_to_fp16)[name = tensor<string, []>("_inversed_first_137_cast_fp16")];
            tensor<fp16, [1, 12, 128, 128]> input_tensor_269_cast_fp16 = add(x = _inversed_first_137_cast_fp16, y = second_27_cast_fp16)[name = tensor<string, []>("input_tensor_269_cast_fp16")];
            tensor<int32, []> var_2108 = const()[name = tensor<string, []>("op_2108"), val = tensor<int32, []>(-1)];
            tensor<fp16, [1, 12, 128, 128]> result_7_cast_fp16 = softmax(axis = var_2108, x = input_tensor_269_cast_fp16)[name = tensor<string, []>("result_7_cast_fp16")];
            tensor<bool, []> input_tensor_273_transpose_x_0 = const()[name = tensor<string, []>("input_tensor_273_transpose_x_0"), val = tensor<bool, []>(false)];
            tensor<bool, []> input_tensor_273_transpose_y_0 = const()[name = tensor<string, []>("input_tensor_273_transpose_y_0"), val = tensor<bool, []>(false)];
            tensor<fp16, [1, 12, 128, 32]> transpose_179 = transpose(perm = var_2042, x = input_tensor_253_cast_fp16)[name = tensor<string, []>("transpose_179")];
            tensor<fp16, [1, 12, 128, 32]> input_tensor_273_cast_fp16 = matmul(transpose_x = input_tensor_273_transpose_x_0, transpose_y = input_tensor_273_transpose_y_0, x = result_7_cast_fp16, y = transpose_179)[name = tensor<string, []>("input_tensor_273_cast_fp16")];
            tensor<int32, [4]> var_2126 = const()[name = tensor<string, []>("op_2126"), val = tensor<int32, [4]>([0, 2, 1, 3])];
            tensor<int32, [3]> var_2171 = const()[name = tensor<string, []>("op_2171"), val = tensor<int32, [3]>([1, 128, 384])];
            tensor<fp16, [1, 128, 12, 32]> transpose_176 = transpose(perm = var_2126, x = input_tensor_273_cast_fp16)[name = tensor<string, []>("transpose_176")];
            tensor<fp16, [1, 128, 384]> x_45_cast_fp16 = reshape(shape = var_2171, x = transpose_176)[name = tensor<string, []>("x_45_cast_fp16")];
            tensor<fp16, [384, 384]> first_141_weight_0_to_fp16 = const()[name = tensor<string, []>("first_141_weight_0_to_fp16"), val = tensor<fp16, [384, 384]>(BLOBFILE(path = tensor<string, []>("@model_path/weights/weight.bin"), offset = tensor<uint64, []>(35079936)))];
            tensor<fp16, [384]> first_141_bias_0_to_fp16 = const()[name = tensor<string, []>("first_141_bias_0_to_fp16"), val = tensor<fp16, [384]>(BLOBFILE(path = tensor<string, []>("@model_path/weights/weight.bin"), offset = tensor<uint64, []>(35374912)))];
            tensor<fp16, [1, 128, 384]> first_141_cast_fp16 = linear(bias = first_141_bias_0_to_fp16, weight = first_141_weight_0_to_fp16, x = x_45_cast_fp16)[name = tensor<string, []>("first_141_cast_fp16")];
            tensor<fp16, [1, 128, 384]> input_tensor_285_cast_fp16 = add(x = first_141_cast_fp16, y = x_39_cast_fp16)[name = tensor<string, []>("input_tensor_285_cast_fp16")];
            tensor<bool, []> var_2179 = const()[name = tensor<string, []>("op_2179"), val = tensor<bool, []>(true)];
            tensor<int32, [1]> var_2181 = const()[name = tensor<string, []>("op_2181"), val = tensor<int32, [1]>([-1])];
            tensor<fp16, [1, 128, 1]> second_157_cast_fp16 = reduce_mean(axes = var_2181, keep_dims = var_2179, x = input_tensor_285_cast_fp16)[name = tensor<string, []>("second_157_cast_fp16")];
            tensor<fp16, [1, 128, 384]> input_tensor_287_cast_fp16 = sub(x = input_tensor_285_cast_fp16, y = second_157_cast_fp16)[name = tensor<string, []>("input_tensor_287_cast_fp16")];
            tensor<fp16, []> encoder_layer_3_attention_output_LayerNorm_Constant_value_to_fp16 = const()[name = tensor<string, []>("encoder_layer_3_attention_output_LayerNorm_Constant_value_to_fp16"), val = tensor<fp16, []>(0x1p+1)];
            tensor<fp16, [1, 128, 384]> input_tensor_289_cast_fp16 = pow(x = input_tensor_287_cast_fp16, y = encoder_layer_3_attention_output_LayerNorm_Constant_value_to_fp16)[name = tensor<string, []>("input_tensor_289_cast_fp16")];
            tensor<bool, []> var_2187 = const()[name = tensor<string, []>("op_2187"), val = tensor<bool, []>(true)];
            tensor<int32, [1]> var_2189 = const()[name = tensor<string, []>("op_2189"), val = tensor<int32, [1]>([-1])];
            tensor<fp16, [1, 128, 1]> first_143_cast_fp16 = reduce_mean(axes = var_2189, keep_dims = var_2187, x = input_tensor_289_cast_fp16)[name = tensor<string, []>("first_143_cast_fp16")];
            tensor<fp16, []> encoder_layer_3_attention_output_LayerNorm_Constant_1_value_to_fp16 = const()[name = tensor<string, []>("encoder_layer_3_attention_output_LayerNorm_Constant_1_value_to_fp16"), val = tensor<fp16, []>(0x1p-24)];
            tensor<fp16, [1, 128, 1]> input_tensor_291_cast_fp16 = add(x = first_143_cast_fp16, y = encoder_layer_3_attention_output_LayerNorm_Constant_1_value_to_fp16)[name = tensor<string, []>("input_tensor_291_cast_fp16")];
            tensor<fp16, [1, 128, 1]> second_161_cast_fp16 = sqrt(x = input_tensor_291_cast_fp16)[name = tensor<string, []>("second_161_cast_fp16")];
            tensor<fp16, [1, 128, 384]> first_145_cast_fp16 = real_div(x = input_tensor_287_cast_fp16, y = second_161_cast_fp16)[name = tensor<string, []>("first_145_cast_fp16")];
            tensor<fp16, [384]> initializers_onnx_initializer_61_to_fp16 = const()[name = tensor<string, []>("initializers_onnx_initializer_61_to_fp16"), val = tensor<fp16, [384]>(BLOBFILE(path = tensor<string, []>("@model_path/weights/weight.bin"), offset = tensor<uint64, []>(35375744)))];
            tensor<fp16, [1, 128, 384]> first_147_cast_fp16 = mul(x = first_145_cast_fp16, y = initializers_onnx_initializer_61_to_fp16)[name = tensor<string, []>("first_147_cast_fp16")];
            tensor<fp16, [384]> initializers_onnx_initializer_62_to_fp16 = const()[name = tensor<string, []>("initializers_onnx_initializer_62_to_fp16"), val = tensor<fp16, [384]>(BLOBFILE(path = tensor<string, []>("@model_path/weights/weight.bin"), offset = tensor<uint64, []>(35376576)))];
            tensor<fp16, [1, 128, 384]> x_47_cast_fp16 = add(x = first_147_cast_fp16, y = initializers_onnx_initializer_62_to_fp16)[name = tensor<string, []>("x_47_cast_fp16")];
            tensor<fp16, [1536, 384]> first_151_weight_0_to_fp16 = const()[name = tensor<string, []>("first_151_weight_0_to_fp16"), val = tensor<fp16, [1536, 384]>(BLOBFILE(path = tensor<string, []>("@model_path/weights/weight.bin"), offset = tensor<uint64, []>(35377408)))];
            tensor<fp16, [1536]> first_151_bias_0_to_fp16 = const()[name = tensor<string, []>("first_151_bias_0_to_fp16"), val = tensor<fp16, [1536]>(BLOBFILE(path = tensor<string, []>("@model_path/weights/weight.bin"), offset = tensor<uint64, []>(36557120)))];
            tensor<fp16, [1, 128, 1536]> first_151_cast_fp16 = linear(bias = first_151_bias_0_to_fp16, weight = first_151_weight_0_to_fp16, x = x_47_cast_fp16)[name = tensor<string, []>("first_151_cast_fp16")];
            tensor<string, []> x_49_mode_0 = const()[name = tensor<string, []>("x_49_mode_0"), val = tensor<string, []>("EXACT")];
            tensor<fp16, [1, 128, 1536]> x_49_cast_fp16 = gelu(mode = x_49_mode_0, x = first_151_cast_fp16)[name = tensor<string, []>("x_49_cast_fp16")];
            tensor<fp16, [384, 1536]> first_159_weight_0_to_fp16 = const()[name = tensor<string, []>("first_159_weight_0_to_fp16"), val = tensor<fp16, [384, 1536]>(BLOBFILE(path = tensor<string, []>("@model_path/weights/weight.bin"), offset = tensor<uint64, []>(36560256)))];
            tensor<fp16, [384]> first_159_bias_0_to_fp16 = const()[name = tensor<string, []>("first_159_bias_0_to_fp16"), val = tensor<fp16, [384]>(BLOBFILE(path = tensor<string, []>("@model_path/weights/weight.bin"), offset = tensor<uint64, []>(37739968)))];
            tensor<fp16, [1, 128, 384]> first_159_cast_fp16 = linear(bias = first_159_bias_0_to_fp16, weight = first_159_weight_0_to_fp16, x = x_49_cast_fp16)[name = tensor<string, []>("first_159_cast_fp16")];
            tensor<fp16, [1, 128, 384]> input_tensor_295_cast_fp16 = add(x = first_159_cast_fp16, y = x_47_cast_fp16)[name = tensor<string, []>("input_tensor_295_cast_fp16")];
            tensor<bool, []> var_2213 = const()[name = tensor<string, []>("op_2213"), val = tensor<bool, []>(true)];
            tensor<int32, [1]> var_2215 = const()[name = tensor<string, []>("op_2215"), val = tensor<int32, [1]>([-1])];
            tensor<fp16, [1, 128, 1]> second_179_cast_fp16 = reduce_mean(axes = var_2215, keep_dims = var_2213, x = input_tensor_295_cast_fp16)[name = tensor<string, []>("second_179_cast_fp16")];
            tensor<fp16, [1, 128, 384]> input_tensor_297_cast_fp16 = sub(x = input_tensor_295_cast_fp16, y = second_179_cast_fp16)[name = tensor<string, []>("input_tensor_297_cast_fp16")];
            tensor<fp16, []> encoder_layer_3_output_LayerNorm_Constant_value_to_fp16 = const()[name = tensor<string, []>("encoder_layer_3_output_LayerNorm_Constant_value_to_fp16"), val = tensor<fp16, []>(0x1p+1)];
            tensor<fp16, [1, 128, 384]> input_tensor_299_cast_fp16 = pow(x = input_tensor_297_cast_fp16, y = encoder_layer_3_output_LayerNorm_Constant_value_to_fp16)[name = tensor<string, []>("input_tensor_299_cast_fp16")];
            tensor<bool, []> var_2221 = const()[name = tensor<string, []>("op_2221"), val = tensor<bool, []>(true)];
            tensor<int32, [1]> var_2223 = const()[name = tensor<string, []>("op_2223"), val = tensor<int32, [1]>([-1])];
            tensor<fp16, [1, 128, 1]> first_161_cast_fp16 = reduce_mean(axes = var_2223, keep_dims = var_2221, x = input_tensor_299_cast_fp16)[name = tensor<string, []>("first_161_cast_fp16")];
            tensor<fp16, []> encoder_layer_3_output_LayerNorm_Constant_1_value_to_fp16 = const()[name = tensor<string, []>("encoder_layer_3_output_LayerNorm_Constant_1_value_to_fp16"), val = tensor<fp16, []>(0x1p-24)];
            tensor<fp16, [1, 128, 1]> input_tensor_301_cast_fp16 = add(x = first_161_cast_fp16, y = encoder_layer_3_output_LayerNorm_Constant_1_value_to_fp16)[name = tensor<string, []>("input_tensor_301_cast_fp16")];
            tensor<fp16, [1, 128, 1]> second_183_cast_fp16 = sqrt(x = input_tensor_301_cast_fp16)[name = tensor<string, []>("second_183_cast_fp16")];
            tensor<fp16, [1, 128, 384]> first_163_cast_fp16 = real_div(x = input_tensor_297_cast_fp16, y = second_183_cast_fp16)[name = tensor<string, []>("first_163_cast_fp16")];
            tensor<fp16, [384]> initializers_onnx_initializer_67_to_fp16 = const()[name = tensor<string, []>("initializers_onnx_initializer_67_to_fp16"), val = tensor<fp16, [384]>(BLOBFILE(path = tensor<string, []>("@model_path/weights/weight.bin"), offset = tensor<uint64, []>(37740800)))];
            tensor<fp16, [1, 128, 384]> first_165_cast_fp16 = mul(x = first_163_cast_fp16, y = initializers_onnx_initializer_67_to_fp16)[name = tensor<string, []>("first_165_cast_fp16")];
            tensor<fp16, [384]> initializers_onnx_initializer_68_to_fp16 = const()[name = tensor<string, []>("initializers_onnx_initializer_68_to_fp16"), val = tensor<fp16, [384]>(BLOBFILE(path = tensor<string, []>("@model_path/weights/weight.bin"), offset = tensor<uint64, []>(37741632)))];
            tensor<fp16, [1, 128, 384]> x_51_cast_fp16 = add(x = first_165_cast_fp16, y = initializers_onnx_initializer_68_to_fp16)[name = tensor<string, []>("x_51_cast_fp16")];
            tensor<fp16, [384, 384]> input_tensor_325_weight_0_to_fp16 = const()[name = tensor<string, []>("input_tensor_325_weight_0_to_fp16"), val = tensor<fp16, [384, 384]>(BLOBFILE(path = tensor<string, []>("@model_path/weights/weight.bin"), offset = tensor<uint64, []>(37742464)))];
            tensor<fp16, [384]> input_tensor_325_bias_0_to_fp16 = const()[name = tensor<string, []>("input_tensor_325_bias_0_to_fp16"), val = tensor<fp16, [384]>(BLOBFILE(path = tensor<string, []>("@model_path/weights/weight.bin"), offset = tensor<uint64, []>(38037440)))];
            tensor<fp16, [1, 128, 384]> input_tensor_325_cast_fp16 = linear(bias = input_tensor_325_bias_0_to_fp16, weight = input_tensor_325_weight_0_to_fp16, x = x_51_cast_fp16)[name = tensor<string, []>("input_tensor_325_cast_fp16")];
            tensor<fp16, [384, 384]> input_tensor_303_weight_0_to_fp16 = const()[name = tensor<string, []>("input_tensor_303_weight_0_to_fp16"), val = tensor<fp16, [384, 384]>(BLOBFILE(path = tensor<string, []>("@model_path/weights/weight.bin"), offset = tensor<uint64, []>(38038272)))];
            tensor<fp16, [384]> input_tensor_303_bias_0_to_fp16 = const()[name = tensor<string, []>("input_tensor_303_bias_0_to_fp16"), val = tensor<fp16, [384]>(BLOBFILE(path = tensor<string, []>("@model_path/weights/weight.bin"), offset = tensor<uint64, []>(38333248)))];
            tensor<fp16, [1, 128, 384]> input_tensor_303_cast_fp16 = linear(bias = input_tensor_303_bias_0_to_fp16, weight = input_tensor_303_weight_0_to_fp16, x = x_51_cast_fp16)[name = tensor<string, []>("input_tensor_303_cast_fp16")];
            tensor<int32, [4]> var_2283 = const()[name = tensor<string, []>("op_2283"), val = tensor<int32, [4]>([1, 128, 12, 32])];
            tensor<fp16, [1, 128, 12, 32]> input_tensor_337_cast_fp16 = reshape(shape = var_2283, x = input_tensor_303_cast_fp16)[name = tensor<string, []>("input_tensor_337_cast_fp16")];
            tensor<fp16, [384, 384]> input_tensor_313_weight_0_to_fp16 = const()[name = tensor<string, []>("input_tensor_313_weight_0_to_fp16"), val = tensor<fp16, [384, 384]>(BLOBFILE(path = tensor<string, []>("@model_path/weights/weight.bin"), offset = tensor<uint64, []>(38334080)))];
            tensor<fp16, [384]> input_tensor_313_bias_0_to_fp16 = const()[name = tensor<string, []>("input_tensor_313_bias_0_to_fp16"), val = tensor<fp16, [384]>(BLOBFILE(path = tensor<string, []>("@model_path/weights/weight.bin"), offset = tensor<uint64, []>(38629056)))];
            tensor<fp16, [1, 128, 384]> input_tensor_313_cast_fp16 = linear(bias = input_tensor_313_bias_0_to_fp16, weight = input_tensor_313_weight_0_to_fp16, x = x_51_cast_fp16)[name = tensor<string, []>("input_tensor_313_cast_fp16")];
            tensor<int32, [4]> var_2333 = const()[name = tensor<string, []>("op_2333"), val = tensor<int32, [4]>([1, 128, 12, 32])];
            tensor<fp16, [1, 128, 12, 32]> input_tensor_323_cast_fp16 = reshape(shape = var_2333, x = input_tensor_313_cast_fp16)[name = tensor<string, []>("input_tensor_323_cast_fp16")];
            tensor<int32, [4]> var_2339 = const()[name = tensor<string, []>("op_2339"), val = tensor<int32, [4]>([0, 2, 1, 3])];
            tensor<int32, [4]> var_2386 = const()[name = tensor<string, []>("op_2386"), val = tensor<int32, [4]>([1, 128, 12, 32])];
            tensor<fp16, [1, 128, 12, 32]> input_tensor_335_cast_fp16 = reshape(shape = var_2386, x = input_tensor_325_cast_fp16)[name = tensor<string, []>("input_tensor_335_cast_fp16")];
            tensor<bool, []> first_173_transpose_x_0 = const()[name = tensor<string, []>("first_173_transpose_x_0"), val = tensor<bool, []>(false)];
            tensor<bool, []> first_173_transpose_y_0 = const()[name = tensor<string, []>("first_173_transpose_y_0"), val = tensor<bool, []>(false)];
            tensor<int32, [4]> transpose_128_perm_0 = const()[name = tensor<string, []>("transpose_128_perm_0"), val = tensor<int32, [4]>([0, 2, -3, -1])];
            tensor<int32, [4]> transpose_129_perm_0 = const()[name = tensor<string, []>("transpose_129_perm_0"), val = tensor<int32, [4]>([0, 2, -1, -3])];
            tensor<fp16, [1, 12, 32, 128]> transpose_173 = transpose(perm = transpose_129_perm_0, x = input_tensor_337_cast_fp16)[name = tensor<string, []>("transpose_173")];
            tensor<fp16, [1, 12, 128, 32]> transpose_174 = transpose(perm = transpose_128_perm_0, x = input_tensor_335_cast_fp16)[name = tensor<string, []>("transpose_174")];
            tensor<fp16, [1, 12, 128, 128]> first_173_cast_fp16 = matmul(transpose_x = first_173_transpose_x_0, transpose_y = first_173_transpose_y_0, x = transpose_174, y = transpose_173)[name = tensor<string, []>("first_173_cast_fp16")];
            tensor<fp16, []> _inversed_first_175_y_0_to_fp16 = const()[name = tensor<string, []>("_inversed_first_175_y_0_to_fp16"), val = tensor<fp16, []>(0x1.6ap-3)];
            tensor<fp16, [1, 12, 128, 128]> _inversed_first_175_cast_fp16 = mul(x = first_173_cast_fp16, y = _inversed_first_175_y_0_to_fp16)[name = tensor<string, []>("_inversed_first_175_cast_fp16")];
            tensor<fp16, [1, 12, 128, 128]> input_tensor_339_cast_fp16 = add(x = _inversed_first_175_cast_fp16, y = second_27_cast_fp16)[name = tensor<string, []>("input_tensor_339_cast_fp16")];
            tensor<int32, []> var_2405 = const()[name = tensor<string, []>("op_2405"), val = tensor<int32, []>(-1)];
            tensor<fp16, [1, 12, 128, 128]> result_9_cast_fp16 = softmax(axis = var_2405, x = input_tensor_339_cast_fp16)[name = tensor<string, []>("result_9_cast_fp16")];
            tensor<bool, []> input_tensor_343_transpose_x_0 = const()[name = tensor<string, []>("input_tensor_343_transpose_x_0"), val = tensor<bool, []>(false)];
            tensor<bool, []> input_tensor_343_transpose_y_0 = const()[name = tensor<string, []>("input_tensor_343_transpose_y_0"), val = tensor<bool, []>(false)];
            tensor<fp16, [1, 12, 128, 32]> transpose_175 = transpose(perm = var_2339, x = input_tensor_323_cast_fp16)[name = tensor<string, []>("transpose_175")];
            tensor<fp16, [1, 12, 128, 32]> input_tensor_343_cast_fp16 = matmul(transpose_x = input_tensor_343_transpose_x_0, transpose_y = input_tensor_343_transpose_y_0, x = result_9_cast_fp16, y = transpose_175)[name = tensor<string, []>("input_tensor_343_cast_fp16")];
            tensor<int32, [4]> var_2423 = const()[name = tensor<string, []>("op_2423"), val = tensor<int32, [4]>([0, 2, 1, 3])];
            tensor<int32, [3]> var_2468 = const()[name = tensor<string, []>("op_2468"), val = tensor<int32, [3]>([1, 128, 384])];
            tensor<fp16, [1, 128, 12, 32]> transpose_172 = transpose(perm = var_2423, x = input_tensor_343_cast_fp16)[name = tensor<string, []>("transpose_172")];
            tensor<fp16, [1, 128, 384]> x_57_cast_fp16 = reshape(shape = var_2468, x = transpose_172)[name = tensor<string, []>("x_57_cast_fp16")];
            tensor<fp16, [384, 384]> first_179_weight_0_to_fp16 = const()[name = tensor<string, []>("first_179_weight_0_to_fp16"), val = tensor<fp16, [384, 384]>(BLOBFILE(path = tensor<string, []>("@model_path/weights/weight.bin"), offset = tensor<uint64, []>(38629888)))];
            tensor<fp16, [384]> first_179_bias_0_to_fp16 = const()[name = tensor<string, []>("first_179_bias_0_to_fp16"), val = tensor<fp16, [384]>(BLOBFILE(path = tensor<string, []>("@model_path/weights/weight.bin"), offset = tensor<uint64, []>(38924864)))];
            tensor<fp16, [1, 128, 384]> first_179_cast_fp16 = linear(bias = first_179_bias_0_to_fp16, weight = first_179_weight_0_to_fp16, x = x_57_cast_fp16)[name = tensor<string, []>("first_179_cast_fp16")];
            tensor<fp16, [1, 128, 384]> input_tensor_355_cast_fp16 = add(x = first_179_cast_fp16, y = x_51_cast_fp16)[name = tensor<string, []>("input_tensor_355_cast_fp16")];
            tensor<bool, []> var_2476 = const()[name = tensor<string, []>("op_2476"), val = tensor<bool, []>(true)];
            tensor<int32, [1]> var_2478 = const()[name = tensor<string, []>("op_2478"), val = tensor<int32, [1]>([-1])];
            tensor<fp16, [1, 128, 1]> second_199_cast_fp16 = reduce_mean(axes = var_2478, keep_dims = var_2476, x = input_tensor_355_cast_fp16)[name = tensor<string, []>("second_199_cast_fp16")];
            tensor<fp16, [1, 128, 384]> input_tensor_357_cast_fp16 = sub(x = input_tensor_355_cast_fp16, y = second_199_cast_fp16)[name = tensor<string, []>("input_tensor_357_cast_fp16")];
            tensor<fp16, []> encoder_layer_4_attention_output_LayerNorm_Constant_value_to_fp16 = const()[name = tensor<string, []>("encoder_layer_4_attention_output_LayerNorm_Constant_value_to_fp16"), val = tensor<fp16, []>(0x1p+1)];
            tensor<fp16, [1, 128, 384]> input_tensor_359_cast_fp16 = pow(x = input_tensor_357_cast_fp16, y = encoder_layer_4_attention_output_LayerNorm_Constant_value_to_fp16)[name = tensor<string, []>("input_tensor_359_cast_fp16")];
            tensor<bool, []> var_2484 = const()[name = tensor<string, []>("op_2484"), val = tensor<bool, []>(true)];
            tensor<int32, [1]> var_2486 = const()[name = tensor<string, []>("op_2486"), val = tensor<int32, [1]>([-1])];
            tensor<fp16, [1, 128, 1]> first_181_cast_fp16 = reduce_mean(axes = var_2486, keep_dims = var_2484, x = input_tensor_359_cast_fp16)[name = tensor<string, []>("first_181_cast_fp16")];
            tensor<fp16, []> encoder_layer_4_attention_output_LayerNorm_Constant_1_value_to_fp16 = const()[name = tensor<string, []>("encoder_layer_4_attention_output_LayerNorm_Constant_1_value_to_fp16"), val = tensor<fp16, []>(0x1p-24)];
            tensor<fp16, [1, 128, 1]> input_tensor_361_cast_fp16 = add(x = first_181_cast_fp16, y = encoder_layer_4_attention_output_LayerNorm_Constant_1_value_to_fp16)[name = tensor<string, []>("input_tensor_361_cast_fp16")];
            tensor<fp16, [1, 128, 1]> second_203_cast_fp16 = sqrt(x = input_tensor_361_cast_fp16)[name = tensor<string, []>("second_203_cast_fp16")];
            tensor<fp16, [1, 128, 384]> first_183_cast_fp16 = real_div(x = input_tensor_357_cast_fp16, y = second_203_cast_fp16)[name = tensor<string, []>("first_183_cast_fp16")];
            tensor<fp16, [384]> initializers_onnx_initializer_77_to_fp16 = const()[name = tensor<string, []>("initializers_onnx_initializer_77_to_fp16"), val = tensor<fp16, [384]>(BLOBFILE(path = tensor<string, []>("@model_path/weights/weight.bin"), offset = tensor<uint64, []>(38925696)))];
            tensor<fp16, [1, 128, 384]> first_185_cast_fp16 = mul(x = first_183_cast_fp16, y = initializers_onnx_initializer_77_to_fp16)[name = tensor<string, []>("first_185_cast_fp16")];
            tensor<fp16, [384]> initializers_onnx_initializer_78_to_fp16 = const()[name = tensor<string, []>("initializers_onnx_initializer_78_to_fp16"), val = tensor<fp16, [384]>(BLOBFILE(path = tensor<string, []>("@model_path/weights/weight.bin"), offset = tensor<uint64, []>(38926528)))];
            tensor<fp16, [1, 128, 384]> x_59_cast_fp16 = add(x = first_185_cast_fp16, y = initializers_onnx_initializer_78_to_fp16)[name = tensor<string, []>("x_59_cast_fp16")];
            tensor<fp16, [1536, 384]> first_189_weight_0_to_fp16 = const()[name = tensor<string, []>("first_189_weight_0_to_fp16"), val = tensor<fp16, [1536, 384]>(BLOBFILE(path = tensor<string, []>("@model_path/weights/weight.bin"), offset = tensor<uint64, []>(38927360)))];
            tensor<fp16, [1536]> first_189_bias_0_to_fp16 = const()[name = tensor<string, []>("first_189_bias_0_to_fp16"), val = tensor<fp16, [1536]>(BLOBFILE(path = tensor<string, []>("@model_path/weights/weight.bin"), offset = tensor<uint64, []>(40107072)))];
            tensor<fp16, [1, 128, 1536]> first_189_cast_fp16 = linear(bias = first_189_bias_0_to_fp16, weight = first_189_weight_0_to_fp16, x = x_59_cast_fp16)[name = tensor<string, []>("first_189_cast_fp16")];
            tensor<string, []> x_61_mode_0 = const()[name = tensor<string, []>("x_61_mode_0"), val = tensor<string, []>("EXACT")];
            tensor<fp16, [1, 128, 1536]> x_61_cast_fp16 = gelu(mode = x_61_mode_0, x = first_189_cast_fp16)[name = tensor<string, []>("x_61_cast_fp16")];
            tensor<fp16, [384, 1536]> first_197_weight_0_to_fp16 = const()[name = tensor<string, []>("first_197_weight_0_to_fp16"), val = tensor<fp16, [384, 1536]>(BLOBFILE(path = tensor<string, []>("@model_path/weights/weight.bin"), offset = tensor<uint64, []>(40110208)))];
            tensor<fp16, [384]> first_197_bias_0_to_fp16 = const()[name = tensor<string, []>("first_197_bias_0_to_fp16"), val = tensor<fp16, [384]>(BLOBFILE(path = tensor<string, []>("@model_path/weights/weight.bin"), offset = tensor<uint64, []>(41289920)))];
            tensor<fp16, [1, 128, 384]> first_197_cast_fp16 = linear(bias = first_197_bias_0_to_fp16, weight = first_197_weight_0_to_fp16, x = x_61_cast_fp16)[name = tensor<string, []>("first_197_cast_fp16")];
            tensor<fp16, [1, 128, 384]> input_tensor_365_cast_fp16 = add(x = first_197_cast_fp16, y = x_59_cast_fp16)[name = tensor<string, []>("input_tensor_365_cast_fp16")];
            tensor<bool, []> var_2510 = const()[name = tensor<string, []>("op_2510"), val = tensor<bool, []>(true)];
            tensor<int32, [1]> var_2512 = const()[name = tensor<string, []>("op_2512"), val = tensor<int32, [1]>([-1])];
            tensor<fp16, [1, 128, 1]> second_221_cast_fp16 = reduce_mean(axes = var_2512, keep_dims = var_2510, x = input_tensor_365_cast_fp16)[name = tensor<string, []>("second_221_cast_fp16")];
            tensor<fp16, [1, 128, 384]> input_tensor_367_cast_fp16 = sub(x = input_tensor_365_cast_fp16, y = second_221_cast_fp16)[name = tensor<string, []>("input_tensor_367_cast_fp16")];
            tensor<fp16, []> encoder_layer_4_output_LayerNorm_Constant_value_to_fp16 = const()[name = tensor<string, []>("encoder_layer_4_output_LayerNorm_Constant_value_to_fp16"), val = tensor<fp16, []>(0x1p+1)];
            tensor<fp16, [1, 128, 384]> input_tensor_369_cast_fp16 = pow(x = input_tensor_367_cast_fp16, y = encoder_layer_4_output_LayerNorm_Constant_value_to_fp16)[name = tensor<string, []>("input_tensor_369_cast_fp16")];
            tensor<bool, []> var_2518 = const()[name = tensor<string, []>("op_2518"), val = tensor<bool, []>(true)];
            tensor<int32, [1]> var_2520 = const()[name = tensor<string, []>("op_2520"), val = tensor<int32, [1]>([-1])];
            tensor<fp16, [1, 128, 1]> first_199_cast_fp16 = reduce_mean(axes = var_2520, keep_dims = var_2518, x = input_tensor_369_cast_fp16)[name = tensor<string, []>("first_199_cast_fp16")];
            tensor<fp16, []> encoder_layer_4_output_LayerNorm_Constant_1_value_to_fp16 = const()[name = tensor<string, []>("encoder_layer_4_output_LayerNorm_Constant_1_value_to_fp16"), val = tensor<fp16, []>(0x1p-24)];
            tensor<fp16, [1, 128, 1]> input_tensor_371_cast_fp16 = add(x = first_199_cast_fp16, y = encoder_layer_4_output_LayerNorm_Constant_1_value_to_fp16)[name = tensor<string, []>("input_tensor_371_cast_fp16")];
            tensor<fp16, [1, 128, 1]> second_225_cast_fp16 = sqrt(x = input_tensor_371_cast_fp16)[name = tensor<string, []>("second_225_cast_fp16")];
            tensor<fp16, [1, 128, 384]> first_201_cast_fp16 = real_div(x = input_tensor_367_cast_fp16, y = second_225_cast_fp16)[name = tensor<string, []>("first_201_cast_fp16")];
            tensor<fp16, [384]> initializers_onnx_initializer_83_to_fp16 = const()[name = tensor<string, []>("initializers_onnx_initializer_83_to_fp16"), val = tensor<fp16, [384]>(BLOBFILE(path = tensor<string, []>("@model_path/weights/weight.bin"), offset = tensor<uint64, []>(41290752)))];
            tensor<fp16, [1, 128, 384]> first_203_cast_fp16 = mul(x = first_201_cast_fp16, y = initializers_onnx_initializer_83_to_fp16)[name = tensor<string, []>("first_203_cast_fp16")];
            tensor<fp16, [384]> initializers_onnx_initializer_84_to_fp16 = const()[name = tensor<string, []>("initializers_onnx_initializer_84_to_fp16"), val = tensor<fp16, [384]>(BLOBFILE(path = tensor<string, []>("@model_path/weights/weight.bin"), offset = tensor<uint64, []>(41291584)))];
            tensor<fp16, [1, 128, 384]> x_63_cast_fp16 = add(x = first_203_cast_fp16, y = initializers_onnx_initializer_84_to_fp16)[name = tensor<string, []>("x_63_cast_fp16")];
            tensor<fp16, [384, 384]> input_tensor_395_weight_0_to_fp16 = const()[name = tensor<string, []>("input_tensor_395_weight_0_to_fp16"), val = tensor<fp16, [384, 384]>(BLOBFILE(path = tensor<string, []>("@model_path/weights/weight.bin"), offset = tensor<uint64, []>(41292416)))];
            tensor<fp16, [384]> input_tensor_395_bias_0_to_fp16 = const()[name = tensor<string, []>("input_tensor_395_bias_0_to_fp16"), val = tensor<fp16, [384]>(BLOBFILE(path = tensor<string, []>("@model_path/weights/weight.bin"), offset = tensor<uint64, []>(41587392)))];
            tensor<fp16, [1, 128, 384]> input_tensor_395_cast_fp16 = linear(bias = input_tensor_395_bias_0_to_fp16, weight = input_tensor_395_weight_0_to_fp16, x = x_63_cast_fp16)[name = tensor<string, []>("input_tensor_395_cast_fp16")];
            tensor<fp16, [384, 384]> input_tensor_373_weight_0_to_fp16 = const()[name = tensor<string, []>("input_tensor_373_weight_0_to_fp16"), val = tensor<fp16, [384, 384]>(BLOBFILE(path = tensor<string, []>("@model_path/weights/weight.bin"), offset = tensor<uint64, []>(41588224)))];
            tensor<fp16, [384]> input_tensor_373_bias_0_to_fp16 = const()[name = tensor<string, []>("input_tensor_373_bias_0_to_fp16"), val = tensor<fp16, [384]>(BLOBFILE(path = tensor<string, []>("@model_path/weights/weight.bin"), offset = tensor<uint64, []>(41883200)))];
            tensor<fp16, [1, 128, 384]> input_tensor_373_cast_fp16 = linear(bias = input_tensor_373_bias_0_to_fp16, weight = input_tensor_373_weight_0_to_fp16, x = x_63_cast_fp16)[name = tensor<string, []>("input_tensor_373_cast_fp16")];
            tensor<int32, [4]> var_2580 = const()[name = tensor<string, []>("op_2580"), val = tensor<int32, [4]>([1, 128, 12, 32])];
            tensor<fp16, [1, 128, 12, 32]> input_tensor_407_cast_fp16 = reshape(shape = var_2580, x = input_tensor_373_cast_fp16)[name = tensor<string, []>("input_tensor_407_cast_fp16")];
            tensor<fp16, [384, 384]> input_tensor_383_weight_0_to_fp16 = const()[name = tensor<string, []>("input_tensor_383_weight_0_to_fp16"), val = tensor<fp16, [384, 384]>(BLOBFILE(path = tensor<string, []>("@model_path/weights/weight.bin"), offset = tensor<uint64, []>(41884032)))];
            tensor<fp16, [384]> input_tensor_383_bias_0_to_fp16 = const()[name = tensor<string, []>("input_tensor_383_bias_0_to_fp16"), val = tensor<fp16, [384]>(BLOBFILE(path = tensor<string, []>("@model_path/weights/weight.bin"), offset = tensor<uint64, []>(42179008)))];
            tensor<fp16, [1, 128, 384]> input_tensor_383_cast_fp16 = linear(bias = input_tensor_383_bias_0_to_fp16, weight = input_tensor_383_weight_0_to_fp16, x = x_63_cast_fp16)[name = tensor<string, []>("input_tensor_383_cast_fp16")];
            tensor<int32, [4]> var_2630 = const()[name = tensor<string, []>("op_2630"), val = tensor<int32, [4]>([1, 128, 12, 32])];
            tensor<fp16, [1, 128, 12, 32]> input_tensor_393_cast_fp16 = reshape(shape = var_2630, x = input_tensor_383_cast_fp16)[name = tensor<string, []>("input_tensor_393_cast_fp16")];
            tensor<int32, [4]> var_2636 = const()[name = tensor<string, []>("op_2636"), val = tensor<int32, [4]>([0, 2, 1, 3])];
            tensor<int32, [4]> var_2683 = const()[name = tensor<string, []>("op_2683"), val = tensor<int32, [4]>([1, 128, 12, 32])];
            tensor<fp16, [1, 128, 12, 32]> input_tensor_405_cast_fp16 = reshape(shape = var_2683, x = input_tensor_395_cast_fp16)[name = tensor<string, []>("input_tensor_405_cast_fp16")];
            tensor<bool, []> first_211_transpose_x_0 = const()[name = tensor<string, []>("first_211_transpose_x_0"), val = tensor<bool, []>(false)];
            tensor<bool, []> first_211_transpose_y_0 = const()[name = tensor<string, []>("first_211_transpose_y_0"), val = tensor<bool, []>(false)];
            tensor<int32, [4]> transpose_130_perm_0 = const()[name = tensor<string, []>("transpose_130_perm_0"), val = tensor<int32, [4]>([0, 2, -3, -1])];
            tensor<int32, [4]> transpose_131_perm_0 = const()[name = tensor<string, []>("transpose_131_perm_0"), val = tensor<int32, [4]>([0, 2, -1, -3])];
            tensor<fp16, [1, 12, 32, 128]> transpose_169 = transpose(perm = transpose_131_perm_0, x = input_tensor_407_cast_fp16)[name = tensor<string, []>("transpose_169")];
            tensor<fp16, [1, 12, 128, 32]> transpose_170 = transpose(perm = transpose_130_perm_0, x = input_tensor_405_cast_fp16)[name = tensor<string, []>("transpose_170")];
            tensor<fp16, [1, 12, 128, 128]> first_211_cast_fp16 = matmul(transpose_x = first_211_transpose_x_0, transpose_y = first_211_transpose_y_0, x = transpose_170, y = transpose_169)[name = tensor<string, []>("first_211_cast_fp16")];
            tensor<fp16, []> _inversed_first_213_y_0_to_fp16 = const()[name = tensor<string, []>("_inversed_first_213_y_0_to_fp16"), val = tensor<fp16, []>(0x1.6ap-3)];
            tensor<fp16, [1, 12, 128, 128]> _inversed_first_213_cast_fp16 = mul(x = first_211_cast_fp16, y = _inversed_first_213_y_0_to_fp16)[name = tensor<string, []>("_inversed_first_213_cast_fp16")];
            tensor<fp16, [1, 12, 128, 128]> input_tensor_409_cast_fp16 = add(x = _inversed_first_213_cast_fp16, y = second_27_cast_fp16)[name = tensor<string, []>("input_tensor_409_cast_fp16")];
            tensor<int32, []> var_2702 = const()[name = tensor<string, []>("op_2702"), val = tensor<int32, []>(-1)];
            tensor<fp16, [1, 12, 128, 128]> result_11_cast_fp16 = softmax(axis = var_2702, x = input_tensor_409_cast_fp16)[name = tensor<string, []>("result_11_cast_fp16")];
            tensor<bool, []> input_tensor_413_transpose_x_0 = const()[name = tensor<string, []>("input_tensor_413_transpose_x_0"), val = tensor<bool, []>(false)];
            tensor<bool, []> input_tensor_413_transpose_y_0 = const()[name = tensor<string, []>("input_tensor_413_transpose_y_0"), val = tensor<bool, []>(false)];
            tensor<fp16, [1, 12, 128, 32]> transpose_171 = transpose(perm = var_2636, x = input_tensor_393_cast_fp16)[name = tensor<string, []>("transpose_171")];
            tensor<fp16, [1, 12, 128, 32]> input_tensor_413_cast_fp16 = matmul(transpose_x = input_tensor_413_transpose_x_0, transpose_y = input_tensor_413_transpose_y_0, x = result_11_cast_fp16, y = transpose_171)[name = tensor<string, []>("input_tensor_413_cast_fp16")];
            tensor<int32, [4]> var_2720 = const()[name = tensor<string, []>("op_2720"), val = tensor<int32, [4]>([0, 2, 1, 3])];
            tensor<int32, [3]> var_2765 = const()[name = tensor<string, []>("op_2765"), val = tensor<int32, [3]>([1, 128, 384])];
            tensor<fp16, [1, 128, 12, 32]> transpose_168 = transpose(perm = var_2720, x = input_tensor_413_cast_fp16)[name = tensor<string, []>("transpose_168")];
            tensor<fp16, [1, 128, 384]> x_69_cast_fp16 = reshape(shape = var_2765, x = transpose_168)[name = tensor<string, []>("x_69_cast_fp16")];
            tensor<fp16, [384, 384]> first_217_weight_0_to_fp16 = const()[name = tensor<string, []>("first_217_weight_0_to_fp16"), val = tensor<fp16, [384, 384]>(BLOBFILE(path = tensor<string, []>("@model_path/weights/weight.bin"), offset = tensor<uint64, []>(42179840)))];
            tensor<fp16, [384]> first_217_bias_0_to_fp16 = const()[name = tensor<string, []>("first_217_bias_0_to_fp16"), val = tensor<fp16, [384]>(BLOBFILE(path = tensor<string, []>("@model_path/weights/weight.bin"), offset = tensor<uint64, []>(42474816)))];
            tensor<fp16, [1, 128, 384]> first_217_cast_fp16 = linear(bias = first_217_bias_0_to_fp16, weight = first_217_weight_0_to_fp16, x = x_69_cast_fp16)[name = tensor<string, []>("first_217_cast_fp16")];
            tensor<fp16, [1, 128, 384]> input_tensor_425_cast_fp16 = add(x = first_217_cast_fp16, y = x_63_cast_fp16)[name = tensor<string, []>("input_tensor_425_cast_fp16")];
            tensor<bool, []> var_2773 = const()[name = tensor<string, []>("op_2773"), val = tensor<bool, []>(true)];
            tensor<int32, [1]> var_2775 = const()[name = tensor<string, []>("op_2775"), val = tensor<int32, [1]>([-1])];
            tensor<fp16, [1, 128, 1]> second_241_cast_fp16 = reduce_mean(axes = var_2775, keep_dims = var_2773, x = input_tensor_425_cast_fp16)[name = tensor<string, []>("second_241_cast_fp16")];
            tensor<fp16, [1, 128, 384]> input_tensor_427_cast_fp16 = sub(x = input_tensor_425_cast_fp16, y = second_241_cast_fp16)[name = tensor<string, []>("input_tensor_427_cast_fp16")];
            tensor<fp16, []> encoder_layer_5_attention_output_LayerNorm_Constant_value_to_fp16 = const()[name = tensor<string, []>("encoder_layer_5_attention_output_LayerNorm_Constant_value_to_fp16"), val = tensor<fp16, []>(0x1p+1)];
            tensor<fp16, [1, 128, 384]> input_tensor_429_cast_fp16 = pow(x = input_tensor_427_cast_fp16, y = encoder_layer_5_attention_output_LayerNorm_Constant_value_to_fp16)[name = tensor<string, []>("input_tensor_429_cast_fp16")];
            tensor<bool, []> var_2781 = const()[name = tensor<string, []>("op_2781"), val = tensor<bool, []>(true)];
            tensor<int32, [1]> var_2783 = const()[name = tensor<string, []>("op_2783"), val = tensor<int32, [1]>([-1])];
            tensor<fp16, [1, 128, 1]> first_219_cast_fp16 = reduce_mean(axes = var_2783, keep_dims = var_2781, x = input_tensor_429_cast_fp16)[name = tensor<string, []>("first_219_cast_fp16")];
            tensor<fp16, []> encoder_layer_5_attention_output_LayerNorm_Constant_1_value_to_fp16 = const()[name = tensor<string, []>("encoder_layer_5_attention_output_LayerNorm_Constant_1_value_to_fp16"), val = tensor<fp16, []>(0x1p-24)];
            tensor<fp16, [1, 128, 1]> input_tensor_431_cast_fp16 = add(x = first_219_cast_fp16, y = encoder_layer_5_attention_output_LayerNorm_Constant_1_value_to_fp16)[name = tensor<string, []>("input_tensor_431_cast_fp16")];
            tensor<fp16, [1, 128, 1]> second_245_cast_fp16 = sqrt(x = input_tensor_431_cast_fp16)[name = tensor<string, []>("second_245_cast_fp16")];
            tensor<fp16, [1, 128, 384]> first_221_cast_fp16 = real_div(x = input_tensor_427_cast_fp16, y = second_245_cast_fp16)[name = tensor<string, []>("first_221_cast_fp16")];
            tensor<fp16, [384]> initializers_onnx_initializer_93_to_fp16 = const()[name = tensor<string, []>("initializers_onnx_initializer_93_to_fp16"), val = tensor<fp16, [384]>(BLOBFILE(path = tensor<string, []>("@model_path/weights/weight.bin"), offset = tensor<uint64, []>(42475648)))];
            tensor<fp16, [1, 128, 384]> first_223_cast_fp16 = mul(x = first_221_cast_fp16, y = initializers_onnx_initializer_93_to_fp16)[name = tensor<string, []>("first_223_cast_fp16")];
            tensor<fp16, [384]> initializers_onnx_initializer_94_to_fp16 = const()[name = tensor<string, []>("initializers_onnx_initializer_94_to_fp16"), val = tensor<fp16, [384]>(BLOBFILE(path = tensor<string, []>("@model_path/weights/weight.bin"), offset = tensor<uint64, []>(42476480)))];
            tensor<fp16, [1, 128, 384]> x_71_cast_fp16 = add(x = first_223_cast_fp16, y = initializers_onnx_initializer_94_to_fp16)[name = tensor<string, []>("x_71_cast_fp16")];
            tensor<fp16, [1536, 384]> first_227_weight_0_to_fp16 = const()[name = tensor<string, []>("first_227_weight_0_to_fp16"), val = tensor<fp16, [1536, 384]>(BLOBFILE(path = tensor<string, []>("@model_path/weights/weight.bin"), offset = tensor<uint64, []>(42477312)))];
            tensor<fp16, [1536]> first_227_bias_0_to_fp16 = const()[name = tensor<string, []>("first_227_bias_0_to_fp16"), val = tensor<fp16, [1536]>(BLOBFILE(path = tensor<string, []>("@model_path/weights/weight.bin"), offset = tensor<uint64, []>(43657024)))];
            tensor<fp16, [1, 128, 1536]> first_227_cast_fp16 = linear(bias = first_227_bias_0_to_fp16, weight = first_227_weight_0_to_fp16, x = x_71_cast_fp16)[name = tensor<string, []>("first_227_cast_fp16")];
            tensor<string, []> x_73_mode_0 = const()[name = tensor<string, []>("x_73_mode_0"), val = tensor<string, []>("EXACT")];
            tensor<fp16, [1, 128, 1536]> x_73_cast_fp16 = gelu(mode = x_73_mode_0, x = first_227_cast_fp16)[name = tensor<string, []>("x_73_cast_fp16")];
            tensor<fp16, [384, 1536]> first_235_weight_0_to_fp16 = const()[name = tensor<string, []>("first_235_weight_0_to_fp16"), val = tensor<fp16, [384, 1536]>(BLOBFILE(path = tensor<string, []>("@model_path/weights/weight.bin"), offset = tensor<uint64, []>(43660160)))];
            tensor<fp16, [384]> first_235_bias_0_to_fp16 = const()[name = tensor<string, []>("first_235_bias_0_to_fp16"), val = tensor<fp16, [384]>(BLOBFILE(path = tensor<string, []>("@model_path/weights/weight.bin"), offset = tensor<uint64, []>(44839872)))];
            tensor<fp16, [1, 128, 384]> first_235_cast_fp16 = linear(bias = first_235_bias_0_to_fp16, weight = first_235_weight_0_to_fp16, x = x_73_cast_fp16)[name = tensor<string, []>("first_235_cast_fp16")];
            tensor<fp16, [1, 128, 384]> input_tensor_435_cast_fp16 = add(x = first_235_cast_fp16, y = x_71_cast_fp16)[name = tensor<string, []>("input_tensor_435_cast_fp16")];
            tensor<bool, []> var_2807 = const()[name = tensor<string, []>("op_2807"), val = tensor<bool, []>(true)];
            tensor<int32, [1]> var_2809 = const()[name = tensor<string, []>("op_2809"), val = tensor<int32, [1]>([-1])];
            tensor<fp16, [1, 128, 1]> second_263_cast_fp16 = reduce_mean(axes = var_2809, keep_dims = var_2807, x = input_tensor_435_cast_fp16)[name = tensor<string, []>("second_263_cast_fp16")];
            tensor<fp16, [1, 128, 384]> input_tensor_437_cast_fp16 = sub(x = input_tensor_435_cast_fp16, y = second_263_cast_fp16)[name = tensor<string, []>("input_tensor_437_cast_fp16")];
            tensor<fp16, []> encoder_layer_5_output_LayerNorm_Constant_value_to_fp16 = const()[name = tensor<string, []>("encoder_layer_5_output_LayerNorm_Constant_value_to_fp16"), val = tensor<fp16, []>(0x1p+1)];
            tensor<fp16, [1, 128, 384]> input_tensor_439_cast_fp16 = pow(x = input_tensor_437_cast_fp16, y = encoder_layer_5_output_LayerNorm_Constant_value_to_fp16)[name = tensor<string, []>("input_tensor_439_cast_fp16")];
            tensor<bool, []> var_2815 = const()[name = tensor<string, []>("op_2815"), val = tensor<bool, []>(true)];
            tensor<int32, [1]> var_2817 = const()[name = tensor<string, []>("op_2817"), val = tensor<int32, [1]>([-1])];
            tensor<fp16, [1, 128, 1]> first_237_cast_fp16 = reduce_mean(axes = var_2817, keep_dims = var_2815, x = input_tensor_439_cast_fp16)[name = tensor<string, []>("first_237_cast_fp16")];
            tensor<fp16, []> encoder_layer_5_output_LayerNorm_Constant_1_value_to_fp16 = const()[name = tensor<string, []>("encoder_layer_5_output_LayerNorm_Constant_1_value_to_fp16"), val = tensor<fp16, []>(0x1p-24)];
            tensor<fp16, [1, 128, 1]> input_tensor_441_cast_fp16 = add(x = first_237_cast_fp16, y = encoder_layer_5_output_LayerNorm_Constant_1_value_to_fp16)[name = tensor<string, []>("input_tensor_441_cast_fp16")];
            tensor<fp16, [1, 128, 1]> second_267_cast_fp16 = sqrt(x = input_tensor_441_cast_fp16)[name = tensor<string, []>("second_267_cast_fp16")];
            tensor<fp16, [1, 128, 384]> first_239_cast_fp16 = real_div(x = input_tensor_437_cast_fp16, y = second_267_cast_fp16)[name = tensor<string, []>("first_239_cast_fp16")];
            tensor<fp16, [384]> initializers_onnx_initializer_99_to_fp16 = const()[name = tensor<string, []>("initializers_onnx_initializer_99_to_fp16"), val = tensor<fp16, [384]>(BLOBFILE(path = tensor<string, []>("@model_path/weights/weight.bin"), offset = tensor<uint64, []>(44840704)))];
            tensor<fp16, [1, 128, 384]> first_241_cast_fp16 = mul(x = first_239_cast_fp16, y = initializers_onnx_initializer_99_to_fp16)[name = tensor<string, []>("first_241_cast_fp16")];
            tensor<fp16, [384]> initializers_onnx_initializer_100_to_fp16 = const()[name = tensor<string, []>("initializers_onnx_initializer_100_to_fp16"), val = tensor<fp16, [384]>(BLOBFILE(path = tensor<string, []>("@model_path/weights/weight.bin"), offset = tensor<uint64, []>(44841536)))];
            tensor<fp16, [1, 128, 384]> x_75_cast_fp16 = add(x = first_241_cast_fp16, y = initializers_onnx_initializer_100_to_fp16)[name = tensor<string, []>("x_75_cast_fp16")];
            tensor<fp16, [384, 384]> input_tensor_465_weight_0_to_fp16 = const()[name = tensor<string, []>("input_tensor_465_weight_0_to_fp16"), val = tensor<fp16, [384, 384]>(BLOBFILE(path = tensor<string, []>("@model_path/weights/weight.bin"), offset = tensor<uint64, []>(44842368)))];
            tensor<fp16, [384]> input_tensor_465_bias_0_to_fp16 = const()[name = tensor<string, []>("input_tensor_465_bias_0_to_fp16"), val = tensor<fp16, [384]>(BLOBFILE(path = tensor<string, []>("@model_path/weights/weight.bin"), offset = tensor<uint64, []>(45137344)))];
            tensor<fp16, [1, 128, 384]> input_tensor_465_cast_fp16 = linear(bias = input_tensor_465_bias_0_to_fp16, weight = input_tensor_465_weight_0_to_fp16, x = x_75_cast_fp16)[name = tensor<string, []>("input_tensor_465_cast_fp16")];
            tensor<fp16, [384, 384]> input_tensor_443_weight_0_to_fp16 = const()[name = tensor<string, []>("input_tensor_443_weight_0_to_fp16"), val = tensor<fp16, [384, 384]>(BLOBFILE(path = tensor<string, []>("@model_path/weights/weight.bin"), offset = tensor<uint64, []>(45138176)))];
            tensor<fp16, [384]> input_tensor_443_bias_0_to_fp16 = const()[name = tensor<string, []>("input_tensor_443_bias_0_to_fp16"), val = tensor<fp16, [384]>(BLOBFILE(path = tensor<string, []>("@model_path/weights/weight.bin"), offset = tensor<uint64, []>(45433152)))];
            tensor<fp16, [1, 128, 384]> input_tensor_443_cast_fp16 = linear(bias = input_tensor_443_bias_0_to_fp16, weight = input_tensor_443_weight_0_to_fp16, x = x_75_cast_fp16)[name = tensor<string, []>("input_tensor_443_cast_fp16")];
            tensor<int32, [4]> var_2877 = const()[name = tensor<string, []>("op_2877"), val = tensor<int32, [4]>([1, 128, 12, 32])];
            tensor<fp16, [1, 128, 12, 32]> input_tensor_477_cast_fp16 = reshape(shape = var_2877, x = input_tensor_443_cast_fp16)[name = tensor<string, []>("input_tensor_477_cast_fp16")];
            tensor<fp16, [384, 384]> input_tensor_453_weight_0_to_fp16 = const()[name = tensor<string, []>("input_tensor_453_weight_0_to_fp16"), val = tensor<fp16, [384, 384]>(BLOBFILE(path = tensor<string, []>("@model_path/weights/weight.bin"), offset = tensor<uint64, []>(45433984)))];
            tensor<fp16, [384]> input_tensor_453_bias_0_to_fp16 = const()[name = tensor<string, []>("input_tensor_453_bias_0_to_fp16"), val = tensor<fp16, [384]>(BLOBFILE(path = tensor<string, []>("@model_path/weights/weight.bin"), offset = tensor<uint64, []>(45728960)))];
            tensor<fp16, [1, 128, 384]> input_tensor_453_cast_fp16 = linear(bias = input_tensor_453_bias_0_to_fp16, weight = input_tensor_453_weight_0_to_fp16, x = x_75_cast_fp16)[name = tensor<string, []>("input_tensor_453_cast_fp16")];
            tensor<int32, [4]> var_2927 = const()[name = tensor<string, []>("op_2927"), val = tensor<int32, [4]>([1, 128, 12, 32])];
            tensor<fp16, [1, 128, 12, 32]> input_tensor_463_cast_fp16 = reshape(shape = var_2927, x = input_tensor_453_cast_fp16)[name = tensor<string, []>("input_tensor_463_cast_fp16")];
            tensor<int32, [4]> var_2933 = const()[name = tensor<string, []>("op_2933"), val = tensor<int32, [4]>([0, 2, 1, 3])];
            tensor<int32, [4]> var_2980 = const()[name = tensor<string, []>("op_2980"), val = tensor<int32, [4]>([1, 128, 12, 32])];
            tensor<fp16, [1, 128, 12, 32]> input_tensor_475_cast_fp16 = reshape(shape = var_2980, x = input_tensor_465_cast_fp16)[name = tensor<string, []>("input_tensor_475_cast_fp16")];
            tensor<bool, []> first_249_transpose_x_0 = const()[name = tensor<string, []>("first_249_transpose_x_0"), val = tensor<bool, []>(false)];
            tensor<bool, []> first_249_transpose_y_0 = const()[name = tensor<string, []>("first_249_transpose_y_0"), val = tensor<bool, []>(false)];
            tensor<int32, [4]> transpose_132_perm_0 = const()[name = tensor<string, []>("transpose_132_perm_0"), val = tensor<int32, [4]>([0, 2, -3, -1])];
            tensor<int32, [4]> transpose_133_perm_0 = const()[name = tensor<string, []>("transpose_133_perm_0"), val = tensor<int32, [4]>([0, 2, -1, -3])];
            tensor<fp16, [1, 12, 32, 128]> transpose_165 = transpose(perm = transpose_133_perm_0, x = input_tensor_477_cast_fp16)[name = tensor<string, []>("transpose_165")];
            tensor<fp16, [1, 12, 128, 32]> transpose_166 = transpose(perm = transpose_132_perm_0, x = input_tensor_475_cast_fp16)[name = tensor<string, []>("transpose_166")];
            tensor<fp16, [1, 12, 128, 128]> first_249_cast_fp16 = matmul(transpose_x = first_249_transpose_x_0, transpose_y = first_249_transpose_y_0, x = transpose_166, y = transpose_165)[name = tensor<string, []>("first_249_cast_fp16")];
            tensor<fp16, []> _inversed_first_251_y_0_to_fp16 = const()[name = tensor<string, []>("_inversed_first_251_y_0_to_fp16"), val = tensor<fp16, []>(0x1.6ap-3)];
            tensor<fp16, [1, 12, 128, 128]> _inversed_first_251_cast_fp16 = mul(x = first_249_cast_fp16, y = _inversed_first_251_y_0_to_fp16)[name = tensor<string, []>("_inversed_first_251_cast_fp16")];
            tensor<fp16, [1, 12, 128, 128]> input_tensor_479_cast_fp16 = add(x = _inversed_first_251_cast_fp16, y = second_27_cast_fp16)[name = tensor<string, []>("input_tensor_479_cast_fp16")];
            tensor<int32, []> var_2999 = const()[name = tensor<string, []>("op_2999"), val = tensor<int32, []>(-1)];
            tensor<fp16, [1, 12, 128, 128]> result_13_cast_fp16 = softmax(axis = var_2999, x = input_tensor_479_cast_fp16)[name = tensor<string, []>("result_13_cast_fp16")];
            tensor<bool, []> input_tensor_483_transpose_x_0 = const()[name = tensor<string, []>("input_tensor_483_transpose_x_0"), val = tensor<bool, []>(false)];
            tensor<bool, []> input_tensor_483_transpose_y_0 = const()[name = tensor<string, []>("input_tensor_483_transpose_y_0"), val = tensor<bool, []>(false)];
            tensor<fp16, [1, 12, 128, 32]> transpose_167 = transpose(perm = var_2933, x = input_tensor_463_cast_fp16)[name = tensor<string, []>("transpose_167")];
            tensor<fp16, [1, 12, 128, 32]> input_tensor_483_cast_fp16 = matmul(transpose_x = input_tensor_483_transpose_x_0, transpose_y = input_tensor_483_transpose_y_0, x = result_13_cast_fp16, y = transpose_167)[name = tensor<string, []>("input_tensor_483_cast_fp16")];
            tensor<int32, [4]> var_3017 = const()[name = tensor<string, []>("op_3017"), val = tensor<int32, [4]>([0, 2, 1, 3])];
            tensor<int32, [3]> var_3062 = const()[name = tensor<string, []>("op_3062"), val = tensor<int32, [3]>([1, 128, 384])];
            tensor<fp16, [1, 128, 12, 32]> transpose_164 = transpose(perm = var_3017, x = input_tensor_483_cast_fp16)[name = tensor<string, []>("transpose_164")];
            tensor<fp16, [1, 128, 384]> x_81_cast_fp16 = reshape(shape = var_3062, x = transpose_164)[name = tensor<string, []>("x_81_cast_fp16")];
            tensor<fp16, [384, 384]> first_255_weight_0_to_fp16 = const()[name = tensor<string, []>("first_255_weight_0_to_fp16"), val = tensor<fp16, [384, 384]>(BLOBFILE(path = tensor<string, []>("@model_path/weights/weight.bin"), offset = tensor<uint64, []>(45729792)))];
            tensor<fp16, [384]> first_255_bias_0_to_fp16 = const()[name = tensor<string, []>("first_255_bias_0_to_fp16"), val = tensor<fp16, [384]>(BLOBFILE(path = tensor<string, []>("@model_path/weights/weight.bin"), offset = tensor<uint64, []>(46024768)))];
            tensor<fp16, [1, 128, 384]> first_255_cast_fp16 = linear(bias = first_255_bias_0_to_fp16, weight = first_255_weight_0_to_fp16, x = x_81_cast_fp16)[name = tensor<string, []>("first_255_cast_fp16")];
            tensor<fp16, [1, 128, 384]> input_tensor_495_cast_fp16 = add(x = first_255_cast_fp16, y = x_75_cast_fp16)[name = tensor<string, []>("input_tensor_495_cast_fp16")];
            tensor<bool, []> var_3070 = const()[name = tensor<string, []>("op_3070"), val = tensor<bool, []>(true)];
            tensor<int32, [1]> var_3072 = const()[name = tensor<string, []>("op_3072"), val = tensor<int32, [1]>([-1])];
            tensor<fp16, [1, 128, 1]> second_283_cast_fp16 = reduce_mean(axes = var_3072, keep_dims = var_3070, x = input_tensor_495_cast_fp16)[name = tensor<string, []>("second_283_cast_fp16")];
            tensor<fp16, [1, 128, 384]> input_tensor_497_cast_fp16 = sub(x = input_tensor_495_cast_fp16, y = second_283_cast_fp16)[name = tensor<string, []>("input_tensor_497_cast_fp16")];
            tensor<fp16, []> encoder_layer_6_attention_output_LayerNorm_Constant_value_to_fp16 = const()[name = tensor<string, []>("encoder_layer_6_attention_output_LayerNorm_Constant_value_to_fp16"), val = tensor<fp16, []>(0x1p+1)];
            tensor<fp16, [1, 128, 384]> input_tensor_499_cast_fp16 = pow(x = input_tensor_497_cast_fp16, y = encoder_layer_6_attention_output_LayerNorm_Constant_value_to_fp16)[name = tensor<string, []>("input_tensor_499_cast_fp16")];
            tensor<bool, []> var_3078 = const()[name = tensor<string, []>("op_3078"), val = tensor<bool, []>(true)];
            tensor<int32, [1]> var_3080 = const()[name = tensor<string, []>("op_3080"), val = tensor<int32, [1]>([-1])];
            tensor<fp16, [1, 128, 1]> first_257_cast_fp16 = reduce_mean(axes = var_3080, keep_dims = var_3078, x = input_tensor_499_cast_fp16)[name = tensor<string, []>("first_257_cast_fp16")];
            tensor<fp16, []> encoder_layer_6_attention_output_LayerNorm_Constant_1_value_to_fp16 = const()[name = tensor<string, []>("encoder_layer_6_attention_output_LayerNorm_Constant_1_value_to_fp16"), val = tensor<fp16, []>(0x1p-24)];
            tensor<fp16, [1, 128, 1]> input_tensor_501_cast_fp16 = add(x = first_257_cast_fp16, y = encoder_layer_6_attention_output_LayerNorm_Constant_1_value_to_fp16)[name = tensor<string, []>("input_tensor_501_cast_fp16")];
            tensor<fp16, [1, 128, 1]> second_287_cast_fp16 = sqrt(x = input_tensor_501_cast_fp16)[name = tensor<string, []>("second_287_cast_fp16")];
            tensor<fp16, [1, 128, 384]> first_259_cast_fp16 = real_div(x = input_tensor_497_cast_fp16, y = second_287_cast_fp16)[name = tensor<string, []>("first_259_cast_fp16")];
            tensor<fp16, [384]> initializers_onnx_initializer_109_to_fp16 = const()[name = tensor<string, []>("initializers_onnx_initializer_109_to_fp16"), val = tensor<fp16, [384]>(BLOBFILE(path = tensor<string, []>("@model_path/weights/weight.bin"), offset = tensor<uint64, []>(46025600)))];
            tensor<fp16, [1, 128, 384]> first_261_cast_fp16 = mul(x = first_259_cast_fp16, y = initializers_onnx_initializer_109_to_fp16)[name = tensor<string, []>("first_261_cast_fp16")];
            tensor<fp16, [384]> initializers_onnx_initializer_110_to_fp16 = const()[name = tensor<string, []>("initializers_onnx_initializer_110_to_fp16"), val = tensor<fp16, [384]>(BLOBFILE(path = tensor<string, []>("@model_path/weights/weight.bin"), offset = tensor<uint64, []>(46026432)))];
            tensor<fp16, [1, 128, 384]> x_83_cast_fp16 = add(x = first_261_cast_fp16, y = initializers_onnx_initializer_110_to_fp16)[name = tensor<string, []>("x_83_cast_fp16")];
            tensor<fp16, [1536, 384]> first_265_weight_0_to_fp16 = const()[name = tensor<string, []>("first_265_weight_0_to_fp16"), val = tensor<fp16, [1536, 384]>(BLOBFILE(path = tensor<string, []>("@model_path/weights/weight.bin"), offset = tensor<uint64, []>(46027264)))];
            tensor<fp16, [1536]> first_265_bias_0_to_fp16 = const()[name = tensor<string, []>("first_265_bias_0_to_fp16"), val = tensor<fp16, [1536]>(BLOBFILE(path = tensor<string, []>("@model_path/weights/weight.bin"), offset = tensor<uint64, []>(47206976)))];
            tensor<fp16, [1, 128, 1536]> first_265_cast_fp16 = linear(bias = first_265_bias_0_to_fp16, weight = first_265_weight_0_to_fp16, x = x_83_cast_fp16)[name = tensor<string, []>("first_265_cast_fp16")];
            tensor<string, []> x_85_mode_0 = const()[name = tensor<string, []>("x_85_mode_0"), val = tensor<string, []>("EXACT")];
            tensor<fp16, [1, 128, 1536]> x_85_cast_fp16 = gelu(mode = x_85_mode_0, x = first_265_cast_fp16)[name = tensor<string, []>("x_85_cast_fp16")];
            tensor<fp16, [384, 1536]> first_273_weight_0_to_fp16 = const()[name = tensor<string, []>("first_273_weight_0_to_fp16"), val = tensor<fp16, [384, 1536]>(BLOBFILE(path = tensor<string, []>("@model_path/weights/weight.bin"), offset = tensor<uint64, []>(47210112)))];
            tensor<fp16, [384]> first_273_bias_0_to_fp16 = const()[name = tensor<string, []>("first_273_bias_0_to_fp16"), val = tensor<fp16, [384]>(BLOBFILE(path = tensor<string, []>("@model_path/weights/weight.bin"), offset = tensor<uint64, []>(48389824)))];
            tensor<fp16, [1, 128, 384]> first_273_cast_fp16 = linear(bias = first_273_bias_0_to_fp16, weight = first_273_weight_0_to_fp16, x = x_85_cast_fp16)[name = tensor<string, []>("first_273_cast_fp16")];
            tensor<fp16, [1, 128, 384]> input_tensor_505_cast_fp16 = add(x = first_273_cast_fp16, y = x_83_cast_fp16)[name = tensor<string, []>("input_tensor_505_cast_fp16")];
            tensor<bool, []> var_3104 = const()[name = tensor<string, []>("op_3104"), val = tensor<bool, []>(true)];
            tensor<int32, [1]> var_3106 = const()[name = tensor<string, []>("op_3106"), val = tensor<int32, [1]>([-1])];
            tensor<fp16, [1, 128, 1]> second_305_cast_fp16 = reduce_mean(axes = var_3106, keep_dims = var_3104, x = input_tensor_505_cast_fp16)[name = tensor<string, []>("second_305_cast_fp16")];
            tensor<fp16, [1, 128, 384]> input_tensor_507_cast_fp16 = sub(x = input_tensor_505_cast_fp16, y = second_305_cast_fp16)[name = tensor<string, []>("input_tensor_507_cast_fp16")];
            tensor<fp16, []> encoder_layer_6_output_LayerNorm_Constant_value_to_fp16 = const()[name = tensor<string, []>("encoder_layer_6_output_LayerNorm_Constant_value_to_fp16"), val = tensor<fp16, []>(0x1p+1)];
            tensor<fp16, [1, 128, 384]> input_tensor_509_cast_fp16 = pow(x = input_tensor_507_cast_fp16, y = encoder_layer_6_output_LayerNorm_Constant_value_to_fp16)[name = tensor<string, []>("input_tensor_509_cast_fp16")];
            tensor<bool, []> var_3112 = const()[name = tensor<string, []>("op_3112"), val = tensor<bool, []>(true)];
            tensor<int32, [1]> var_3114 = const()[name = tensor<string, []>("op_3114"), val = tensor<int32, [1]>([-1])];
            tensor<fp16, [1, 128, 1]> first_275_cast_fp16 = reduce_mean(axes = var_3114, keep_dims = var_3112, x = input_tensor_509_cast_fp16)[name = tensor<string, []>("first_275_cast_fp16")];
            tensor<fp16, []> encoder_layer_6_output_LayerNorm_Constant_1_value_to_fp16 = const()[name = tensor<string, []>("encoder_layer_6_output_LayerNorm_Constant_1_value_to_fp16"), val = tensor<fp16, []>(0x1p-24)];
            tensor<fp16, [1, 128, 1]> input_tensor_511_cast_fp16 = add(x = first_275_cast_fp16, y = encoder_layer_6_output_LayerNorm_Constant_1_value_to_fp16)[name = tensor<string, []>("input_tensor_511_cast_fp16")];
            tensor<fp16, [1, 128, 1]> second_309_cast_fp16 = sqrt(x = input_tensor_511_cast_fp16)[name = tensor<string, []>("second_309_cast_fp16")];
            tensor<fp16, [1, 128, 384]> first_277_cast_fp16 = real_div(x = input_tensor_507_cast_fp16, y = second_309_cast_fp16)[name = tensor<string, []>("first_277_cast_fp16")];
            tensor<fp16, [384]> initializers_onnx_initializer_115_to_fp16 = const()[name = tensor<string, []>("initializers_onnx_initializer_115_to_fp16"), val = tensor<fp16, [384]>(BLOBFILE(path = tensor<string, []>("@model_path/weights/weight.bin"), offset = tensor<uint64, []>(48390656)))];
            tensor<fp16, [1, 128, 384]> first_279_cast_fp16 = mul(x = first_277_cast_fp16, y = initializers_onnx_initializer_115_to_fp16)[name = tensor<string, []>("first_279_cast_fp16")];
            tensor<fp16, [384]> initializers_onnx_initializer_116_to_fp16 = const()[name = tensor<string, []>("initializers_onnx_initializer_116_to_fp16"), val = tensor<fp16, [384]>(BLOBFILE(path = tensor<string, []>("@model_path/weights/weight.bin"), offset = tensor<uint64, []>(48391488)))];
            tensor<fp16, [1, 128, 384]> x_87_cast_fp16 = add(x = first_279_cast_fp16, y = initializers_onnx_initializer_116_to_fp16)[name = tensor<string, []>("x_87_cast_fp16")];
            tensor<fp16, [384, 384]> input_tensor_535_weight_0_to_fp16 = const()[name = tensor<string, []>("input_tensor_535_weight_0_to_fp16"), val = tensor<fp16, [384, 384]>(BLOBFILE(path = tensor<string, []>("@model_path/weights/weight.bin"), offset = tensor<uint64, []>(48392320)))];
            tensor<fp16, [384]> input_tensor_535_bias_0_to_fp16 = const()[name = tensor<string, []>("input_tensor_535_bias_0_to_fp16"), val = tensor<fp16, [384]>(BLOBFILE(path = tensor<string, []>("@model_path/weights/weight.bin"), offset = tensor<uint64, []>(48687296)))];
            tensor<fp16, [1, 128, 384]> input_tensor_535_cast_fp16 = linear(bias = input_tensor_535_bias_0_to_fp16, weight = input_tensor_535_weight_0_to_fp16, x = x_87_cast_fp16)[name = tensor<string, []>("input_tensor_535_cast_fp16")];
            tensor<fp16, [384, 384]> input_tensor_513_weight_0_to_fp16 = const()[name = tensor<string, []>("input_tensor_513_weight_0_to_fp16"), val = tensor<fp16, [384, 384]>(BLOBFILE(path = tensor<string, []>("@model_path/weights/weight.bin"), offset = tensor<uint64, []>(48688128)))];
            tensor<fp16, [384]> input_tensor_513_bias_0_to_fp16 = const()[name = tensor<string, []>("input_tensor_513_bias_0_to_fp16"), val = tensor<fp16, [384]>(BLOBFILE(path = tensor<string, []>("@model_path/weights/weight.bin"), offset = tensor<uint64, []>(48983104)))];
            tensor<fp16, [1, 128, 384]> input_tensor_513_cast_fp16 = linear(bias = input_tensor_513_bias_0_to_fp16, weight = input_tensor_513_weight_0_to_fp16, x = x_87_cast_fp16)[name = tensor<string, []>("input_tensor_513_cast_fp16")];
            tensor<int32, [4]> var_3174 = const()[name = tensor<string, []>("op_3174"), val = tensor<int32, [4]>([1, 128, 12, 32])];
            tensor<fp16, [1, 128, 12, 32]> input_tensor_547_cast_fp16 = reshape(shape = var_3174, x = input_tensor_513_cast_fp16)[name = tensor<string, []>("input_tensor_547_cast_fp16")];
            tensor<fp16, [384, 384]> input_tensor_523_weight_0_to_fp16 = const()[name = tensor<string, []>("input_tensor_523_weight_0_to_fp16"), val = tensor<fp16, [384, 384]>(BLOBFILE(path = tensor<string, []>("@model_path/weights/weight.bin"), offset = tensor<uint64, []>(48983936)))];
            tensor<fp16, [384]> input_tensor_523_bias_0_to_fp16 = const()[name = tensor<string, []>("input_tensor_523_bias_0_to_fp16"), val = tensor<fp16, [384]>(BLOBFILE(path = tensor<string, []>("@model_path/weights/weight.bin"), offset = tensor<uint64, []>(49278912)))];
            tensor<fp16, [1, 128, 384]> input_tensor_523_cast_fp16 = linear(bias = input_tensor_523_bias_0_to_fp16, weight = input_tensor_523_weight_0_to_fp16, x = x_87_cast_fp16)[name = tensor<string, []>("input_tensor_523_cast_fp16")];
            tensor<int32, [4]> var_3224 = const()[name = tensor<string, []>("op_3224"), val = tensor<int32, [4]>([1, 128, 12, 32])];
            tensor<fp16, [1, 128, 12, 32]> input_tensor_533_cast_fp16 = reshape(shape = var_3224, x = input_tensor_523_cast_fp16)[name = tensor<string, []>("input_tensor_533_cast_fp16")];
            tensor<int32, [4]> var_3230 = const()[name = tensor<string, []>("op_3230"), val = tensor<int32, [4]>([0, 2, 1, 3])];
            tensor<int32, [4]> var_3277 = const()[name = tensor<string, []>("op_3277"), val = tensor<int32, [4]>([1, 128, 12, 32])];
            tensor<fp16, [1, 128, 12, 32]> input_tensor_545_cast_fp16 = reshape(shape = var_3277, x = input_tensor_535_cast_fp16)[name = tensor<string, []>("input_tensor_545_cast_fp16")];
            tensor<bool, []> first_287_transpose_x_0 = const()[name = tensor<string, []>("first_287_transpose_x_0"), val = tensor<bool, []>(false)];
            tensor<bool, []> first_287_transpose_y_0 = const()[name = tensor<string, []>("first_287_transpose_y_0"), val = tensor<bool, []>(false)];
            tensor<int32, [4]> transpose_134_perm_0 = const()[name = tensor<string, []>("transpose_134_perm_0"), val = tensor<int32, [4]>([0, 2, -3, -1])];
            tensor<int32, [4]> transpose_135_perm_0 = const()[name = tensor<string, []>("transpose_135_perm_0"), val = tensor<int32, [4]>([0, 2, -1, -3])];
            tensor<fp16, [1, 12, 32, 128]> transpose_161 = transpose(perm = transpose_135_perm_0, x = input_tensor_547_cast_fp16)[name = tensor<string, []>("transpose_161")];
            tensor<fp16, [1, 12, 128, 32]> transpose_162 = transpose(perm = transpose_134_perm_0, x = input_tensor_545_cast_fp16)[name = tensor<string, []>("transpose_162")];
            tensor<fp16, [1, 12, 128, 128]> first_287_cast_fp16 = matmul(transpose_x = first_287_transpose_x_0, transpose_y = first_287_transpose_y_0, x = transpose_162, y = transpose_161)[name = tensor<string, []>("first_287_cast_fp16")];
            tensor<fp16, []> _inversed_first_289_y_0_to_fp16 = const()[name = tensor<string, []>("_inversed_first_289_y_0_to_fp16"), val = tensor<fp16, []>(0x1.6ap-3)];
            tensor<fp16, [1, 12, 128, 128]> _inversed_first_289_cast_fp16 = mul(x = first_287_cast_fp16, y = _inversed_first_289_y_0_to_fp16)[name = tensor<string, []>("_inversed_first_289_cast_fp16")];
            tensor<fp16, [1, 12, 128, 128]> input_tensor_549_cast_fp16 = add(x = _inversed_first_289_cast_fp16, y = second_27_cast_fp16)[name = tensor<string, []>("input_tensor_549_cast_fp16")];
            tensor<int32, []> var_3296 = const()[name = tensor<string, []>("op_3296"), val = tensor<int32, []>(-1)];
            tensor<fp16, [1, 12, 128, 128]> result_15_cast_fp16 = softmax(axis = var_3296, x = input_tensor_549_cast_fp16)[name = tensor<string, []>("result_15_cast_fp16")];
            tensor<bool, []> input_tensor_553_transpose_x_0 = const()[name = tensor<string, []>("input_tensor_553_transpose_x_0"), val = tensor<bool, []>(false)];
            tensor<bool, []> input_tensor_553_transpose_y_0 = const()[name = tensor<string, []>("input_tensor_553_transpose_y_0"), val = tensor<bool, []>(false)];
            tensor<fp16, [1, 12, 128, 32]> transpose_163 = transpose(perm = var_3230, x = input_tensor_533_cast_fp16)[name = tensor<string, []>("transpose_163")];
            tensor<fp16, [1, 12, 128, 32]> input_tensor_553_cast_fp16 = matmul(transpose_x = input_tensor_553_transpose_x_0, transpose_y = input_tensor_553_transpose_y_0, x = result_15_cast_fp16, y = transpose_163)[name = tensor<string, []>("input_tensor_553_cast_fp16")];
            tensor<int32, [4]> var_3314 = const()[name = tensor<string, []>("op_3314"), val = tensor<int32, [4]>([0, 2, 1, 3])];
            tensor<int32, [3]> var_3359 = const()[name = tensor<string, []>("op_3359"), val = tensor<int32, [3]>([1, 128, 384])];
            tensor<fp16, [1, 128, 12, 32]> transpose_160 = transpose(perm = var_3314, x = input_tensor_553_cast_fp16)[name = tensor<string, []>("transpose_160")];
            tensor<fp16, [1, 128, 384]> x_93_cast_fp16 = reshape(shape = var_3359, x = transpose_160)[name = tensor<string, []>("x_93_cast_fp16")];
            tensor<fp16, [384, 384]> first_293_weight_0_to_fp16 = const()[name = tensor<string, []>("first_293_weight_0_to_fp16"), val = tensor<fp16, [384, 384]>(BLOBFILE(path = tensor<string, []>("@model_path/weights/weight.bin"), offset = tensor<uint64, []>(49279744)))];
            tensor<fp16, [384]> first_293_bias_0_to_fp16 = const()[name = tensor<string, []>("first_293_bias_0_to_fp16"), val = tensor<fp16, [384]>(BLOBFILE(path = tensor<string, []>("@model_path/weights/weight.bin"), offset = tensor<uint64, []>(49574720)))];
            tensor<fp16, [1, 128, 384]> first_293_cast_fp16 = linear(bias = first_293_bias_0_to_fp16, weight = first_293_weight_0_to_fp16, x = x_93_cast_fp16)[name = tensor<string, []>("first_293_cast_fp16")];
            tensor<fp16, [1, 128, 384]> input_tensor_565_cast_fp16 = add(x = first_293_cast_fp16, y = x_87_cast_fp16)[name = tensor<string, []>("input_tensor_565_cast_fp16")];
            tensor<bool, []> var_3367 = const()[name = tensor<string, []>("op_3367"), val = tensor<bool, []>(true)];
            tensor<int32, [1]> var_3369 = const()[name = tensor<string, []>("op_3369"), val = tensor<int32, [1]>([-1])];
            tensor<fp16, [1, 128, 1]> second_325_cast_fp16 = reduce_mean(axes = var_3369, keep_dims = var_3367, x = input_tensor_565_cast_fp16)[name = tensor<string, []>("second_325_cast_fp16")];
            tensor<fp16, [1, 128, 384]> input_tensor_567_cast_fp16 = sub(x = input_tensor_565_cast_fp16, y = second_325_cast_fp16)[name = tensor<string, []>("input_tensor_567_cast_fp16")];
            tensor<fp16, []> encoder_layer_7_attention_output_LayerNorm_Constant_value_to_fp16 = const()[name = tensor<string, []>("encoder_layer_7_attention_output_LayerNorm_Constant_value_to_fp16"), val = tensor<fp16, []>(0x1p+1)];
            tensor<fp16, [1, 128, 384]> input_tensor_569_cast_fp16 = pow(x = input_tensor_567_cast_fp16, y = encoder_layer_7_attention_output_LayerNorm_Constant_value_to_fp16)[name = tensor<string, []>("input_tensor_569_cast_fp16")];
            tensor<bool, []> var_3375 = const()[name = tensor<string, []>("op_3375"), val = tensor<bool, []>(true)];
            tensor<int32, [1]> var_3377 = const()[name = tensor<string, []>("op_3377"), val = tensor<int32, [1]>([-1])];
            tensor<fp16, [1, 128, 1]> first_295_cast_fp16 = reduce_mean(axes = var_3377, keep_dims = var_3375, x = input_tensor_569_cast_fp16)[name = tensor<string, []>("first_295_cast_fp16")];
            tensor<fp16, []> encoder_layer_7_attention_output_LayerNorm_Constant_1_value_to_fp16 = const()[name = tensor<string, []>("encoder_layer_7_attention_output_LayerNorm_Constant_1_value_to_fp16"), val = tensor<fp16, []>(0x1p-24)];
            tensor<fp16, [1, 128, 1]> input_tensor_571_cast_fp16 = add(x = first_295_cast_fp16, y = encoder_layer_7_attention_output_LayerNorm_Constant_1_value_to_fp16)[name = tensor<string, []>("input_tensor_571_cast_fp16")];
            tensor<fp16, [1, 128, 1]> second_329_cast_fp16 = sqrt(x = input_tensor_571_cast_fp16)[name = tensor<string, []>("second_329_cast_fp16")];
            tensor<fp16, [1, 128, 384]> first_297_cast_fp16 = real_div(x = input_tensor_567_cast_fp16, y = second_329_cast_fp16)[name = tensor<string, []>("first_297_cast_fp16")];
            tensor<fp16, [384]> initializers_onnx_initializer_125_to_fp16 = const()[name = tensor<string, []>("initializers_onnx_initializer_125_to_fp16"), val = tensor<fp16, [384]>(BLOBFILE(path = tensor<string, []>("@model_path/weights/weight.bin"), offset = tensor<uint64, []>(49575552)))];
            tensor<fp16, [1, 128, 384]> first_299_cast_fp16 = mul(x = first_297_cast_fp16, y = initializers_onnx_initializer_125_to_fp16)[name = tensor<string, []>("first_299_cast_fp16")];
            tensor<fp16, [384]> initializers_onnx_initializer_126_to_fp16 = const()[name = tensor<string, []>("initializers_onnx_initializer_126_to_fp16"), val = tensor<fp16, [384]>(BLOBFILE(path = tensor<string, []>("@model_path/weights/weight.bin"), offset = tensor<uint64, []>(49576384)))];
            tensor<fp16, [1, 128, 384]> x_95_cast_fp16 = add(x = first_299_cast_fp16, y = initializers_onnx_initializer_126_to_fp16)[name = tensor<string, []>("x_95_cast_fp16")];
            tensor<fp16, [1536, 384]> first_303_weight_0_to_fp16 = const()[name = tensor<string, []>("first_303_weight_0_to_fp16"), val = tensor<fp16, [1536, 384]>(BLOBFILE(path = tensor<string, []>("@model_path/weights/weight.bin"), offset = tensor<uint64, []>(49577216)))];
            tensor<fp16, [1536]> first_303_bias_0_to_fp16 = const()[name = tensor<string, []>("first_303_bias_0_to_fp16"), val = tensor<fp16, [1536]>(BLOBFILE(path = tensor<string, []>("@model_path/weights/weight.bin"), offset = tensor<uint64, []>(50756928)))];
            tensor<fp16, [1, 128, 1536]> first_303_cast_fp16 = linear(bias = first_303_bias_0_to_fp16, weight = first_303_weight_0_to_fp16, x = x_95_cast_fp16)[name = tensor<string, []>("first_303_cast_fp16")];
            tensor<string, []> x_97_mode_0 = const()[name = tensor<string, []>("x_97_mode_0"), val = tensor<string, []>("EXACT")];
            tensor<fp16, [1, 128, 1536]> x_97_cast_fp16 = gelu(mode = x_97_mode_0, x = first_303_cast_fp16)[name = tensor<string, []>("x_97_cast_fp16")];
            tensor<fp16, [384, 1536]> first_311_weight_0_to_fp16 = const()[name = tensor<string, []>("first_311_weight_0_to_fp16"), val = tensor<fp16, [384, 1536]>(BLOBFILE(path = tensor<string, []>("@model_path/weights/weight.bin"), offset = tensor<uint64, []>(50760064)))];
            tensor<fp16, [384]> first_311_bias_0_to_fp16 = const()[name = tensor<string, []>("first_311_bias_0_to_fp16"), val = tensor<fp16, [384]>(BLOBFILE(path = tensor<string, []>("@model_path/weights/weight.bin"), offset = tensor<uint64, []>(51939776)))];
            tensor<fp16, [1, 128, 384]> first_311_cast_fp16 = linear(bias = first_311_bias_0_to_fp16, weight = first_311_weight_0_to_fp16, x = x_97_cast_fp16)[name = tensor<string, []>("first_311_cast_fp16")];
            tensor<fp16, [1, 128, 384]> input_tensor_575_cast_fp16 = add(x = first_311_cast_fp16, y = x_95_cast_fp16)[name = tensor<string, []>("input_tensor_575_cast_fp16")];
            tensor<bool, []> var_3401 = const()[name = tensor<string, []>("op_3401"), val = tensor<bool, []>(true)];
            tensor<int32, [1]> var_3403 = const()[name = tensor<string, []>("op_3403"), val = tensor<int32, [1]>([-1])];
            tensor<fp16, [1, 128, 1]> second_347_cast_fp16 = reduce_mean(axes = var_3403, keep_dims = var_3401, x = input_tensor_575_cast_fp16)[name = tensor<string, []>("second_347_cast_fp16")];
            tensor<fp16, [1, 128, 384]> input_tensor_577_cast_fp16 = sub(x = input_tensor_575_cast_fp16, y = second_347_cast_fp16)[name = tensor<string, []>("input_tensor_577_cast_fp16")];
            tensor<fp16, []> encoder_layer_7_output_LayerNorm_Constant_value_to_fp16 = const()[name = tensor<string, []>("encoder_layer_7_output_LayerNorm_Constant_value_to_fp16"), val = tensor<fp16, []>(0x1p+1)];
            tensor<fp16, [1, 128, 384]> input_tensor_579_cast_fp16 = pow(x = input_tensor_577_cast_fp16, y = encoder_layer_7_output_LayerNorm_Constant_value_to_fp16)[name = tensor<string, []>("input_tensor_579_cast_fp16")];
            tensor<bool, []> var_3409 = const()[name = tensor<string, []>("op_3409"), val = tensor<bool, []>(true)];
            tensor<int32, [1]> var_3411 = const()[name = tensor<string, []>("op_3411"), val = tensor<int32, [1]>([-1])];
            tensor<fp16, [1, 128, 1]> first_313_cast_fp16 = reduce_mean(axes = var_3411, keep_dims = var_3409, x = input_tensor_579_cast_fp16)[name = tensor<string, []>("first_313_cast_fp16")];
            tensor<fp16, []> encoder_layer_7_output_LayerNorm_Constant_1_value_to_fp16 = const()[name = tensor<string, []>("encoder_layer_7_output_LayerNorm_Constant_1_value_to_fp16"), val = tensor<fp16, []>(0x1p-24)];
            tensor<fp16, [1, 128, 1]> input_tensor_581_cast_fp16 = add(x = first_313_cast_fp16, y = encoder_layer_7_output_LayerNorm_Constant_1_value_to_fp16)[name = tensor<string, []>("input_tensor_581_cast_fp16")];
            tensor<fp16, [1, 128, 1]> second_351_cast_fp16 = sqrt(x = input_tensor_581_cast_fp16)[name = tensor<string, []>("second_351_cast_fp16")];
            tensor<fp16, [1, 128, 384]> first_315_cast_fp16 = real_div(x = input_tensor_577_cast_fp16, y = second_351_cast_fp16)[name = tensor<string, []>("first_315_cast_fp16")];
            tensor<fp16, [384]> initializers_onnx_initializer_131_to_fp16 = const()[name = tensor<string, []>("initializers_onnx_initializer_131_to_fp16"), val = tensor<fp16, [384]>(BLOBFILE(path = tensor<string, []>("@model_path/weights/weight.bin"), offset = tensor<uint64, []>(51940608)))];
            tensor<fp16, [1, 128, 384]> first_317_cast_fp16 = mul(x = first_315_cast_fp16, y = initializers_onnx_initializer_131_to_fp16)[name = tensor<string, []>("first_317_cast_fp16")];
            tensor<fp16, [384]> initializers_onnx_initializer_132_to_fp16 = const()[name = tensor<string, []>("initializers_onnx_initializer_132_to_fp16"), val = tensor<fp16, [384]>(BLOBFILE(path = tensor<string, []>("@model_path/weights/weight.bin"), offset = tensor<uint64, []>(51941440)))];
            tensor<fp16, [1, 128, 384]> x_99_cast_fp16 = add(x = first_317_cast_fp16, y = initializers_onnx_initializer_132_to_fp16)[name = tensor<string, []>("x_99_cast_fp16")];
            tensor<fp16, [384, 384]> input_tensor_605_weight_0_to_fp16 = const()[name = tensor<string, []>("input_tensor_605_weight_0_to_fp16"), val = tensor<fp16, [384, 384]>(BLOBFILE(path = tensor<string, []>("@model_path/weights/weight.bin"), offset = tensor<uint64, []>(51942272)))];
            tensor<fp16, [384]> input_tensor_605_bias_0_to_fp16 = const()[name = tensor<string, []>("input_tensor_605_bias_0_to_fp16"), val = tensor<fp16, [384]>(BLOBFILE(path = tensor<string, []>("@model_path/weights/weight.bin"), offset = tensor<uint64, []>(52237248)))];
            tensor<fp16, [1, 128, 384]> input_tensor_605_cast_fp16 = linear(bias = input_tensor_605_bias_0_to_fp16, weight = input_tensor_605_weight_0_to_fp16, x = x_99_cast_fp16)[name = tensor<string, []>("input_tensor_605_cast_fp16")];
            tensor<fp16, [384, 384]> input_tensor_583_weight_0_to_fp16 = const()[name = tensor<string, []>("input_tensor_583_weight_0_to_fp16"), val = tensor<fp16, [384, 384]>(BLOBFILE(path = tensor<string, []>("@model_path/weights/weight.bin"), offset = tensor<uint64, []>(52238080)))];
            tensor<fp16, [384]> input_tensor_583_bias_0_to_fp16 = const()[name = tensor<string, []>("input_tensor_583_bias_0_to_fp16"), val = tensor<fp16, [384]>(BLOBFILE(path = tensor<string, []>("@model_path/weights/weight.bin"), offset = tensor<uint64, []>(52533056)))];
            tensor<fp16, [1, 128, 384]> input_tensor_583_cast_fp16 = linear(bias = input_tensor_583_bias_0_to_fp16, weight = input_tensor_583_weight_0_to_fp16, x = x_99_cast_fp16)[name = tensor<string, []>("input_tensor_583_cast_fp16")];
            tensor<int32, [4]> var_3471 = const()[name = tensor<string, []>("op_3471"), val = tensor<int32, [4]>([1, 128, 12, 32])];
            tensor<fp16, [1, 128, 12, 32]> input_tensor_617_cast_fp16 = reshape(shape = var_3471, x = input_tensor_583_cast_fp16)[name = tensor<string, []>("input_tensor_617_cast_fp16")];
            tensor<fp16, [384, 384]> input_tensor_593_weight_0_to_fp16 = const()[name = tensor<string, []>("input_tensor_593_weight_0_to_fp16"), val = tensor<fp16, [384, 384]>(BLOBFILE(path = tensor<string, []>("@model_path/weights/weight.bin"), offset = tensor<uint64, []>(52533888)))];
            tensor<fp16, [384]> input_tensor_593_bias_0_to_fp16 = const()[name = tensor<string, []>("input_tensor_593_bias_0_to_fp16"), val = tensor<fp16, [384]>(BLOBFILE(path = tensor<string, []>("@model_path/weights/weight.bin"), offset = tensor<uint64, []>(52828864)))];
            tensor<fp16, [1, 128, 384]> input_tensor_593_cast_fp16 = linear(bias = input_tensor_593_bias_0_to_fp16, weight = input_tensor_593_weight_0_to_fp16, x = x_99_cast_fp16)[name = tensor<string, []>("input_tensor_593_cast_fp16")];
            tensor<int32, [4]> var_3521 = const()[name = tensor<string, []>("op_3521"), val = tensor<int32, [4]>([1, 128, 12, 32])];
            tensor<fp16, [1, 128, 12, 32]> input_tensor_603_cast_fp16 = reshape(shape = var_3521, x = input_tensor_593_cast_fp16)[name = tensor<string, []>("input_tensor_603_cast_fp16")];
            tensor<int32, [4]> var_3527 = const()[name = tensor<string, []>("op_3527"), val = tensor<int32, [4]>([0, 2, 1, 3])];
            tensor<int32, [4]> var_3574 = const()[name = tensor<string, []>("op_3574"), val = tensor<int32, [4]>([1, 128, 12, 32])];
            tensor<fp16, [1, 128, 12, 32]> input_tensor_615_cast_fp16 = reshape(shape = var_3574, x = input_tensor_605_cast_fp16)[name = tensor<string, []>("input_tensor_615_cast_fp16")];
            tensor<bool, []> first_325_transpose_x_0 = const()[name = tensor<string, []>("first_325_transpose_x_0"), val = tensor<bool, []>(false)];
            tensor<bool, []> first_325_transpose_y_0 = const()[name = tensor<string, []>("first_325_transpose_y_0"), val = tensor<bool, []>(false)];
            tensor<int32, [4]> transpose_136_perm_0 = const()[name = tensor<string, []>("transpose_136_perm_0"), val = tensor<int32, [4]>([0, 2, -3, -1])];
            tensor<int32, [4]> transpose_137_perm_0 = const()[name = tensor<string, []>("transpose_137_perm_0"), val = tensor<int32, [4]>([0, 2, -1, -3])];
            tensor<fp16, [1, 12, 32, 128]> transpose_157 = transpose(perm = transpose_137_perm_0, x = input_tensor_617_cast_fp16)[name = tensor<string, []>("transpose_157")];
            tensor<fp16, [1, 12, 128, 32]> transpose_158 = transpose(perm = transpose_136_perm_0, x = input_tensor_615_cast_fp16)[name = tensor<string, []>("transpose_158")];
            tensor<fp16, [1, 12, 128, 128]> first_325_cast_fp16 = matmul(transpose_x = first_325_transpose_x_0, transpose_y = first_325_transpose_y_0, x = transpose_158, y = transpose_157)[name = tensor<string, []>("first_325_cast_fp16")];
            tensor<fp16, []> _inversed_first_327_y_0_to_fp16 = const()[name = tensor<string, []>("_inversed_first_327_y_0_to_fp16"), val = tensor<fp16, []>(0x1.6ap-3)];
            tensor<fp16, [1, 12, 128, 128]> _inversed_first_327_cast_fp16 = mul(x = first_325_cast_fp16, y = _inversed_first_327_y_0_to_fp16)[name = tensor<string, []>("_inversed_first_327_cast_fp16")];
            tensor<fp16, [1, 12, 128, 128]> input_tensor_619_cast_fp16 = add(x = _inversed_first_327_cast_fp16, y = second_27_cast_fp16)[name = tensor<string, []>("input_tensor_619_cast_fp16")];
            tensor<int32, []> var_3593 = const()[name = tensor<string, []>("op_3593"), val = tensor<int32, []>(-1)];
            tensor<fp16, [1, 12, 128, 128]> result_17_cast_fp16 = softmax(axis = var_3593, x = input_tensor_619_cast_fp16)[name = tensor<string, []>("result_17_cast_fp16")];
            tensor<bool, []> input_tensor_623_transpose_x_0 = const()[name = tensor<string, []>("input_tensor_623_transpose_x_0"), val = tensor<bool, []>(false)];
            tensor<bool, []> input_tensor_623_transpose_y_0 = const()[name = tensor<string, []>("input_tensor_623_transpose_y_0"), val = tensor<bool, []>(false)];
            tensor<fp16, [1, 12, 128, 32]> transpose_159 = transpose(perm = var_3527, x = input_tensor_603_cast_fp16)[name = tensor<string, []>("transpose_159")];
            tensor<fp16, [1, 12, 128, 32]> input_tensor_623_cast_fp16 = matmul(transpose_x = input_tensor_623_transpose_x_0, transpose_y = input_tensor_623_transpose_y_0, x = result_17_cast_fp16, y = transpose_159)[name = tensor<string, []>("input_tensor_623_cast_fp16")];
            tensor<int32, [4]> var_3611 = const()[name = tensor<string, []>("op_3611"), val = tensor<int32, [4]>([0, 2, 1, 3])];
            tensor<int32, [3]> var_3656 = const()[name = tensor<string, []>("op_3656"), val = tensor<int32, [3]>([1, 128, 384])];
            tensor<fp16, [1, 128, 12, 32]> transpose_156 = transpose(perm = var_3611, x = input_tensor_623_cast_fp16)[name = tensor<string, []>("transpose_156")];
            tensor<fp16, [1, 128, 384]> x_105_cast_fp16 = reshape(shape = var_3656, x = transpose_156)[name = tensor<string, []>("x_105_cast_fp16")];
            tensor<fp16, [384, 384]> first_331_weight_0_to_fp16 = const()[name = tensor<string, []>("first_331_weight_0_to_fp16"), val = tensor<fp16, [384, 384]>(BLOBFILE(path = tensor<string, []>("@model_path/weights/weight.bin"), offset = tensor<uint64, []>(52829696)))];
            tensor<fp16, [384]> first_331_bias_0_to_fp16 = const()[name = tensor<string, []>("first_331_bias_0_to_fp16"), val = tensor<fp16, [384]>(BLOBFILE(path = tensor<string, []>("@model_path/weights/weight.bin"), offset = tensor<uint64, []>(53124672)))];
            tensor<fp16, [1, 128, 384]> first_331_cast_fp16 = linear(bias = first_331_bias_0_to_fp16, weight = first_331_weight_0_to_fp16, x = x_105_cast_fp16)[name = tensor<string, []>("first_331_cast_fp16")];
            tensor<fp16, [1, 128, 384]> input_tensor_635_cast_fp16 = add(x = first_331_cast_fp16, y = x_99_cast_fp16)[name = tensor<string, []>("input_tensor_635_cast_fp16")];
            tensor<bool, []> var_3664 = const()[name = tensor<string, []>("op_3664"), val = tensor<bool, []>(true)];
            tensor<int32, [1]> var_3666 = const()[name = tensor<string, []>("op_3666"), val = tensor<int32, [1]>([-1])];
            tensor<fp16, [1, 128, 1]> second_367_cast_fp16 = reduce_mean(axes = var_3666, keep_dims = var_3664, x = input_tensor_635_cast_fp16)[name = tensor<string, []>("second_367_cast_fp16")];
            tensor<fp16, [1, 128, 384]> input_tensor_637_cast_fp16 = sub(x = input_tensor_635_cast_fp16, y = second_367_cast_fp16)[name = tensor<string, []>("input_tensor_637_cast_fp16")];
            tensor<fp16, []> encoder_layer_8_attention_output_LayerNorm_Constant_value_to_fp16 = const()[name = tensor<string, []>("encoder_layer_8_attention_output_LayerNorm_Constant_value_to_fp16"), val = tensor<fp16, []>(0x1p+1)];
            tensor<fp16, [1, 128, 384]> input_tensor_639_cast_fp16 = pow(x = input_tensor_637_cast_fp16, y = encoder_layer_8_attention_output_LayerNorm_Constant_value_to_fp16)[name = tensor<string, []>("input_tensor_639_cast_fp16")];
            tensor<bool, []> var_3672 = const()[name = tensor<string, []>("op_3672"), val = tensor<bool, []>(true)];
            tensor<int32, [1]> var_3674 = const()[name = tensor<string, []>("op_3674"), val = tensor<int32, [1]>([-1])];
            tensor<fp16, [1, 128, 1]> first_333_cast_fp16 = reduce_mean(axes = var_3674, keep_dims = var_3672, x = input_tensor_639_cast_fp16)[name = tensor<string, []>("first_333_cast_fp16")];
            tensor<fp16, []> encoder_layer_8_attention_output_LayerNorm_Constant_1_value_to_fp16 = const()[name = tensor<string, []>("encoder_layer_8_attention_output_LayerNorm_Constant_1_value_to_fp16"), val = tensor<fp16, []>(0x1p-24)];
            tensor<fp16, [1, 128, 1]> input_tensor_641_cast_fp16 = add(x = first_333_cast_fp16, y = encoder_layer_8_attention_output_LayerNorm_Constant_1_value_to_fp16)[name = tensor<string, []>("input_tensor_641_cast_fp16")];
            tensor<fp16, [1, 128, 1]> second_371_cast_fp16 = sqrt(x = input_tensor_641_cast_fp16)[name = tensor<string, []>("second_371_cast_fp16")];
            tensor<fp16, [1, 128, 384]> first_335_cast_fp16 = real_div(x = input_tensor_637_cast_fp16, y = second_371_cast_fp16)[name = tensor<string, []>("first_335_cast_fp16")];
            tensor<fp16, [384]> initializers_onnx_initializer_141_to_fp16 = const()[name = tensor<string, []>("initializers_onnx_initializer_141_to_fp16"), val = tensor<fp16, [384]>(BLOBFILE(path = tensor<string, []>("@model_path/weights/weight.bin"), offset = tensor<uint64, []>(53125504)))];
            tensor<fp16, [1, 128, 384]> first_337_cast_fp16 = mul(x = first_335_cast_fp16, y = initializers_onnx_initializer_141_to_fp16)[name = tensor<string, []>("first_337_cast_fp16")];
            tensor<fp16, [384]> initializers_onnx_initializer_142_to_fp16 = const()[name = tensor<string, []>("initializers_onnx_initializer_142_to_fp16"), val = tensor<fp16, [384]>(BLOBFILE(path = tensor<string, []>("@model_path/weights/weight.bin"), offset = tensor<uint64, []>(53126336)))];
            tensor<fp16, [1, 128, 384]> x_107_cast_fp16 = add(x = first_337_cast_fp16, y = initializers_onnx_initializer_142_to_fp16)[name = tensor<string, []>("x_107_cast_fp16")];
            tensor<fp16, [1536, 384]> first_341_weight_0_to_fp16 = const()[name = tensor<string, []>("first_341_weight_0_to_fp16"), val = tensor<fp16, [1536, 384]>(BLOBFILE(path = tensor<string, []>("@model_path/weights/weight.bin"), offset = tensor<uint64, []>(53127168)))];
            tensor<fp16, [1536]> first_341_bias_0_to_fp16 = const()[name = tensor<string, []>("first_341_bias_0_to_fp16"), val = tensor<fp16, [1536]>(BLOBFILE(path = tensor<string, []>("@model_path/weights/weight.bin"), offset = tensor<uint64, []>(54306880)))];
            tensor<fp16, [1, 128, 1536]> first_341_cast_fp16 = linear(bias = first_341_bias_0_to_fp16, weight = first_341_weight_0_to_fp16, x = x_107_cast_fp16)[name = tensor<string, []>("first_341_cast_fp16")];
            tensor<string, []> x_109_mode_0 = const()[name = tensor<string, []>("x_109_mode_0"), val = tensor<string, []>("EXACT")];
            tensor<fp16, [1, 128, 1536]> x_109_cast_fp16 = gelu(mode = x_109_mode_0, x = first_341_cast_fp16)[name = tensor<string, []>("x_109_cast_fp16")];
            tensor<fp16, [384, 1536]> first_349_weight_0_to_fp16 = const()[name = tensor<string, []>("first_349_weight_0_to_fp16"), val = tensor<fp16, [384, 1536]>(BLOBFILE(path = tensor<string, []>("@model_path/weights/weight.bin"), offset = tensor<uint64, []>(54310016)))];
            tensor<fp16, [384]> first_349_bias_0_to_fp16 = const()[name = tensor<string, []>("first_349_bias_0_to_fp16"), val = tensor<fp16, [384]>(BLOBFILE(path = tensor<string, []>("@model_path/weights/weight.bin"), offset = tensor<uint64, []>(55489728)))];
            tensor<fp16, [1, 128, 384]> first_349_cast_fp16 = linear(bias = first_349_bias_0_to_fp16, weight = first_349_weight_0_to_fp16, x = x_109_cast_fp16)[name = tensor<string, []>("first_349_cast_fp16")];
            tensor<fp16, [1, 128, 384]> input_tensor_645_cast_fp16 = add(x = first_349_cast_fp16, y = x_107_cast_fp16)[name = tensor<string, []>("input_tensor_645_cast_fp16")];
            tensor<bool, []> var_3698 = const()[name = tensor<string, []>("op_3698"), val = tensor<bool, []>(true)];
            tensor<int32, [1]> var_3700 = const()[name = tensor<string, []>("op_3700"), val = tensor<int32, [1]>([-1])];
…
            tensor<fp16, [384]> initializers_onnx_initializer_147_to_fp16 = const()[name = tensor<string, []>("initializers_onnx_initializer_147_to_fp16"), val = tensor<fp16, [384]>(BLOBFILE(path = tensor<string, []>("@model_path/weights/weight.bin"), offset = tensor<uint64, []>(55490560)))];
            tensor<fp16, [1, 128, 384]> first_355_cast_fp16 = mul(x = first_353_cast_fp16, y = initializers_onnx_initializer_147_to_fp16)[name = tensor<string, []>("first_355_cast_fp16")];
            tensor<fp16, [384]> initializers_onnx_initializer_148_to_fp16 = const()[name = tensor<string, []>("initializers_onnx_initializer_148_to_fp16"), val = tensor<fp16, [384]>(BLOBFILE(path = tensor<string, []>("@model_path/weights/weight.bin"), offset = tensor<uint64, []>(55491392)))];
            tensor<fp16, [1, 128, 384]> x_111_cast_fp16 = add(x = first_355_cast_fp16, y = initializers_onnx_initializer_148_to_fp16)[name = tensor<string, []>("x_111_cast_fp16")];
            tensor<fp16, [384, 384]> input_tensor_675_weight_0_to_fp16 = const()[name = tensor<string, []>("input_tensor_675_weight_0_to_fp16"), val = tensor<fp16, [384, 384]>(BLOBFILE(path = tensor<string, []>("@model_path/weights/weight.bin"), offset = tensor<uint64, []>(55492224)))];
            tensor<fp16, [384]> input_tensor_675_bias_0_to_fp16 = const()[name = tensor<string, []>("input_tensor_675_bias_0_to_fp16"), val = tensor<fp16, [384]>(BLOBFILE(path = tensor<string, []>("@model_path/weights/weight.bin"), offset = tensor<uint64, []>(55787200)))];
            tensor<fp16, [1, 128, 384]> input_tensor_675_cast_fp16 = linear(bias = input_tensor_675_bias_0_to_fp16, weight = input_tensor_675_weight_0_to_fp16, x = x_111_cast_fp16)[name = tensor<string, []>("input_tensor_675_cast_fp16")];
            tensor<fp16, [384, 384]> input_tensor_653_weight_0_to_fp16 = const()[name = tensor<string, []>("input_tensor_653_weight_0_to_fp16"), val = tensor<fp16, [384, 384]>(BLOBFILE(path = tensor<string, []>("@model_path/weights/weight.bin"), offset = tensor<uint64, []>(55788032)))];
            tensor<fp16, [384]> input_tensor_653_bias_0_to_fp16 = const()[name = tensor<string, []>("input_tensor_653_bias_0_to_fp16"), val = tensor<fp16, [384]>(BLOBFILE(path = tensor<string, []>("@model_path/weights/weight.bin"), offset = tensor<uint64, []>(56083008)))];
            tensor<fp16, [1, 128, 384]> input_tensor_653_cast_fp16 = linear(bias = input_tensor_653_bias_0_to_fp16, weight = input_tensor_653_weight_0_to_fp16, x = x_111_cast_fp16)[name = tensor<string, []>("input_tensor_653_cast_fp16")];
            tensor<int32, [4]> var_3768 = const()[name = tensor<string, []>("op_3768"), val = tensor<int32, [4]>([1, 128, 12, 32])];
            tensor<fp16, [1, 128, 12, 32]> input_tensor_687_cast_fp16 = reshape(shape = var_3768, x = input_tensor_653_cast_fp16)[name = tensor<string, []>("input_tensor_687_cast_fp16")];
            tensor<fp16, [384, 384]> input_tensor_663_weight_0_to_fp16 = const()[name = tensor<string, []>("input_tensor_663_weight_0_to_fp16"), val = tensor<fp16, [384, 384]>(BLOBFILE(path = tensor<string, []>("@model_path/weights/weight.bin"), offset = tensor<uint64, []>(56083840)))];
            tensor<fp16, [384]> input_tensor_663_bias_0_to_fp16 = const()[name = tensor<string, []>("input_tensor_663_bias_0_to_fp16"), val = tensor<fp16, [384]>(BLOBFILE(path = tensor<string, []>("@model_path/weights/weight.bin"), offset = tensor<uint64, []>(56378816)))];
            tensor<fp16, [1, 128, 384]> input_tensor_663_cast_fp16 = linear(bias = input_tensor_663_bias_0_to_fp16, weight = input_tensor_663_weight_0_to_fp16, x = x_111_cast_fp16)[name = tensor<string, []>("input_tensor_663_cast_fp16")];
            tensor<int32, [4]> var_3818 = const()[name = tensor<string, []>("op_3818"), val = tensor<int32, [4]>([1, 128, 12, 32])];
            tensor<fp16, [1, 128, 12, 32]> input_tensor_673_cast_fp16 = reshape(shape = var_3818, x = input_tensor_663_cast_fp16)[name = tensor<string, []>("input_tensor_673_cast_fp16")];
            tensor<int32, [4]> var_3824 = const()[name = tensor<string, []>("op_3824"), val = tensor<int32, [4]>([0, 2, 1, 3])];
            tensor<int32, [4]> var_3871 = const()[name = tensor<string, []>("op_3871"), val = tensor<int32, [4]>([1, 128, 12, 32])];
            tensor<fp16, [1, 128, 12, 32]> input_tensor_685_cast_fp16 = reshape(shape = var_3871, x = input_tensor_675_cast_fp16)[name = tensor<string, []>("input_tensor_685_cast_fp16")];
            tensor<bool, []> first_363_transpose_x_0 = const()[name = tensor<string, []>("first_363_transpose_x_0"), val = tensor<bool, []>(false)];
            tensor<bool, []> first_363_transpose_y_0 = const()[name = tensor<string, []>("first_363_transpose_y_0"), val = tensor<bool, []>(false)];
            tensor<int32, [4]> transpose_138_perm_0 = const()[name = tensor<string, []>("transpose_138_perm_0"), val = tensor<int32, [4]>([0, 2, -3, -1])];
            tensor<int32, [4]> transpose_139_perm_0 = const()[name = tensor<string, []>("transpose_139_perm_0"), val = tensor<int32, [4]>([0, 2, -1, -3])];
            tensor<fp16, [1, 12, 32, 128]> transpose_153 = transpose(perm = transpose_139_perm_0, x = input_tensor_687_cast_fp16)[name = tensor<string, []>("transpose_153")];
            tensor<fp16, [1, 12, 128, 32]> transpose_154 = transpose(perm = transpose_138_perm_0, x = input_tensor_685_cast_fp16)[name = tensor<string, []>("transpose_154")];
            tensor<fp16, [1, 12, 128, 128]> first_363_cast_fp16 = matmul(transpose_x = first_363_transpose_x_0, transpose_y = first_363_transpose_y_0, x = transpose_154, y = transpose_153)[name = tensor<string, []>("first_363_cast_fp16")];
            tensor<fp16, []> _inversed_first_365_y_0_to_fp16 = const()[name = tensor<string, []>("_inversed_first_365_y_0_to_fp16"), val = tensor<fp16, []>(0x1.6ap-3)];
            tensor<fp16, [1, 12, 128, 128]> _inversed_first_365_cast_fp16 = mul(x = first_363_cast_fp16, y = _inversed_first_365_y_0_to_fp16)[name = tensor<string, []>("_inversed_first_365_cast_fp16")];
            tensor<fp16, [1, 12, 128, 128]> input_tensor_689_cast_fp16 = add(x = _inversed_first_365_cast_fp16, y = second_27_cast_fp16)[name = tensor<string, []>("input_tensor_689_cast_fp16")];
            tensor<int32, []> var_3890 = const()[name = tensor<string, []>("op_3890"), val = tensor<int32, []>(-1)];
            tensor<fp16, [1, 12, 128, 128]> result_19_cast_fp16 = softmax(axis = var_3890, x = input_tensor_689_cast_fp16)[name = tensor<string, []>("result_19_cast_fp16")];
            tensor<bool, []> input_tensor_693_transpose_x_0 = const()[name = tensor<string, []>("input_tensor_693_transpose_x_0"), val = tensor<bool, []>(false)];
            tensor<bool, []> input_tensor_693_transpose_y_0 = const()[name = tensor<string, []>("input_tensor_693_transpose_y_0"), val = tensor<bool, []>(false)];
            tensor<fp16, [1, 12, 128, 32]> transpose_155 = transpose(perm = var_3824, x = input_tensor_673_cast_fp16)[name = tensor<string, []>("transpose_155")];
            tensor<fp16, [1, 12, 128, 32]> input_tensor_693_cast_fp16 = matmul(transpose_x = input_tensor_693_transpose_x_0, transpose_y = input_tensor_693_transpose_y_0, x = result_19_cast_fp16, y = transpose_155)[name = tensor<string, []>("input_tensor_693_cast_fp16")];
            tensor<int32, [4]> var_3908 = const()[name = tensor<string, []>("op_3908"), val = tensor<int32, [4]>([0, 2, 1, 3])];
            tensor<int32, [3]> var_3953 = const()[name = tensor<string, []>("op_3953"), val = tensor<int32, [3]>([1, 128, 384])];
            tensor<fp16, [1, 128, 12, 32]> transpose_152 = transpose(perm = var_3908, x = input_tensor_693_cast_fp16)[name = tensor<string, []>("transpose_152")];
            tensor<fp16, [1, 128, 384]> x_117_cast_fp16 = reshape(shape = var_3953, x = transpose_152)[name = tensor<string, []>("x_117_cast_fp16")];
            tensor<fp16, [384, 384]> first_369_weight_0_to_fp16 = const()[name = tensor<string, []>("first_369_weight_0_to_fp16"), val = tensor<fp16, [384, 384]>(BLOBFILE(path = tensor<string, []>("@model_path/weights/weight.bin"), offset = tensor<uint64, []>(56379648)))];
            tensor<fp16, [384]> first_369_bias_0_to_fp16 = const()[name = tensor<string, []>("first_369_bias_0_to_fp16"), val = tensor<fp16, [384]>(BLOBFILE(path = tensor<string, []>("@model_path/weights/weight.bin"), offset = tensor<uint64, []>(56674624)))];
            tensor<fp16, [1, 128, 384]> first_369_cast_fp16 = linear(bias = first_369_bias_0_to_fp16, weight = first_369_weight_0_to_fp16, x = x_117_cast_fp16)[name = tensor<string, []>("first_369_cast_fp16")];
            tensor<fp16, [1, 128, 384]> input_tensor_705_cast_fp16 = add(x = first_369_cast_fp16, y = x_111_cast_fp16)[name = tensor<string, []>("input_tensor_705_cast_fp16")];
            tensor<bool, []> var_3961 = const()[name = tensor<string, []>("op_3961"), val = tensor<bool, []>(true)];
            tensor<int32, [1]> var_3963 = const()[name = tensor<string, []>("op_3963"), val = tensor<int32, [1]>([-1])];
            tensor<fp16, [1, 128, 1]> second_409_cast_fp16 = reduce_mean(axes = var_3963, keep_dims = var_3961, x = input_tensor_705_cast_fp16)[name = tensor<string, []>("second_409_cast_fp16")];
            tensor<fp16, [1, 128, 384]> input_tensor_707_cast_fp16 = sub(x = input_tensor_705_cast_fp16, y = second_409_cast_fp16)[name = tensor<string, []>("input_tensor_707_cast_fp16")];
            tensor<fp16, []> encoder_layer_9_attention_output_LayerNorm_Constant_value_to_fp16 = const()[name = tensor<string, []>("encoder_layer_9_attention_output_LayerNorm_Constant_value_to_fp16"), val = tensor<fp16, []>(0x1p+1)];
            tensor<fp16, [1, 128, 384]> input_tensor_709_cast_fp16 = pow(x = input_tensor_707_cast_fp16, y = encoder_layer_9_attention_output_LayerNorm_Constant_value_to_fp16)[name = tensor<string, []>("input_tensor_709_cast_fp16")];
            tensor<bool, []> var_3969 = const()[name = tensor<string, []>("op_3969"), val = tensor<bool, []>(true)];
            tensor<int32, [1]> var_3971 = const()[name = tensor<string, []>("op_3971"), val = tensor<int32, [1]>([-1])];
            tensor<fp16, [1, 128, 1]> first_371_cast_fp16 = reduce_mean(axes = var_3971, keep_dims = var_3969, x = input_tensor_709_cast_fp16)[name = tensor<string, []>("first_371_cast_fp16")];
            tensor<fp16, []> encoder_layer_9_attention_output_LayerNorm_Constant_1_value_to_fp16 = const()[name = tensor<string, []>("encoder_layer_9_attention_output_LayerNorm_Constant_1_value_to_fp16"), val = tensor<fp16, []>(0x1p-24)];
            tensor<fp16, [1, 128, 1]> input_tensor_711_cast_fp16 = add(x = first_371_cast_fp16, y = encoder_layer_9_attention_output_LayerNorm_Constant_1_value_to_fp16)[name = tensor<string, []>("input_tensor_711_cast_fp16")];
            tensor<fp16, [1, 128, 1]> second_413_cast_fp16 = sqrt(x = input_tensor_711_cast_fp16)[name = tensor<string, []>("second_413_cast_fp16")];
            tensor<fp16, [1, 128, 384]> first_373_cast_fp16 = real_div(x = input_tensor_707_cast_fp16, y = second_413_cast_fp16)[name = tensor<string, []>("first_373_cast_fp16")];
            tensor<fp16, [384]> initializers_onnx_initializer_157_to_fp16 = const()[name = tensor<string, []>("initializers_onnx_initializer_157_to_fp16"), val = tensor<fp16, [384]>(BLOBFILE(path = tensor<string, []>("@model_path/weights/weight.bin"), offset = tensor<uint64, []>(56675456)))];
            tensor<fp16, [1, 128, 384]> first_375_cast_fp16 = mul(x = first_373_cast_fp16, y = initializers_onnx_initializer_157_to_fp16)[name = tensor<string, []>("first_375_cast_fp16")];
            tensor<fp16, [384]> initializers_onnx_initializer_158_to_fp16 = const()[name = tensor<string, []>("initializers_onnx_initializer_158_to_fp16"), val = tensor<fp16, [384]>(BLOBFILE(path = tensor<string, []>("@model_path/weights/weight.bin"), offset = tensor<uint64, []>(56676288)))];
            tensor<fp16, [1, 128, 384]> x_119_cast_fp16 = add(x = first_375_cast_fp16, y = initializers_onnx_initializer_158_to_fp16)[name = tensor<string, []>("x_119_cast_fp16")];
            tensor<fp16, [1536, 384]> first_379_weight_0_to_fp16 = const()[name = tensor<string, []>("first_379_weight_0_to_fp16"), val = tensor<fp16, [1536, 384]>(BLOBFILE(path = tensor<string, []>("@model_path/weights/weight.bin"), offset = tensor<uint64, []>(56677120)))];
            tensor<fp16, [1536]> first_379_bias_0_to_fp16 = const()[name = tensor<string, []>("first_379_bias_0_to_fp16"), val = tensor<fp16, [1536]>(BLOBFILE(path = tensor<string, []>("@model_path/weights/weight.bin"), offset = tensor<uint64, []>(57856832)))];
            tensor<fp16, [1, 128, 1536]> first_379_cast_fp16 = linear(bias = first_379_bias_0_to_fp16, weight = first_379_weight_0_to_fp16, x = x_119_cast_fp16)[name = tensor<string, []>("first_379_cast_fp16")];
            tensor<string, []> x_121_mode_0 = const()[name = tensor<string, []>("x_121_mode_0"), val = tensor<string, []>("EXACT")];
            tensor<fp16, [1, 128, 1536]> x_121_cast_fp16 = gelu(mode = x_121_mode_0, x = first_379_cast_fp16)[name = tensor<string, []>("x_121_cast_fp16")];
            tensor<fp16, [384, 1536]> first_387_weight_0_to_fp16 = const()[name = tensor<string, []>("first_387_weight_0_to_fp16"), val = tensor<fp16, [384, 1536]>(BLOBFILE(path = tensor<string, []>("@model_path/weights/weight.bin"), offset = tensor<uint64, []>(57859968)))];
            tensor<fp16, [384]> first_387_bias_0_to_fp16 = const()[name = tensor<string, []>("first_387_bias_0_to_fp16"), val = tensor<fp16, [384]>(BLOBFILE(path = tensor<string, []>("@model_path/weights/weight.bin"), offset = tensor<uint64, []>(59039680)))];
            tensor<fp16, [1, 128, 384]> first_387_cast_fp16 = linear(bias = first_387_bias_0_to_fp16, weight = first_387_weight_0_to_fp16, x = x_121_cast_fp16)[name = tensor<string, []>("first_387_cast_fp16")];
            tensor<fp16, [1, 128, 384]> input_tensor_715_cast_fp16 = add(x = first_387_cast_fp16, y = x_119_cast_fp16)[name = tensor<string, []>("input_tensor_715_cast_fp16")];
            tensor<bool, []> var_3995 = const()[name = tensor<string, []>("op_3995"), val = tensor<bool, []>(true)];
            tensor<int32, [1]> var_3997 = const()[name = tensor<string, []>("op_3997"), val = tensor<int32, [1]>([-1])];
            tensor<fp16, [1, 128, 1]> second_431_cast_fp16 = reduce_mean(axes = var_3997, keep_dims = var_3995, x = input_tensor_715_cast_fp16)[name = tensor<string, []>("second_431_cast_fp16")];
            tensor<fp16, [1, 128, 384]> input_tensor_717_cast_fp16 = sub(x = input_tensor_715_cast_fp16, y = second_431_cast_fp16)[name = tensor<string, []>("input_tensor_717_cast_fp16")];
            tensor<fp16, []> encoder_layer_9_output_LayerNorm_Constant_value_to_fp16 = const()[name = tensor<string, []>("encoder_layer_9_output_LayerNorm_Constant_value_to_fp16"), val = tensor<fp16, []>(0x1p+1)];
            tensor<fp16, [1, 128, 384]> input_tensor_719_cast_fp16 = pow(x = input_tensor_717_cast_fp16, y = encoder_layer_9_output_LayerNorm_Constant_value_to_fp16)[name = tensor<string, []>("input_tensor_719_cast_fp16")];
            tensor<bool, []> var_4003 = const()[name = tensor<string, []>("op_4003"), val = tensor<bool, []>(true)];
            tensor<int32, [1]> var_4005 = const()[name = tensor<string, []>("op_4005"), val = tensor<int32, [1]>([-1])];
            tensor<fp16, [1, 128, 1]> first_389_cast_fp16 = reduce_mean(axes = var_4005, keep_dims = var_4003, x = input_tensor_719_cast_fp16)[name = tensor<string, []>("first_389_cast_fp16")];
            tensor<fp16, []> encoder_layer_9_output_LayerNorm_Constant_1_value_to_fp16 = const()[name = tensor<string, []>("encoder_layer_9_output_LayerNorm_Constant_1_value_to_fp16"), val = tensor<fp16, []>(0x1p-24)];
            tensor<fp16, [1, 128, 1]> input_tensor_721_cast_fp16 = add(x = first_389_cast_fp16, y = encoder_layer_9_output_LayerNorm_Constant_1_value_to_fp16)[name = tensor<string, []>("input_tensor_721_cast_fp16")];
            tensor<fp16, [1, 128, 1]> second_435_cast_fp16 = sqrt(x = input_tensor_721_cast_fp16)[name = tensor<string, []>("second_435_cast_fp16")];
            tensor<fp16, [1, 128, 384]> first_391_cast_fp16 = real_div(x = input_tensor_717_cast_fp16, y = second_435_cast_fp16)[name = tensor<string, []>("first_391_cast_fp16")];
            tensor<fp16, [384]> initializers_onnx_initializer_163_to_fp16 = const()[name = tensor<string, []>("initializers_onnx_initializer_163_to_fp16"), val = tensor<fp16, [384]>(BLOBFILE(path = tensor<string, []>("@model_path/weights/weight.bin"), offset = tensor<uint64, []>(59040512)))];
            tensor<fp16, [1, 128, 384]> first_393_cast_fp16 = mul(x = first_391_cast_fp16, y = initializers_onnx_initializer_163_to_fp16)[name = tensor<string, []>("first_393_cast_fp16")];
            tensor<fp16, [384]> initializers_onnx_initializer_164_to_fp16 = const()[name = tensor<string, []>("initializers_onnx_initializer_164_to_fp16"), val = tensor<fp16, [384]>(BLOBFILE(path = tensor<string, []>("@model_path/weights/weight.bin"), offset = tensor<uint64, []>(59041344)))];
            tensor<fp16, [1, 128, 384]> x_123_cast_fp16 = add(x = first_393_cast_fp16, y = initializers_onnx_initializer_164_to_fp16)[name = tensor<string, []>("x_123_cast_fp16")];
            tensor<fp16, [384, 384]> input_tensor_745_weight_0_to_fp16 = const()[name = tensor<string, []>("input_tensor_745_weight_0_to_fp16"), val = tensor<fp16, [384, 384]>(BLOBFILE(path = tensor<string, []>("@model_path/weights/weight.bin"), offset = tensor<uint64, []>(59042176)))];
            tensor<fp16, [384]> input_tensor_745_bias_0_to_fp16 = const()[name = tensor<string, []>("input_tensor_745_bias_0_to_fp16"), val = tensor<fp16, [384]>(BLOBFILE(path = tensor<string, []>("@model_path/weights/weight.bin"), offset = tensor<uint64, []>(59337152)))];
            tensor<fp16, [1, 128, 384]> input_tensor_745_cast_fp16 = linear(bias = input_tensor_745_bias_0_to_fp16, weight = input_tensor_745_weight_0_to_fp16, x = x_123_cast_fp16)[name = tensor<string, []>("input_tensor_745_cast_fp16")];
            tensor<fp16, [384, 384]> input_tensor_723_weight_0_to_fp16 = const()[name = tensor<string, []>("input_tensor_723_weight_0_to_fp16"), val = tensor<fp16, [384, 384]>(BLOBFILE(path = tensor<string, []>("@model_path/weights/weight.bin"), offset = tensor<uint64, []>(59337984)))];
            tensor<fp16, [384]> input_tensor_723_bias_0_to_fp16 = const()[name = tensor<string, []>("input_tensor_723_bias_0_to_fp16"), val = tensor<fp16, [384]>(BLOBFILE(path = tensor<string, []>("@model_path/weights/weight.bin"), offset = tensor<uint64, []>(59632960)))];
            tensor<fp16, [1, 128, 384]> input_tensor_723_cast_fp16 = linear(bias = input_tensor_723_bias_0_to_fp16, weight = input_tensor_723_weight_0_to_fp16, x = x_123_cast_fp16)[name = tensor<string, []>("input_tensor_723_cast_fp16")];
            tensor<int32, [4]> var_4065 = const()[name = tensor<string, []>("op_4065"), val = tensor<int32, [4]>([1, 128, 12, 32])];
            tensor<fp16, [1, 128, 12, 32]> input_tensor_757_cast_fp16 = reshape(shape = var_4065, x = input_tensor_723_cast_fp16)[name = tensor<string, []>("input_tensor_757_cast_fp16")];
            tensor<fp16, [384, 384]> input_tensor_733_weight_0_to_fp16 = const()[name = tensor<string, []>("input_tensor_733_weight_0_to_fp16"), val = tensor<fp16, [384, 384]>(BLOBFILE(path = tensor<string, []>("@model_path/weights/weight.bin"), offset = tensor<uint64, []>(59633792)))];
            tensor<fp16, [384]> input_tensor_733_bias_0_to_fp16 = const()[name = tensor<string, []>("input_tensor_733_bias_0_to_fp16"), val = tensor<fp16, [384]>(BLOBFILE(path = tensor<string, []>("@model_path/weights/weight.bin"), offset = tensor<uint64, []>(59928768)))];
            tensor<fp16, [1, 128, 384]> input_tensor_733_cast_fp16 = linear(bias = input_tensor_733_bias_0_to_fp16, weight = input_tensor_733_weight_0_to_fp16, x = x_123_cast_fp16)[name = tensor<string, []>("input_tensor_733_cast_fp16")];
            tensor<int32, [4]> var_4115 = const()[name = tensor<string, []>("op_4115"), val = tensor<int32, [4]>([1, 128, 12, 32])];
            tensor<fp16, [1, 128, 12, 32]> input_tensor_743_cast_fp16 = reshape(shape = var_4115, x = input_tensor_733_cast_fp16)[name = tensor<string, []>("input_tensor_743_cast_fp16")];
            tensor<int32, [4]> var_4121 = const()[name = tensor<string, []>("op_4121"), val = tensor<int32, [4]>([0, 2, 1, 3])];
            tensor<int32, [4]> var_4168 = const()[name = tensor<string, []>("op_4168"), val = tensor<int32, [4]>([1, 128, 12, 32])];
            tensor<fp16, [1, 128, 12, 32]> input_tensor_755_cast_fp16 = reshape(shape = var_4168, x = input_tensor_745_cast_fp16)[name = tensor<string, []>("input_tensor_755_cast_fp16")];
            tensor<bool, []> first_401_transpose_x_0 = const()[name = tensor<string, []>("first_401_transpose_x_0"), val = tensor<bool, []>(false)];
            tensor<bool, []> first_401_transpose_y_0 = const()[name = tensor<string, []>("first_401_transpose_y_0"), val = tensor<bool, []>(false)];
            tensor<int32, [4]> transpose_140_perm_0 = const()[name = tensor<string, []>("transpose_140_perm_0"), val = tensor<int32, [4]>([0, 2, -3, -1])];
            tensor<int32, [4]> transpose_141_perm_0 = const()[name = tensor<string, []>("transpose_141_perm_0"), val = tensor<int32, [4]>([0, 2, -1, -3])];
            tensor<fp16, [1, 12, 32, 128]> transpose_149 = transpose(perm = transpose_141_perm_0, x = input_tensor_757_cast_fp16)[name = tensor<string, []>("transpose_149")];
            tensor<fp16, [1, 12, 128, 32]> transpose_150 = transpose(perm = transpose_140_perm_0, x = input_tensor_755_cast_fp16)[name = tensor<string, []>("transpose_150")];
            tensor<fp16, [1, 12, 128, 128]> first_401_cast_fp16 = matmul(transpose_x = first_401_transpose_x_0, transpose_y = first_401_transpose_y_0, x = transpose_150, y = transpose_149)[name = tensor<string, []>("first_401_cast_fp16")];
            tensor<fp16, []> _inversed_first_403_y_0_to_fp16 = const()[name = tensor<string, []>("_inversed_first_403_y_0_to_fp16"), val = tensor<fp16, []>(0x1.6ap-3)];
            tensor<fp16, [1, 12, 128, 128]> _inversed_first_403_cast_fp16 = mul(x = first_401_cast_fp16, y = _inversed_first_403_y_0_to_fp16)[name = tensor<string, []>("_inversed_first_403_cast_fp16")];
            tensor<fp16, [1, 12, 128, 128]> input_tensor_759_cast_fp16 = add(x = _inversed_first_403_cast_fp16, y = second_27_cast_fp16)[name = tensor<string, []>("input_tensor_759_cast_fp16")];
            tensor<int32, []> var_4187 = const()[name = tensor<string, []>("op_4187"), val = tensor<int32, []>(-1)];
            tensor<fp16, [1, 12, 128, 128]> result_21_cast_fp16 = softmax(axis = var_4187, x = input_tensor_759_cast_fp16)[name = tensor<string, []>("result_21_cast_fp16")];
            tensor<bool, []> input_tensor_763_transpose_x_0 = const()[name = tensor<string, []>("input_tensor_763_transpose_x_0"), val = tensor<bool, []>(false)];
            tensor<bool, []> input_tensor_763_transpose_y_0 = const()[name = tensor<string, []>("input_tensor_763_transpose_y_0"), val = tensor<bool, []>(false)];
            tensor<fp16, [1, 12, 128, 32]> transpose_151 = transpose(perm = var_4121, x = input_tensor_743_cast_fp16)[name = tensor<string, []>("transpose_151")];
            tensor<fp16, [1, 12, 128, 32]> input_tensor_763_cast_fp16 = matmul(transpose_x = input_tensor_763_transpose_x_0, transpose_y = input_tensor_763_transpose_y_0, x = result_21_cast_fp16, y = transpose_151)[name = tensor<string, []>("input_tensor_763_cast_fp16")];
            tensor<int32, [4]> var_4205 = const()[name = tensor<string, []>("op_4205"), val = tensor<int32, [4]>([0, 2, 1, 3])];
            tensor<int32, [3]> var_4250 = const()[name = tensor<string, []>("op_4250"), val = tensor<int32, [3]>([1, 128, 384])];
            tensor<fp16, [1, 128, 12, 32]> transpose_148 = transpose(perm = var_4205, x = input_tensor_763_cast_fp16)[name = tensor<string, []>("transpose_148")];
            tensor<fp16, [1, 128, 384]> x_129_cast_fp16 = reshape(shape = var_4250, x = transpose_148)[name = tensor<string, []>("x_129_cast_fp16")];
            tensor<fp16, [384, 384]> first_407_weight_0_to_fp16 = const()[name = tensor<string, []>("first_407_weight_0_to_fp16"), val = tensor<fp16, [384, 384]>(BLOBFILE(path = tensor<string, []>("@model_path/weights/weight.bin"), offset = tensor<uint64, []>(59929600)))];
            tensor<fp16, [384]> first_407_bias_0_to_fp16 = const()[name = tensor<string, []>("first_407_bias_0_to_fp16"), val = tensor<fp16, [384]>(BLOBFILE(path = tensor<string, []>("@model_path/weights/weight.bin"), offset = tensor<uint64, []>(60224576)))];
            tensor<fp16, [1, 128, 384]> first_407_cast_fp16 = linear(bias = first_407_bias_0_to_fp16, weight = first_407_weight_0_to_fp16, x = x_129_cast_fp16)[name = tensor<string, []>("first_407_cast_fp16")];
            tensor<fp16, [1, 128, 384]> input_tensor_775_cast_fp16 = add(x = first_407_cast_fp16, y = x_123_cast_fp16)[name = tensor<string, []>("input_tensor_775_cast_fp16")];
            tensor<bool, []> var_4258 = const()[name = tensor<string, []>("op_4258"), val = tensor<bool, []>(true)];
            tensor<int32, [1]> var_4260 = const()[name = tensor<string, []>("op_4260"), val = tensor<int32, [1]>([-1])];
            tensor<fp16, [1, 128, 1]> second_451_cast_fp16 = reduce_mean(axes = var_4260, keep_dims = var_4258, x = input_tensor_775_cast_fp16)[name = tensor<string, []>("second_451_cast_fp16")];
            tensor<fp16, [1, 128, 384]> input_tensor_777_cast_fp16 = sub(x = input_tensor_775_cast_fp16, y = second_451_cast_fp16)[name = tensor<string, []>("input_tensor_777_cast_fp16")];
            tensor<fp16, []> encoder_layer_10_attention_output_LayerNorm_Constant_value_to_fp16 = const()[name = tensor<string, []>("encoder_layer_10_attention_output_LayerNorm_Constant_value_to_fp16"), val = tensor<fp16, []>(0x1p+1)];
            tensor<fp16, [1, 128, 384]> input_tensor_779_cast_fp16 = pow(x = input_tensor_777_cast_fp16, y = encoder_layer_10_attention_output_LayerNorm_Constant_value_to_fp16)[name = tensor<string, []>("input_tensor_779_cast_fp16")];
            tensor<bool, []> var_4266 = const()[name = tensor<string, []>("op_4266"), val = tensor<bool, []>(true)];
            tensor<int32, [1]> var_4268 = const()[name = tensor<string, []>("op_4268"), val = tensor<int32, [1]>([-1])];
            tensor<fp16, [1, 128, 1]> first_409_cast_fp16 = reduce_mean(axes = var_4268, keep_dims = var_4266, x = input_tensor_779_cast_fp16)[name = tensor<string, []>("first_409_cast_fp16")];
            tensor<fp16, []> encoder_layer_10_attention_output_LayerNorm_Constant_1_value_to_fp16 = const()[name = tensor<string, []>("encoder_layer_10_attention_output_LayerNorm_Constant_1_value_to_fp16"), val = tensor<fp16, []>(0x1p-24)];
            tensor<fp16, [1, 128, 1]> input_tensor_781_cast_fp16 = add(x = first_409_cast_fp16, y = encoder_layer_10_attention_output_LayerNorm_Constant_1_value_to_fp16)[name = tensor<string, []>("input_tensor_781_cast_fp16")];
            tensor<fp16, [1, 128, 1]> second_455_cast_fp16 = sqrt(x = input_tensor_781_cast_fp16)[name = tensor<string, []>("second_455_cast_fp16")];
            tensor<fp16, [1, 128, 384]> first_411_cast_fp16 = real_div(x = input_tensor_777_cast_fp16, y = second_455_cast_fp16)[name = tensor<string, []>("first_411_cast_fp16")];
            tensor<fp16, [384]> initializers_onnx_initializer_173_to_fp16 = const()[name = tensor<string, []>("initializers_onnx_initializer_173_to_fp16"), val = tensor<fp16, [384]>(BLOBFILE(path = tensor<string, []>("@model_path/weights/weight.bin"), offset = tensor<uint64, []>(60225408)))];
            tensor<fp16, [1, 128, 384]> first_413_cast_fp16 = mul(x = first_411_cast_fp16, y = initializers_onnx_initializer_173_to_fp16)[name = tensor<string, []>("first_413_cast_fp16")];
            tensor<fp16, [384]> initializers_onnx_initializer_174_to_fp16 = const()[name = tensor<string, []>("initializers_onnx_initializer_174_to_fp16"), val = tensor<fp16, [384]>(BLOBFILE(path = tensor<string, []>("@model_path/weights/weight.bin"), offset = tensor<uint64, []>(60226240)))];
            tensor<fp16, [1, 128, 384]> x_131_cast_fp16 = add(x = first_413_cast_fp16, y = initializers_onnx_initializer_174_to_fp16)[name = tensor<string, []>("x_131_cast_fp16")];
            tensor<fp16, [1536, 384]> first_417_weight_0_to_fp16 = const()[name = tensor<string, []>("first_417_weight_0_to_fp16"), val = tensor<fp16, [1536, 384]>(BLOBFILE(path = tensor<string, []>("@model_path/weights/weight.bin"), offset = tensor<uint64, []>(60227072)))];
            tensor<fp16, [1536]> first_417_bias_0_to_fp16 = const()[name = tensor<string, []>("first_417_bias_0_to_fp16"), val = tensor<fp16, [1536]>(BLOBFILE(path = tensor<string, []>("@model_path/weights/weight.bin"), offset = tensor<uint64, []>(61406784)))];
            tensor<fp16, [1, 128, 1536]> first_417_cast_fp16 = linear(bias = first_417_bias_0_to_fp16, weight = first_417_weight_0_to_fp16, x = x_131_cast_fp16)[name = tensor<string, []>("first_417_cast_fp16")];
            tensor<string, []> x_133_mode_0 = const()[name = tensor<string, []>("x_133_mode_0"), val = tensor<string, []>("EXACT")];
            tensor<fp16, [1, 128, 1536]> x_133_cast_fp16 = gelu(mode = x_133_mode_0, x = first_417_cast_fp16)[name = tensor<string, []>("x_133_cast_fp16")];
            tensor<fp16, [384, 1536]> first_425_weight_0_to_fp16 = const()[name = tensor<string, []>("first_425_weight_0_to_fp16"), val = tensor<fp16, [384, 1536]>(BLOBFILE(path = tensor<string, []>("@model_path/weights/weight.bin"), offset = tensor<uint64, []>(61409920)))];
            tensor<fp16, [384]> first_425_bias_0_to_fp16 = const()[name = tensor<string, []>("first_425_bias_0_to_fp16"), val = tensor<fp16, [384]>(BLOBFILE(path = tensor<string, []>("@model_path/weights/weight.bin"), offset = tensor<uint64, []>(62589632)))];
            tensor<fp16, [1, 128, 384]> first_425_cast_fp16 = linear(bias = first_425_bias_0_to_fp16, weight = first_425_weight_0_to_fp16, x = x_133_cast_fp16)[name = tensor<string, []>("first_425_cast_fp16")];
            tensor<fp16, [1, 128, 384]> input_tensor_785_cast_fp16 = add(x = first_425_cast_fp16, y = x_131_cast_fp16)[name = tensor<string, []>("input_tensor_785_cast_fp16")];
            tensor<bool, []> var_4292 = const()[name = tensor<string, []>("op_4292"), val = tensor<bool, []>(true)];
            tensor<int32, [1]> var_4294 = const()[name = tensor<string, []>("op_4294"), val = tensor<int32, [1]>([-1])];
            tensor<fp16, [1, 128, 1]> second_473_cast_fp16 = reduce_mean(axes = var_4294, keep_dims = var_4292, x = input_tensor_785_cast_fp16)[name = tensor<string, []>("second_473_cast_fp16")];
            tensor<fp16, [1, 128, 384]> input_tensor_787_cast_fp16 = sub(x = input_tensor_785_cast_fp16, y = second_473_cast_fp16)[name = tensor<string, []>("input_tensor_787_cast_fp16")];
            tensor<fp16, []> encoder_layer_10_output_LayerNorm_Constant_value_to_fp16 = const()[name = tensor<string, []>("encoder_layer_10_output_LayerNorm_Constant_value_to_fp16"), val = tensor<fp16, []>(0x1p+1)];
            tensor<fp16, [1, 128, 384]> input_tensor_789_cast_fp16 = pow(x = input_tensor_787_cast_fp16, y = encoder_layer_10_output_LayerNorm_Constant_value_to_fp16)[name = tensor<string, []>("input_tensor_789_cast_fp16")];
            tensor<bool, []> var_4300 = const()[name = tensor<string, []>("op_4300"), val = tensor<bool, []>(true)];
            tensor<int32, [1]> var_4302 = const()[name = tensor<string, []>("op_4302"), val = tensor<int32, [1]>([-1])];
            tensor<fp16, [1, 128, 1]> first_427_cast_fp16 = reduce_mean(axes = var_4302, keep_dims = var_4300, x = input_tensor_789_cast_fp16)[name = tensor<string, []>("first_427_cast_fp16")];
            tensor<fp16, []> encoder_layer_10_output_LayerNorm_Constant_1_value_to_fp16 = const()[name = tensor<string, []>("encoder_layer_10_output_LayerNorm_Constant_1_value_to_fp16"), val = tensor<fp16, []>(0x1p-24)];
            tensor<fp16, [1, 128, 1]> input_tensor_791_cast_fp16 = add(x = first_427_cast_fp16, y = encoder_layer_10_output_LayerNorm_Constant_1_value_to_fp16)[name = tensor<string, []>("input_tensor_791_cast_fp16")];
            tensor<fp16, [1, 128, 1]> second_477_cast_fp16 = sqrt(x = input_tensor_791_cast_fp16)[name = tensor<string, []>("second_477_cast_fp16")];
            tensor<fp16, [1, 128, 384]> first_429_cast_fp16 = real_div(x = input_tensor_787_cast_fp16, y = second_477_cast_fp16)[name = tensor<string, []>("first_429_cast_fp16")];
            tensor<fp16, [384]> initializers_onnx_initializer_179_to_fp16 = const()[name = tensor<string, []>("initializers_onnx_initializer_179_to_fp16"), val = tensor<fp16, [384]>(BLOBFILE(path = tensor<string, []>("@model_path/weights/weight.bin"), offset = tensor<uint64, []>(62590464)))];
            tensor<fp16, [1, 128, 384]> first_431_cast_fp16 = mul(x = first_429_cast_fp16, y = initializers_onnx_initializer_179_to_fp16)[name = tensor<string, []>("first_431_cast_fp16")];
            tensor<fp16, [384]> initializers_onnx_initializer_180_to_fp16 = const()[name = tensor<string, []>("initializers_onnx_initializer_180_to_fp16"), val = tensor<fp16, [384]>(BLOBFILE(path = tensor<string, []>("@model_path/weights/weight.bin"), offset = tensor<uint64, []>(62591296)))];
            tensor<fp16, [1, 128, 384]> x_135_cast_fp16 = add(x = first_431_cast_fp16, y = initializers_onnx_initializer_180_to_fp16)[name = tensor<string, []>("x_135_cast_fp16")];
            tensor<fp16, [384, 384]> input_tensor_815_weight_0_to_fp16 = const()[name = tensor<string, []>("input_tensor_815_weight_0_to_fp16"), val = tensor<fp16, [384, 384]>(BLOBFILE(path = tensor<string, []>("@model_path/weights/weight.bin"), offset = tensor<uint64, []>(62592128)))];
            tensor<fp16, [384]> input_tensor_815_bias_0_to_fp16 = const()[name = tensor<string, []>("input_tensor_815_bias_0_to_fp16"), val = tensor<fp16, [384]>(BLOBFILE(path = tensor<string, []>("@model_path/weights/weight.bin"), offset = tensor<uint64, []>(62887104)))];
            tensor<fp16, [1, 128, 384]> input_tensor_815_cast_fp16 = linear(bias = input_tensor_815_bias_0_to_fp16, weight = input_tensor_815_weight_0_to_fp16, x = x_135_cast_fp16)[name = tensor<string, []>("input_tensor_815_cast_fp16")];
            tensor<fp16, [384, 384]> input_tensor_793_weight_0_to_fp16 = const()[name = tensor<string, []>("input_tensor_793_weight_0_to_fp16"), val = tensor<fp16, [384, 384]>(BLOBFILE(path = tensor<string, []>("@model_path/weights/weight.bin"), offset = tensor<uint64, []>(62887936)))];
            tensor<fp16, [384]> input_tensor_793_bias_0_to_fp16 = const()[name = tensor<string, []>("input_tensor_793_bias_0_to_fp16"), val = tensor<fp16, [384]>(BLOBFILE(path = tensor<string, []>("@model_path/weights/weight.bin"), offset = tensor<uint64, []>(63182912)))];
            tensor<fp16, [1, 128, 384]> input_tensor_793_cast_fp16 = linear(bias = input_tensor_793_bias_0_to_fp16, weight = input_tensor_793_weight_0_to_fp16, x = x_135_cast_fp16)[name = tensor<string, []>("input_tensor_793_cast_fp16")];
            tensor<int32, [4]> var_4362 = const()[name = tensor<string, []>("op_4362"), val = tensor<int32, [4]>([1, 128, 12, 32])];
            tensor<fp16, [1, 128, 12, 32]> input_tensor_827_cast_fp16 = reshape(shape = var_4362, x = input_tensor_793_cast_fp16)[name = tensor<string, []>("input_tensor_827_cast_fp16")];
            tensor<fp16, [384, 384]> input_tensor_803_weight_0_to_fp16 = const()[name = tensor<string, []>("input_tensor_803_weight_0_to_fp16"), val = tensor<fp16, [384, 384]>(BLOBFILE(path = tensor<string, []>("@model_path/weights/weight.bin"), offset = tensor<uint64, []>(63183744)))];
            tensor<fp16, [384]> input_tensor_803_bias_0_to_fp16 = const()[name = tensor<string, []>("input_tensor_803_bias_0_to_fp16"), val = tensor<fp16, [384]>(BLOBFILE(path = tensor<string, []>("@model_path/weights/weight.bin"), offset = tensor<uint64, []>(63478720)))];
            tensor<fp16, [1, 128, 384]> input_tensor_803_cast_fp16 = linear(bias = input_tensor_803_bias_0_to_fp16, weight = input_tensor_803_weight_0_to_fp16, x = x_135_cast_fp16)[name = tensor<string, []>("input_tensor_803_cast_fp16")];
            tensor<int32, [4]> var_4412 = const()[name = tensor<string, []>("op_4412"), val = tensor<int32, [4]>([1, 128, 12, 32])];
            tensor<fp16, [1, 128, 12, 32]> input_tensor_813_cast_fp16 = reshape(shape = var_4412, x = input_tensor_803_cast_fp16)[name = tensor<string, []>("input_tensor_813_cast_fp16")];
            tensor<int32, [4]> var_4418 = const()[name = tensor<string, []>("op_4418"), val = tensor<int32, [4]>([0, 2, 1, 3])];
            tensor<int32, [4]> var_4465 = const()[name = tensor<string, []>("op_4465"), val = tensor<int32, [4]>([1, 128, 12, 32])];
            tensor<fp16, [1, 128, 12, 32]> input_tensor_825_cast_fp16 = reshape(shape = var_4465, x = input_tensor_815_cast_fp16)[name = tensor<string, []>("input_tensor_825_cast_fp16")];
            tensor<bool, []> first_439_transpose_x_0 = const()[name = tensor<string, []>("first_439_transpose_x_0"), val = tensor<bool, []>(false)];
            tensor<bool, []> first_439_transpose_y_0 = const()[name = tensor<string, []>("first_439_transpose_y_0"), val = tensor<bool, []>(false)];
            tensor<int32, [4]> transpose_142_perm_0 = const()[name = tensor<string, []>("transpose_142_perm_0"), val = tensor<int32, [4]>([0, 2, -3, -1])];
            tensor<int32, [4]> transpose_143_perm_0 = const()[name = tensor<string, []>("transpose_143_perm_0"), val = tensor<int32, [4]>([0, 2, -1, -3])];
            tensor<fp16, [1, 12, 32, 128]> transpose_145 = transpose(perm = transpose_143_perm_0, x = input_tensor_827_cast_fp16)[name = tensor<string, []>("transpose_145")];
            tensor<fp16, [1, 12, 128, 32]> transpose_146 = transpose(perm = transpose_142_perm_0, x = input_tensor_825_cast_fp16)[name = tensor<string, []>("transpose_146")];
            tensor<fp16, [1, 12, 128, 128]> first_439_cast_fp16 = matmul(transpose_x = first_439_transpose_x_0, transpose_y = first_439_transpose_y_0, x = transpose_146, y = transpose_145)[name = tensor<string, []>("first_439_cast_fp16")];
            tensor<fp16, []> _inversed_first_441_y_0_to_fp16 = const()[name = tensor<string, []>("_inversed_first_441_y_0_to_fp16"), val = tensor<fp16, []>(0x1.6ap-3)];
            tensor<fp16, [1, 12, 128, 128]> _inversed_first_441_cast_fp16 = mul(x = first_439_cast_fp16, y = _inversed_first_441_y_0_to_fp16)[name = tensor<string, []>("_inversed_first_441_cast_fp16")];
            tensor<fp16, [1, 12, 128, 128]> input_tensor_829_cast_fp16 = add(x = _inversed_first_441_cast_fp16, y = second_27_cast_fp16)[name = tensor<string, []>("input_tensor_829_cast_fp16")];
            tensor<int32, []> var_4484 = const()[name = tensor<string, []>("op_4484"), val = tensor<int32, []>(-1)];
            tensor<fp16, [1, 12, 128, 128]> result_cast_fp16 = softmax(axis = var_4484, x = input_tensor_829_cast_fp16)[name = tensor<string, []>("result_cast_fp16")];
            tensor<bool, []> input_tensor_833_transpose_x_0 = const()[name = tensor<string, []>("input_tensor_833_transpose_x_0"), val = tensor<bool, []>(false)];
            tensor<bool, []> input_tensor_833_transpose_y_0 = const()[name = tensor<string, []>("input_tensor_833_transpose_y_0"), val = tensor<bool, []>(false)];
            tensor<fp16, [1, 12, 128, 32]> transpose_147 = transpose(perm = var_4418, x = input_tensor_813_cast_fp16)[name = tensor<string, []>("transpose_147")];
            tensor<fp16, [1, 12, 128, 32]> input_tensor_833_cast_fp16 = matmul(transpose_x = input_tensor_833_transpose_x_0, transpose_y = input_tensor_833_transpose_y_0, x = result_cast_fp16, y = transpose_147)[name = tensor<string, []>("input_tensor_833_cast_fp16")];
            tensor<int32, [4]> var_4502 = const()[name = tensor<string, []>("op_4502"), val = tensor<int32, [4]>([0, 2, 1, 3])];
            tensor<int32, [3]> var_4547 = const()[name = tensor<string, []>("op_4547"), val = tensor<int32, [3]>([1, 128, 384])];
            tensor<fp16, [1, 128, 12, 32]> transpose_144 = transpose(perm = var_4502, x = input_tensor_833_cast_fp16)[name = tensor<string, []>("transpose_144")];
            tensor<fp16, [1, 128, 384]> x_141_cast_fp16 = reshape(shape = var_4547, x = transpose_144)[name = tensor<string, []>("x_141_cast_fp16")];
            tensor<fp16, [384, 384]> first_445_weight_0_to_fp16 = const()[name = tensor<string, []>("first_445_weight_0_to_fp16"), val = tensor<fp16, [384, 384]>(BLOBFILE(path = tensor<string, []>("@model_path/weights/weight.bin"), offset = tensor<uint64, []>(63479552)))];
            tensor<fp16, [384]> first_445_bias_0_to_fp16 = const()[name = tensor<string, []>("first_445_bias_0_to_fp16"), val = tensor<fp16, [384]>(BLOBFILE(path = tensor<string, []>("@model_path/weights/weight.bin"), offset = tensor<uint64, []>(63774528)))];
            tensor<fp16, [1, 128, 384]> first_445_cast_fp16 = linear(bias = first_445_bias_0_to_fp16, weight = first_445_weight_0_to_fp16, x = x_141_cast_fp16)[name = tensor<string, []>("first_445_cast_fp16")];
            tensor<fp16, [1, 128, 384]> input_tensor_845_cast_fp16 = add(x = first_445_cast_fp16, y = x_135_cast_fp16)[name = tensor<string, []>("input_tensor_845_cast_fp16")];
            tensor<bool, []> var_4555 = const()[name = tensor<string, []>("op_4555"), val = tensor<bool, []>(true)];
            tensor<int32, [1]> var_4557 = const()[name = tensor<string, []>("op_4557"), val = tensor<int32, [1]>([-1])];
            tensor<fp16, [1, 128, 1]> second_493_cast_fp16 = reduce_mean(axes = var_4557, keep_dims = var_4555, x = input_tensor_845_cast_fp16)[name = tensor<string, []>("second_493_cast_fp16")];
            tensor<fp16, [1, 128, 384]> input_tensor_847_cast_fp16 = sub(x = input_tensor_845_cast_fp16, y = second_493_cast_fp16)[name = tensor<string, []>("input_tensor_847_cast_fp16")];
            tensor<fp16, []> encoder_layer_11_attention_output_LayerNorm_Constant_value_to_fp16 = const()[name = tensor<string, []>("encoder_layer_11_attention_output_LayerNorm_Constant_value_to_fp16"), val = tensor<fp16, []>(0x1p+1)];
            tensor<fp16, [1, 128, 384]> input_tensor_849_cast_fp16 = pow(x = input_tensor_847_cast_fp16, y = encoder_layer_11_attention_output_LayerNorm_Constant_value_to_fp16)[name = tensor<string, []>("input_tensor_849_cast_fp16")];
            tensor<bool, []> var_4563 = const()[name = tensor<string, []>("op_4563"), val = tensor<bool, []>(true)];
            tensor<int32, [1]> var_4565 = const()[name = tensor<string, []>("op_4565"), val = tensor<int32, [1]>([-1])];
            tensor<fp16, [1, 128, 1]> first_447_cast_fp16 = reduce_mean(axes = var_4565, keep_dims = var_4563, x = input_tensor_849_cast_fp16)[name = tensor<string, []>("first_447_cast_fp16")];
            tensor<fp16, []> encoder_layer_11_attention_output_LayerNorm_Constant_1_value_to_fp16 = const()[name = tensor<string, []>("encoder_layer_11_attention_output_LayerNorm_Constant_1_value_to_fp16"), val = tensor<fp16, []>(0x1p-24)];
            tensor<fp16, [1, 128, 1]> input_tensor_851_cast_fp16 = add(x = first_447_cast_fp16, y = encoder_layer_11_attention_output_LayerNorm_Constant_1_value_to_fp16)[name = tensor<string, []>("input_tensor_851_cast_fp16")];
            tensor<fp16, [1, 128, 1]> second_497_cast_fp16 = sqrt(x = input_tensor_851_cast_fp16)[name = tensor<string, []>("second_497_cast_fp16")];
            tensor<fp16, [1, 128, 384]> first_449_cast_fp16 = real_div(x = input_tensor_847_cast_fp16, y = second_497_cast_fp16)[name = tensor<string, []>("first_449_cast_fp16")];
            tensor<fp16, [384]> initializers_onnx_initializer_189_to_fp16 = const()[name = tensor<string, []>("initializers_onnx_initializer_189_to_fp16"), val = tensor<fp16, [384]>(BLOBFILE(path = tensor<string, []>("@model_path/weights/weight.bin"), offset = tensor<uint64, []>(63775360)))];
            tensor<fp16, [1, 128, 384]> first_451_cast_fp16 = mul(x = first_449_cast_fp16, y = initializers_onnx_initializer_189_to_fp16)[name = tensor<string, []>("first_451_cast_fp16")];
            tensor<fp16, [384]> initializers_onnx_initializer_190_to_fp16 = const()[name = tensor<string, []>("initializers_onnx_initializer_190_to_fp16"), val = tensor<fp16, [384]>(BLOBFILE(path = tensor<string, []>("@model_path/weights/weight.bin"), offset = tensor<uint64, []>(63776192)))];
            tensor<fp16, [1, 128, 384]> x_143_cast_fp16 = add(x = first_451_cast_fp16, y = initializers_onnx_initializer_190_to_fp16)[name = tensor<string, []>("x_143_cast_fp16")];
            tensor<fp16, [1536, 384]> first_455_weight_0_to_fp16 = const()[name = tensor<string, []>("first_455_weight_0_to_fp16"), val = tensor<fp16, [1536, 384]>(BLOBFILE(path = tensor<string, []>("@model_path/weights/weight.bin"), offset = tensor<uint64, []>(63777024)))];
            tensor<fp16, [1536]> first_455_bias_0_to_fp16 = const()[name = tensor<string, []>("first_455_bias_0_to_fp16"), val = tensor<fp16, [1536]>(BLOBFILE(path = tensor<string, []>("@model_path/weights/weight.bin"), offset = tensor<uint64, []>(64956736)))];
            tensor<fp16, [1, 128, 1536]> first_455_cast_fp16 = linear(bias = first_455_bias_0_to_fp16, weight = first_455_weight_0_to_fp16, x = x_143_cast_fp16)[name = tensor<string, []>("first_455_cast_fp16")];
            tensor<string, []> x_mode_0 = const()[name = tensor<string, []>("x_mode_0"), val = tensor<string, []>("EXACT")];
            tensor<fp16, [1, 128, 1536]> x_cast_fp16 = gelu(mode = x_mode_0, x = first_455_cast_fp16)[name = tensor<string, []>("x_cast_fp16")];
            tensor<fp16, [384, 1536]> first_463_weight_0_to_fp16 = const()[name = tensor<string, []>("first_463_weight_0_to_fp16"), val = tensor<fp16, [384, 1536]>(BLOBFILE(path = tensor<string, []>("@model_path/weights/weight.bin"), offset = tensor<uint64, []>(64959872)))];
            tensor<fp16, [384]> first_463_bias_0_to_fp16 = const()[name = tensor<string, []>("first_463_bias_0_to_fp16"), val = tensor<fp16, [384]>(BLOBFILE(path = tensor<string, []>("@model_path/weights/weight.bin"), offset = tensor<uint64, []>(66139584)))];
            tensor<fp16, [1, 128, 384]> first_463_cast_fp16 = linear(bias = first_463_bias_0_to_fp16, weight = first_463_weight_0_to_fp16, x = x_cast_fp16)[name = tensor<string, []>("first_463_cast_fp16")];
            tensor<fp16, [1, 128, 384]> input_tensor_855_cast_fp16 = add(x = first_463_cast_fp16, y = x_143_cast_fp16)[name = tensor<string, []>("input_tensor_855_cast_fp16")];
            tensor<bool, []> var_4589 = const()[name = tensor<string, []>("op_4589"), val = tensor<bool, []>(true)];
            tensor<int32, [1]> var_4591 = const()[name = tensor<string, []>("op_4591"), val = tensor<int32, [1]>([-1])];
            tensor<fp16, [1, 128, 1]> second_515_cast_fp16 = reduce_mean(axes = var_4591, keep_dims = var_4589, x = input_tensor_855_cast_fp16)[name = tensor<string, []>("second_515_cast_fp16")];
            tensor<fp16, [1, 128, 384]> input_tensor_857_cast_fp16 = sub(x = input_tensor_855_cast_fp16, y = second_515_cast_fp16)[name = tensor<string, []>("input_tensor_857_cast_fp16")];
            tensor<fp16, []> encoder_layer_11_output_LayerNorm_Constant_value_to_fp16 = const()[name = tensor<string, []>("encoder_layer_11_output_LayerNorm_Constant_value_to_fp16"), val = tensor<fp16, []>(0x1p+1)];
            tensor<fp16, [1, 128, 384]> input_tensor_859_cast_fp16 = pow(x = input_tensor_857_cast_fp16, y = encoder_layer_11_output_LayerNorm_Constant_value_to_fp16)[name = tensor<string, []>("input_tensor_859_cast_fp16")];
            tensor<bool, []> var_4597 = const()[name = tensor<string, []>("op_4597"), val = tensor<bool, []>(true)];
            tensor<int32, [1]> var_4599 = const()[name = tensor<string, []>("op_4599"), val = tensor<int32, [1]>([-1])];
            tensor<fp16, [1, 128, 1]> first_465_cast_fp16 = reduce_mean(axes = var_4599, keep_dims = var_4597, x = input_tensor_859_cast_fp16)[name = tensor<string, []>("first_465_cast_fp16")];
            tensor<fp16, []> encoder_layer_11_output_LayerNorm_Constant_1_value_to_fp16 = const()[name = tensor<string, []>("encoder_layer_11_output_LayerNorm_Constant_1_value_to_fp16"), val = tensor<fp16, []>(0x1p-24)];
            tensor<fp16, [1, 128, 1]> input_tensor_cast_fp16 = add(x = first_465_cast_fp16, y = encoder_layer_11_output_LayerNorm_Constant_1_value_to_fp16)[name = tensor<string, []>("input_tensor_cast_fp16")];
            tensor<fp16, [1, 128, 1]> second_519_cast_fp16 = sqrt(x = input_tensor_cast_fp16)[name = tensor<string, []>("second_519_cast_fp16")];
            tensor<fp16, [1, 128, 384]> first_467_cast_fp16 = real_div(x = input_tensor_857_cast_fp16, y = second_519_cast_fp16)[name = tensor<string, []>("first_467_cast_fp16")];
            tensor<fp16, [384]> initializers_onnx_initializer_195_to_fp16 = const()[name = tensor<string, []>("initializers_onnx_initializer_195_to_fp16"), val = tensor<fp16, [384]>(BLOBFILE(path = tensor<string, []>("@model_path/weights/weight.bin"), offset = tensor<uint64, []>(66140416)))];
            tensor<fp16, [1, 128, 384]> first_cast_fp16 = mul(x = first_467_cast_fp16, y = initializers_onnx_initializer_195_to_fp16)[name = tensor<string, []>("first_cast_fp16")];
            tensor<fp16, [384]> initializers_onnx_initializer_196_to_fp16 = const()[name = tensor<string, []>("initializers_onnx_initializer_196_to_fp16"), val = tensor<fp16, [384]>(BLOBFILE(path = tensor<string, []>("@model_path/weights/weight.bin"), offset = tensor<uint64, []>(66141248)))];
            tensor<fp16, [1, 128, 384]> var_4607_cast_fp16 = add(x = first_cast_fp16, y = initializers_onnx_initializer_196_to_fp16)[name = tensor<string, []>("op_4607_cast_fp16")];
            tensor<string, []> var_4607_cast_fp16_to_fp32_dtype_0 = const()[name = tensor<string, []>("op_4607_cast_fp16_to_fp32_dtype_0"), val = tensor<string, []>("fp32")];
            tensor<fp32, [1, 128, 384]> var_4607 = cast(dtype = var_4607_cast_fp16_to_fp32_dtype_0, x = var_4607_cast_fp16)[name = tensor<string, []>("cast_170")];
        } -> (var_4607);
}