program(1.0)
[buildInfo = dict<tensor<string, []>, tensor<string, []>>({{"coremlc-component-MIL", "3510.2.1"}, {"coremlc-version", "3500.32.1"}, {"coremltools-component-torch", "2.10.0"}, {"coremltools-source-dialect", "TorchScript"}, {"coremltools-version", "7.2"}})]
{
    func main<ios15>(tensor<int32, [1, 128]> attention_mask, tensor<int32, [1, 128]> input_ids, tensor<int32, [1, 128]> token_type_ids) {
            tensor<int32, []> first_1_axis_0 = const()[name = tensor<string, []>("first_1_axis_0"), val = tensor<int32, []>(0)];
            tensor<fp16, [30528, 768]> initializers_onnx_initializer_0_to_fp16 = const()[name = tensor<string, []>("initializers_onnx_initializer_0_to_fp16"), val = tensor<fp16, [30528, 768]>(BLOBFILE(path = tensor<string, []>("@model_path/weights/weight.bin"), offset = tensor<uint64, []>(64)))];
            tensor<fp16, [1, 128, 768]> first_1_cast_fp16 = gather(axis = first_1_axis_0, indices = input_ids, x = initializers_onnx_initializer_0_to_fp16)[name = tensor<string, []>("first_1_cast_fp16")];
            tensor<int32, []> second_1_axis_0 = const()[name = tensor<string, []>("second_1_axis_0"), val = tensor<int32, []>(0)];
            tensor<fp16, [2, 768]> initializers_onnx_initializer_1_to_fp16 = const()[name = tensor<string, []>("initializers_onnx_initializer_1_to_fp16"), val = tensor<fp16, [2, 768]>(BLOBFILE(path = tensor<string, []>("@model_path/weights/weight.bin"), offset = tensor<uint64, []>(46891136)))];
            tensor<fp16, [1, 128, 768]> second_1_cast_fp16 = gather(axis = second_1_axis_0, indices = attention_mask, x = initializers_onnx_initializer_1_to_fp16)[name = tensor<string, []>("second_1_cast_fp16")];
            tensor<int32, [1]> result_axes_0 = const()[name = tensor<string, []>("result_axes_0"), val = tensor<int32, [1]>([1])];
            tensor<int32, [1, 1, 128]> result = expand_dims(axes = result_axes_0, x = token_type_ids)[name = tensor<string, []>("result")];
            tensor<int32, [1]> input_tensor_5_axes_0 = const()[name = tensor<string, []>("input_tensor_5_axes_0"), val = tensor<int32, [1]>([2])];
            tensor<int32, [1, 1, 1, 128]> input_tensor_5 = expand_dims(axes = input_tensor_5_axes_0, x = result)[name = tensor<string, []>("input_tensor_5")];
            tensor<fp16, [1, 128, 768]> input_tensor_7_cast_fp16 = add(x = first_1_cast_fp16, y = second_1_cast_fp16)[name = tensor<string, []>("input_tensor_7_cast_fp16")];
            tensor<bool, []> var_1459 = const()[name = tensor<string, []>("op_1459"), val = tensor<bool, []>(true)];
            tensor<int32, [1]> var_1461 = const()[name = tensor<string, []>("op_1461"), val = tensor<int32, [1]>([-1])];
            tensor<fp16, [1, 128, 1]> second_5_cast_fp16 = reduce_mean(axes = var_1461, keep_dims = var_1459, x = input_tensor_7_cast_fp16)[name = tensor<string, []>("second_5_cast_fp16")];
            tensor<fp16, []> initializers_onnx_initializer_2_to_fp16 = const()[name = tensor<string, []>("initializers_onnx_initializer_2_to_fp16"), val = tensor<fp16, []>(0x1p+0)];
            tensor<string, []> second_3_to_fp16_dtype_0 = const()[name = tensor<string, []>("second_3_to_fp16_dtype_0"), val = tensor<string, []>("fp16")];
            tensor<fp16, [1, 1, 1, 128]> cast_147 = cast(dtype = second_3_to_fp16_dtype_0, x = input_tensor_5)[name = tensor<string, []>("cast_147")];
            tensor<fp16, [1, 1, 1, 128]> first_5_cast_fp16 = sub(x = initializers_onnx_initializer_2_to_fp16, y = cast_147)[name = tensor<string, []>("first_5_cast_fp16")];
            tensor<fp16, [1, 128, 768]> input_tensor_9_cast_fp16 = sub(x = input_tensor_7_cast_fp16, y = second_5_cast_fp16)[name = tensor<string, []>("input_tensor_9_cast_fp16")];
            tensor<fp16, []> initializers_onnx_initializer_3_to_fp16 = const()[name = tensor<string, []>("initializers_onnx_initializer_3_to_fp16"), val = tensor<fp16, []>(-inf)];
            tensor<fp16, [1, 1, 1, 128]> second_31_cast_fp16 = mul(x = first_5_cast_fp16, y = initializers_onnx_initializer_3_to_fp16)[name = tensor<string, []>("second_31_cast_fp16")];
            tensor<fp16, []> initializers_onnx_initializer_4_to_fp16 = const()[name = tensor<string, []>("initializers_onnx_initializer_4_to_fp16"), val = tensor<fp16, []>(0x1p+1)];
            tensor<fp16, [1, 128, 768]> input_tensor_11_cast_fp16 = pow(x = input_tensor_9_cast_fp16, y = initializers_onnx_initializer_4_to_fp16)[name = tensor<string, []>("input_tensor_11_cast_fp16")];
            tensor<bool, []> var_1470 = const()[name = tensor<string, []>("op_1470"), val = tensor<bool, []>(true)];
            tensor<int32, [1]> var_1472 = const()[name = tensor<string, []>("op_1472"), val = tensor<int32, [1]>([-1])];
            tensor<fp16, [1, 128, 1]> first_7_cast_fp16 = reduce_mean(axes = var_1472, keep_dims = var_1470, x = input_tensor_11_cast_fp16)[name = tensor<string, []>("first_7_cast_fp16")];
            tensor<fp16, []> initializers_onnx_initializer_5_to_fp16 = const()[name = tensor<string, []>("initializers_onnx_initializer_5_to_fp16"), val = tensor<fp16, []>(0x1p-24)];
            tensor<fp16, [1, 128, 1]> input_tensor_13_cast_fp16 = add(x = first_7_cast_fp16, y = initializers_onnx_initializer_5_to_fp16)[name = tensor<string, []>("input_tensor_13_cast_fp16")];
            tensor<fp16, [1, 128, 1]> second_11_cast_fp16 = sqrt(x = input_tensor_13_cast_fp16)[name = tensor<string, []>("second_11_cast_fp16")];
            tensor<fp16, [1, 128, 768]> first_9_cast_fp16 = real_div(x = input_tensor_9_cast_fp16, y = second_11_cast_fp16)[name = tensor<string, []>("first_9_cast_fp16")];
            tensor<fp16, [768]> initializers_onnx_initializer_6_to_fp16 = const()[name = tensor<string, []>("initializers_onnx_initializer_6_to_fp16"), val = tensor<fp16, [768]>(BLOBFILE(path = tensor<string, []>("@model_path/weights/weight.bin"), offset = tensor<uint64, []>(46894272)))];
            tensor<fp16, [1, 128, 768]> first_11_cast_fp16 = mul(x = first_9_cast_fp16, y = initializers_onnx_initializer_6_to_fp16)[name = tensor<string, []>("first_11_cast_fp16")];
            tensor<fp16, [768]> initializers_onnx_initializer_7_to_fp16 = const()[name = tensor<string, []>("initializers_onnx_initializer_7_to_fp16"), val = tensor<fp16, [768]>(BLOBFILE(path = tensor<string, []>("@model_path/weights/weight.bin"), offset = tensor<uint64, []>(46895872)))];
            tensor<fp16, [1, 128, 768]> x_1_cast_fp16 = add(x = first_11_cast_fp16, y = initializers_onnx_initializer_7_to_fp16)[name = tensor<string, []>("x_1_cast_fp16")];
            tensor<fp16, [2304, 768]> transpose_0_to_fp16 = const()[name = tensor<string, []>("transpose_0_to_fp16"), val = tensor<fp16, [2304, 768]>(BLOBFILE(path = tensor<string, []>("@model_path/weights/weight.bin"), offset = tensor<uint64, []>(46897472)))];
            tensor<fp16, [2304]> input_tensor_15_bias_0_to_fp16 = const()[name = tensor<string, []>("input_tensor_15_bias_0_to_fp16"), val = tensor<fp16, [2304]>(BLOBFILE(path = tensor<string, []>("@model_path/weights/weight.bin"), offset = tensor<uint64, []>(50436480)))];
            tensor<fp16, [1, 128, 2304]> input_tensor_15_cast_fp16 = linear(bias = input_tensor_15_bias_0_to_fp16, weight = transpose_0_to_fp16, x = x_1_cast_fp16)[name = tensor<string, []>("input_tensor_15_cast_fp16")];
            tensor<int32, [5]> var_1522 = const()[name = tensor<string, []>("op_1522"), val = tensor<int32, [5]>([1, 128, 3, 12, 64])];
            tensor<fp16, [1, 128, 3, 12, 64]> input_tensor_23_cast_fp16 = reshape(shape = var_1522, x = input_tensor_15_cast_fp16)[name = tensor<string, []>("input_tensor_23_cast_fp16")];
            tensor<int32, [5]> input_tensor_27_begin_0 = const()[name = tensor<string, []>("input_tensor_27_begin_0"), val = tensor<int32, [5]>([0, 0, 0, 0, 0])];
            tensor<int32, [5]> input_tensor_27_end_0 = const()[name = tensor<string, []>("input_tensor_27_end_0"), val = tensor<int32, [5]>([1, 128, 1, 12, 64])];
            tensor<bool, [5]> input_tensor_27_end_mask_0 = const()[name = tensor<string, []>("input_tensor_27_end_mask_0"), val = tensor<bool, [5]>([true, true, false, true, true])];
            tensor<bool, [5]> input_tensor_27_squeeze_mask_0 = const()[name = tensor<string, []>("input_tensor_27_squeeze_mask_0"), val = tensor<bool, [5]>([false, false, true, false, false])];
            tensor<fp16, [1, 128, 12, 64]> input_tensor_27_cast_fp16 = slice_by_index(begin = input_tensor_27_begin_0, end = input_tensor_27_end_0, end_mask = input_tensor_27_end_mask_0, squeeze_mask = input_tensor_27_squeeze_mask_0, x = input_tensor_23_cast_fp16)[name = tensor<string, []>("input_tensor_27_cast_fp16")];
            tensor<int32, [5]> input_tensor_29_begin_0 = const()[name = tensor<string, []>("input_tensor_29_begin_0"), val = tensor<int32, [5]>([0, 0, 1, 0, 0])];
            tensor<int32, [5]> input_tensor_29_end_0 = const()[name = tensor<string, []>("input_tensor_29_end_0"), val = tensor<int32, [5]>([1, 128, 2, 12, 64])];
            tensor<bool, [5]> input_tensor_29_end_mask_0 = const()[name = tensor<string, []>("input_tensor_29_end_mask_0"), val = tensor<bool, [5]>([true, true, false, true, true])];
            tensor<bool, [5]> input_tensor_29_squeeze_mask_0 = const()[name = tensor<string, []>("input_tensor_29_squeeze_mask_0"), val = tensor<bool, [5]>([false, false, true, false, false])];
            tensor<fp16, [1, 128, 12, 64]> input_tensor_29_cast_fp16 = slice_by_index(begin = input_tensor_29_begin_0, end = input_tensor_29_end_0, end_mask = input_tensor_29_end_mask_0, squeeze_mask = input_tensor_29_squeeze_mask_0, x = input_tensor_23_cast_fp16)[name = tensor<string, []>("input_tensor_29_cast_fp16")];
            tensor<int32, [5]> input_tensor_31_begin_0 = const()[name = tensor<string, []>("input_tensor_31_begin_0"), val = tensor<int32, [5]>([0, 0, 2, 0, 0])];
            tensor<int32, [5]> input_tensor_31_end_0 = const()[name = tensor<string, []>("input_tensor_31_end_0"), val = tensor<int32, [5]>([1, 128, 3, 12, 64])];
            tensor<bool, [5]> input_tensor_31_end_mask_0 = const()[name = tensor<string, []>("input_tensor_31_end_mask_0"), val = tensor<bool, [5]>([true, true, false, true, true])];
            tensor<bool, [5]> input_tensor_31_squeeze_mask_0 = const()[name = tensor<string, []>("input_tensor_31_squeeze_mask_0"), val = tensor<bool, [5]>([false, false, true, false, false])];
            tensor<fp16, [1, 128, 12, 64]> input_tensor_31_cast_fp16 = slice_by_index(begin = input_tensor_31_begin_0, end = input_tensor_31_end_0, end_mask = input_tensor_31_end_mask_0, squeeze_mask = input_tensor_31_squeeze_mask_0, x = input_tensor_23_cast_fp16)[name = tensor<string, []>("input_tensor_31_cast_fp16")];
            tensor<int32, [1]> var_1575_axes_0 = const()[name = tensor<string, []>("op_1575_axes_0"), val = tensor<int32, [1]>([2])];
            tensor<fp16, [1, 128, 1, 12, 64]> var_1575_cast_fp16 = expand_dims(axes = var_1575_axes_0, x = input_tensor_31_cast_fp16)[name = tensor<string, []>("op_1575_cast_fp16")];
            tensor<int32, [4]> var_1659_begin_0 = const()[name = tensor<string, []>("op_1659_begin_0"), val = tensor<int32, [4]>([0, 0, 0, 0])];
            tensor<int32, [4]> var_1659_end_0 = const()[name = tensor<string, []>("op_1659_end_0"), val = tensor<int32, [4]>([1, 128, 12, 32])];
            tensor<bool, [4]> var_1659_end_mask_0 = const()[name = tensor<string, []>("op_1659_end_mask_0"), val = tensor<bool, [4]>([true, true, true, false])];
            tensor<fp16, [1, 128, 12, 32]> var_1659_cast_fp16 = slice_by_index(begin = var_1659_begin_0, end = var_1659_end_0, end_mask = var_1659_end_mask_0, x = input_tensor_27_cast_fp16)[name = tensor<string, []>("op_1659_cast_fp16")];
            tensor<int32, [4]> input_tensor_43_begin_0 = const()[name = tensor<string, []>("input_tensor_43_begin_0"), val = tensor<int32, [4]>([0, 0, 0, 32])];
            tensor<int32, [4]> input_tensor_43_end_0 = const()[name = tensor<string, []>("input_tensor_43_end_0"), val = tensor<int32, [4]>([1, 128, 12, 64])];
            tensor<bool, [4]> input_tensor_43_end_mask_0 = const()[name = tensor<string, []>("input_tensor_43_end_mask_0"), val = tensor<bool, [4]>([true, true, true, false])];
            tensor<fp16, [1, 128, 12, 32]> input_tensor_43_cast_fp16 = slice_by_index(begin = input_tensor_43_begin_0, end = input_tensor_43_end_0, end_mask = input_tensor_43_end_mask_0, x = input_tensor_27_cast_fp16)[name = tensor<string, []>("input_tensor_43_cast_fp16")];
            tensor<int32, [4]> var_1679_begin_0 = const()[name = tensor<string, []>("op_1679_begin_0"), val = tensor<int32, [4]>([0, 0, 0, 0])];
            tensor<int32, [4]> var_1679_end_0 = const()[name = tensor<string, []>("op_1679_end_0"), val = tensor<int32, [4]>([1, 128, 12, 32])];
            tensor<bool, [4]> var_1679_end_mask_0 = const()[name = tensor<string, []>("op_1679_end_mask_0"), val = tensor<bool, [4]>([true, true, true, false])];
            tensor<fp16, [1, 128, 12, 32]> var_1679_cast_fp16 = slice_by_index(begin = var_1679_begin_0, end = var_1679_end_0, end_mask = var_1679_end_mask_0, x = input_tensor_29_cast_fp16)[name = tensor<string, []>("op_1679_cast_fp16")];
            tensor<int32, [4]> input_tensor_45_begin_0 = const()[name = tensor<string, []>("input_tensor_45_begin_0"), val = tensor<int32, [4]>([0, 0, 0, 32])];
            tensor<int32, [4]> input_tensor_45_end_0 = const()[name = tensor<string, []>("input_tensor_45_end_0"), val = tensor<int32, [4]>([1, 128, 12, 64])];
            tensor<bool, [4]> input_tensor_45_end_mask_0 = const()[name = tensor<string, []>("input_tensor_45_end_mask_0"), val = tensor<bool, [4]>([true, true, true, false])];
            tensor<fp16, [1, 128, 12, 32]> input_tensor_45_cast_fp16 = slice_by_index(begin = input_tensor_45_begin_0, end = input_tensor_45_end_0, end_mask = input_tensor_45_end_mask_0, x = input_tensor_29_cast_fp16)[name = tensor<string, []>("input_tensor_45_cast_fp16")];
            tensor<fp16, []> const_0_promoted_to_fp16 = const()[name = tensor<string, []>("const_0_promoted_to_fp16"), val = tensor<fp16, []>(-0x1p+0)];
            tensor<fp16, [1, 128, 12, 32]> var_1701_cast_fp16 = mul(x = input_tensor_43_cast_fp16, y = const_0_promoted_to_fp16)[name = tensor<string, []>("op_1701_cast_fp16")];
            tensor<fp16, []> const_1_promoted_to_fp16 = const()[name = tensor<string, []>("const_1_promoted_to_fp16"), val = tensor<fp16, []>(-0x1p+0)];
            tensor<fp16, [1, 128, 12, 32]> var_1702_cast_fp16 = mul(x = input_tensor_45_cast_fp16, y = const_1_promoted_to_fp16)[name = tensor<string, []>("op_1702_cast_fp16")];
            tensor<int32, []> var_1707 = const()[name = tensor<string, []>("op_1707"), val = tensor<int32, []>(-1)];
            tensor<bool, []> first_13_interleave_0 = const()[name = tensor<string, []>("first_13_interleave_0"), val = tensor<bool, []>(false)];
            tensor<fp16, [1, 128, 12, 64]> first_13_cast_fp16 = concat(axis = var_1707, interleave = first_13_interleave_0, values = (var_1701_cast_fp16, var_1659_cast_fp16))[name = tensor<string, []>("first_13_cast_fp16")];
            tensor<int32, []> var_1710 = const()[name = tensor<string, []>("op_1710"), val = tensor<int32, []>(-1)];
            tensor<bool, []> first_15_interleave_0 = const()[name = tensor<string, []>("first_15_interleave_0"), val = tensor<bool, []>(false)];
            tensor<fp16, [1, 128, 12, 64]> first_15_cast_fp16 = concat(axis = var_1710, interleave = first_15_interleave_0, values = (var_1702_cast_fp16, var_1679_cast_fp16))[name = tensor<string, []>("first_15_cast_fp16")];
            tensor<fp16, [128, 1, 64]> second_17_to_fp16 = const()[name = tensor<string, []>("second_17_to_fp16"), val = tensor<fp16, [128, 1, 64]>(BLOBFILE(path = tensor<string, []>("@model_path/weights/weight.bin"), offset = tensor<uint64, []>(50441152)))];
            tensor<fp16, [1, 128, 12, 64]> first_17_cast_fp16 = mul(x = input_tensor_27_cast_fp16, y = second_17_to_fp16)[name = tensor<string, []>("first_17_cast_fp16")];
            tensor<fp16, [1, 128, 12, 64]> first_19_cast_fp16 = mul(x = input_tensor_29_cast_fp16, y = second_17_to_fp16)[name = tensor<string, []>("first_19_cast_fp16")];
            tensor<fp16, [128, 1, 64]> second_21_to_fp16 = const()[name = tensor<string, []>("second_21_to_fp16"), val = tensor<fp16, [128, 1, 64]>(BLOBFILE(path = tensor<string, []>("@model_path/weights/weight.bin"), offset = tensor<uint64, []>(50457600)))];
            tensor<fp16, [1, 128, 12, 64]> second_25_cast_fp16 = mul(x = first_13_cast_fp16, y = second_21_to_fp16)[name = tensor<string, []>("second_25_cast_fp16")];
            tensor<fp16, [1, 128, 12, 64]> second_27_cast_fp16 = mul(x = first_15_cast_fp16, y = second_21_to_fp16)[name = tensor<string, []>("second_27_cast_fp16")];
            tensor<fp16, [1, 128, 12, 64]> var_1864_cast_fp16 = add(x = first_17_cast_fp16, y = second_25_cast_fp16)[name = tensor<string, []>("op_1864_cast_fp16")];
            tensor<fp16, [1, 128, 12, 64]> var_1866_cast_fp16 = add(x = first_19_cast_fp16, y = second_27_cast_fp16)[name = tensor<string, []>("op_1866_cast_fp16")];
            tensor<int32, []> var_1867 = const()[name = tensor<string, []>("op_1867"), val = tensor<int32, []>(-1)];
            tensor<bool, []> input_tensor_73_interleave_0 = const()[name = tensor<string, []>("input_tensor_73_interleave_0"), val = tensor<bool, []>(false)];
            tensor<fp16, [1, 128, 12, 64]> input_tensor_73_cast_fp16 = concat(axis = var_1867, interleave = input_tensor_73_interleave_0, values = var_1864_cast_fp16)[name = tensor<string, []>("input_tensor_73_cast_fp16")];
            tensor<int32, []> var_1870 = const()[name = tensor<string, []>("op_1870"), val = tensor<int32, []>(-1)];
            tensor<bool, []> input_tensor_75_interleave_0 = const()[name = tensor<string, []>("input_tensor_75_interleave_0"), val = tensor<bool, []>(false)];
            tensor<fp16, [1, 128, 12, 64]> input_tensor_75_cast_fp16 = concat(axis = var_1870, interleave = input_tensor_75_interleave_0, values = var_1866_cast_fp16)[name = tensor<string, []>("input_tensor_75_cast_fp16")];
            tensor<int32, [1]> var_1874_axes_0 = const()[name = tensor<string, []>("op_1874_axes_0"), val = tensor<int32, [1]>([2])];
            tensor<fp16, [1, 128, 1, 12, 64]> var_1874_cast_fp16 = expand_dims(axes = var_1874_axes_0, x = input_tensor_73_cast_fp16)[name = tensor<string, []>("op_1874_cast_fp16")];
            tensor<int32, [1]> var_1876_axes_0 = const()[name = tensor<string, []>("op_1876_axes_0"), val = tensor<int32, [1]>([2])];
            tensor<fp16, [1, 128, 1, 12, 64]> var_1876_cast_fp16 = expand_dims(axes = var_1876_axes_0, x = input_tensor_75_cast_fp16)[name = tensor<string, []>("op_1876_cast_fp16")];
            tensor<int32, []> var_1877 = const()[name = tensor<string, []>("op_1877"), val = tensor<int32, []>(2)];
            tensor<bool, []> input_tensor_77_interleave_0 = const()[name = tensor<string, []>("input_tensor_77_interleave_0"), val = tensor<bool, []>(false)];
            tensor<fp16, [1, 128, 3, 12, 64]> input_tensor_77_cast_fp16 = concat(axis = var_1877, interleave = input_tensor_77_interleave_0, values = (var_1874_cast_fp16, var_1876_cast_fp16, var_1575_cast_fp16))[name = tensor<string, []>("input_tensor_77_cast_fp16")];
            tensor<int32, [5]> input_tensor_79_begin_0 = const()[name = tensor<string, []>("input_tensor_79_begin_0"), val = tensor<int32, [5]>([0, 0, 0, 0, 0])];
            tensor<int32, [5]> input_tensor_79_end_0 = const()[name = tensor<string, []>("input_tensor_79_end_0"), val = tensor<int32, [5]>([1, 128, 1, 12, 64])];
            tensor<bool, [5]> input_tensor_79_end_mask_0 = const()[name = tensor<string, []>("input_tensor_79_end_mask_0"), val = tensor<bool, [5]>([true, true, false, true, true])];
            tensor<bool, [5]> input_tensor_79_squeeze_mask_0 = const()[name = tensor<string, []>("input_tensor_79_squeeze_mask_0"), val = tensor<bool, [5]>([false, false, true, false, false])];
            tensor<fp16, [1, 128, 12, 64]> input_tensor_79_cast_fp16 = slice_by_index(begin = input_tensor_79_begin_0, end = input_tensor_79_end_0, end_mask = input_tensor_79_end_mask_0, squeeze_mask = input_tensor_79_squeeze_mask_0, x = input_tensor_77_cast_fp16)[name = tensor<string, []>("input_tensor_79_cast_fp16")];
            tensor<int32, [5]> input_tensor_83_begin_0 = const()[name = tensor<string, []>("input_tensor_83_begin_0"), val = tensor<int32, [5]>([0, 0, 1, 0, 0])];
            tensor<int32, [5]> input_tensor_83_end_0 = const()[name = tensor<string, []>("input_tensor_83_end_0"), val = tensor<int32, [5]>([1, 128, 2, 12, 64])];
            tensor<bool, [5]> input_tensor_83_end_mask_0 = const()[name = tensor<string, []>("input_tensor_83_end_mask_0"), val = tensor<bool, [5]>([true, true, false, true, true])];
            tensor<bool, [5]> input_tensor_83_squeeze_mask_0 = const()[name = tensor<string, []>("input_tensor_83_squeeze_mask_0"), val = tensor<bool, [5]>([false, false, true, false, false])];
            tensor<fp16, [1, 128, 12, 64]> input_tensor_83_cast_fp16 = slice_by_index(begin = input_tensor_83_begin_0, end = input_tensor_83_end_0, end_mask = input_tensor_83_end_mask_0, squeeze_mask = input_tensor_83_squeeze_mask_0, x = input_tensor_77_cast_fp16)[name = tensor<string, []>("input_tensor_83_cast_fp16")];
            tensor<int32, [5]> input_tensor_81_begin_0 = const()[name = tensor<string, []>("input_tensor_81_begin_0"), val = tensor<int32, [5]>([0, 0, 2, 0, 0])];
            tensor<int32, [5]> input_tensor_81_end_0 = const()[name = tensor<string, []>("input_tensor_81_end_0"), val = tensor<int32, [5]>([1, 128, 3, 12, 64])];
            tensor<bool, [5]> input_tensor_81_end_mask_0 = const()[name = tensor<string, []>("input_tensor_81_end_mask_0"), val = tensor<bool, [5]>([true, true, false, true, true])];
            tensor<bool, [5]> input_tensor_81_squeeze_mask_0 = const()[name = tensor<string, []>("input_tensor_81_squeeze_mask_0"), val = tensor<bool, [5]>([false, false, true, false, false])];
            tensor<fp16, [1, 128, 12, 64]> input_tensor_81_cast_fp16 = slice_by_index(begin = input_tensor_81_begin_0, end = input_tensor_81_end_0, end_mask = input_tensor_81_end_mask_0, squeeze_mask = input_tensor_81_squeeze_mask_0, x = input_tensor_77_cast_fp16)[name = tensor<string, []>("input_tensor_81_cast_fp16")];
            tensor<int32, [4]> var_1926 = const()[name = tensor<string, []>("op_1926"), val = tensor<int32, [4]>([0, 2, 1, 3])];
            tensor<bool, []> first_21_transpose_x_0 = const()[name = tensor<string, []>("first_21_transpose_x_0"), val = tensor<bool, []>(false)];
            tensor<bool, []> first_21_transpose_y_0 = const()[name = tensor<string, []>("first_21_transpose_y_0"), val = tensor<bool, []>(false)];
            tensor<int32, [4]> transpose_132_perm_0 = const()[name = tensor<string, []>("transpose_132_perm_0"), val = tensor<int32, [4]>([0, 2, -3, -1])];
            tensor<int32, [4]> transpose_133_perm_0 = const()[name = tensor<string, []>("transpose_133_perm_0"), val = tensor<int32, [4]>([0, 2, -1, -3])];
            tensor<fp16, [1, 12, 64, 128]> transpose_201 = transpose(perm = transpose_133_perm_0, x = input_tensor_83_cast_fp16)[name = tensor<string, []>("transpose_201")];
            tensor<fp16, [1, 12, 128, 64]> transpose_202 = transpose(perm = transpose_132_perm_0, x = input_tensor_79_cast_fp16)[name = tensor<string, []>("transpose_202")];
            tensor<fp16, [1, 12, 128, 128]> first_21_cast_fp16 = matmul(transpose_x = first_21_transpose_x_0, transpose_y = first_21_transpose_y_0, x = transpose_202, y = transpose_201)[name = tensor<string, []>("first_21_cast_fp16")];
            tensor<fp16, []> _inversed_first_23_y_0_to_fp16 = const()[name = tensor<string, []>("_inversed_first_23_y_0_to_fp16"), val = tensor<fp16, []>(0x1p-3)];
            tensor<fp16, [1, 12, 128, 128]> _inversed_first_23_cast_fp16 = mul(x = first_21_cast_fp16, y = _inversed_first_23_y_0_to_fp16)[name = tensor<string, []>("_inversed_first_23_cast_fp16")];
            tensor<fp16, [1, 12, 128, 128]> input_1_cast_fp16 = add(x = _inversed_first_23_cast_fp16, y = second_31_cast_fp16)[name = tensor<string, []>("input_1_cast_fp16")];
            tensor<int32, []> var_1939 = const()[name = tensor<string, []>("op_1939"), val = tensor<int32, []>(-1)];
            tensor<fp16, [1, 12, 128, 128]> x_13_cast_fp16 = softmax(axis = var_1939, x = input_1_cast_fp16)[name = tensor<string, []>("x_13_cast_fp16")];
            tensor<bool, []> input_tensor_85_transpose_x_0 = const()[name = tensor<string, []>("input_tensor_85_transpose_x_0"), val = tensor<bool, []>(false)];
            tensor<bool, []> input_tensor_85_transpose_y_0 = const()[name = tensor<string, []>("input_tensor_85_transpose_y_0"), val = tensor<bool, []>(false)];
            tensor<fp16, [1, 12, 128, 64]> transpose_203 = transpose(perm = var_1926, x = input_tensor_81_cast_fp16)[name = tensor<string, []>("transpose_203")];
            tensor<fp16, [1, 12, 128, 64]> input_tensor_85_cast_fp16 = matmul(transpose_x = input_tensor_85_transpose_x_0, transpose_y = input_tensor_85_transpose_y_0, x = x_13_cast_fp16, y = transpose_203)[name = tensor<string, []>("input_tensor_85_cast_fp16")];
            tensor<int32, [4]> var_1946 = const()[name = tensor<string, []>("op_1946"), val = tensor<int32, [4]>([0, 2, 1, 3])];
            tensor<int32, [3]> var_1984 = const()[name = tensor<string, []>("op_1984"), val = tensor<int32, [3]>([1, 128, 768])];
            tensor<fp16, [1, 128, 12, 64]> transpose_200 = transpose(perm = var_1946, x = input_tensor_85_cast_fp16)[name = tensor<string, []>("transpose_200")];
            tensor<fp16, [1, 128, 768]> x_15_cast_fp16 = reshape(shape = var_1984, x = transpose_200)[name = tensor<string, []>("x_15_cast_fp16")];
            tensor<fp16, [768, 768]> transpose_3_to_fp16 = const()[name = tensor<string, []>("transpose_3_to_fp16"), val = tensor<fp16, [768, 768]>(BLOBFILE(path = tensor<string, []>("@model_path/weights/weight.bin"), offset = tensor<uint64, []>(50474048)))];
            tensor<fp16, [768]> first_25_bias_0_to_fp16 = const()[name = tensor<string, []>("first_25_bias_0_to_fp16"), val = tensor<fp16, [768]>(BLOBFILE(path = tensor<string, []>("@model_path/weights/weight.bin"), offset = tensor<uint64, []>(51653760)))];
            tensor<fp16, [1, 128, 768]> first_25_cast_fp16 = linear(bias = first_25_bias_0_to_fp16, weight = transpose_3_to_fp16, x = x_15_cast_fp16)[name = tensor<string, []>("first_25_cast_fp16")];
            tensor<fp16, [1, 128, 768]> input_tensor_95_cast_fp16 = add(x = first_25_cast_fp16, y = x_1_cast_fp16)[name = tensor<string, []>("input_tensor_95_cast_fp16")];
            tensor<bool, []> var_1990 = const()[name = tensor<string, []>("op_1990"), val = tensor<bool, []>(true)];
            tensor<int32, [1]> var_1992 = const()[name = tensor<string, []>("op_1992"), val = tensor<int32, [1]>([-1])];
            tensor<fp16, [1, 128, 1]> second_33_cast_fp16 = reduce_mean(axes = var_1992, keep_dims = var_1990, x = input_tensor_95_cast_fp16)[name = tensor<string, []>("second_33_cast_fp16")];
            tensor<fp16, [1, 128, 768]> input_tensor_97_cast_fp16 = sub(x = input_tensor_95_cast_fp16, y = second_33_cast_fp16)[name = tensor<string, []>("input_tensor_97_cast_fp16")];
            tensor<fp16, []> initializers_onnx_initializer_79_to_fp16 = const()[name = tensor<string, []>("initializers_onnx_initializer_79_to_fp16"), val = tensor<fp16, []>(0x1p+1)];
            tensor<fp16, [1, 128, 768]> input_tensor_99_cast_fp16 = pow(x = input_tensor_97_cast_fp16, y = initializers_onnx_initializer_79_to_fp16)[name = tensor<string, []>("input_tensor_99_cast_fp16")];
            tensor<bool, []> var_1998 = const()[name = tensor<string, []>("op_1998"), val = tensor<bool, []>(true)];
            tensor<int32, [1]> var_2000 = const()[name = tensor<string, []>("op_2000"), val = tensor<int32, [1]>([-1])];
            tensor<fp16, [1, 128, 1]> first_27_cast_fp16 = reduce_mean(axes = var_2000, keep_dims = var_1998, x = input_tensor_99_cast_fp16)[name = tensor<string, []>("first_27_cast_fp16")];
            tensor<fp16, []> initializers_onnx_initializer_80_to_fp16 = const()[name = tensor<string, []>("initializers_onnx_initializer_80_to_fp16"), val = tensor<fp16, []>(0x1p-24)];
            tensor<fp16, [1, 128, 1]> input_tensor_101_cast_fp16 = add(x = first_27_cast_fp16, y = initializers_onnx_initializer_80_to_fp16)[name = tensor<string, []>("input_tensor_101_cast_fp16")];
            tensor<fp16, [1, 128, 1]> second_37_cast_fp16 = sqrt(x = input_tensor_101_cast_fp16)[name = tensor<string, []>("second_37_cast_fp16")];
            tensor<fp16, [1, 128, 768]> first_29_cast_fp16 = real_div(x = input_tensor_97_cast_fp16, y = second_37_cast_fp16)[name = tensor<string, []>("first_29_cast_fp16")];
            tensor<fp16, [768]> initializers_onnx_initializer_81_to_fp16 = const()[name = tensor<string, []>("initializers_onnx_initializer_81_to_fp16"), val = tensor<fp16, [768]>(BLOBFILE(path = tensor<string, []>("@model_path/weights/weight.bin"), offset = tensor<uint64, []>(51655360)))];
            tensor<fp16, [1, 128, 768]> first_31_cast_fp16 = mul(x = first_29_cast_fp16, y = initializers_onnx_initializer_81_to_fp16)[name = tensor<string, []>("first_31_cast_fp16")];
            tensor<fp16, [768]> initializers_onnx_initializer_82_to_fp16 = const()[name = tensor<string, []>("initializers_onnx_initializer_82_to_fp16"), val = tensor<fp16, [768]>(BLOBFILE(path = tensor<string, []>("@model_path/weights/weight.bin"), offset = tensor<uint64, []>(51656960)))];
            tensor<fp16, [1, 128, 768]> x_17_cast_fp16 = add(x = first_31_cast_fp16, y = initializers_onnx_initializer_82_to_fp16)[name = tensor<string, []>("x_17_cast_fp16")];
            tensor<fp16, [3072, 768]> transpose_4_to_fp16 = const()[name = tensor<string, []>("transpose_4_to_fp16"), val = tensor<fp16, [3072, 768]>(BLOBFILE(path = tensor<string, []>("@model_path/weights/weight.bin"), offset = tensor<uint64, []>(51658560)))];
            tensor<fp16, [3072]> first_33_bias_0_to_fp16 = const()[name = tensor<string, []>("first_33_bias_0_to_fp16"), val = tensor<fp16, [3072]>(BLOBFILE(path = tensor<string, []>("@model_path/weights/weight.bin"), offset = tensor<uint64, []>(56377216)))];
            tensor<fp16, [1, 128, 3072]> first_33_cast_fp16 = linear(bias = first_33_bias_0_to_fp16, weight = transpose_4_to_fp16, x = x_17_cast_fp16)[name = tensor<string, []>("first_33_cast_fp16")];
            tensor<fp16, [3072, 768]> transpose_5_to_fp16 = const()[name = tensor<string, []>("transpose_5_to_fp16"), val = tensor<fp16, [3072, 768]>(BLOBFILE(path = tensor<string, []>("@model_path/weights/weight.bin"), offset = tensor<uint64, []>(56383424)))];
            tensor<fp16, [1, 128, 3072]> input_3_cast_fp16 = linear(bias = first_33_bias_0_to_fp16, weight = transpose_5_to_fp16, x = x_17_cast_fp16)[name = tensor<string, []>("input_3_cast_fp16")];
            tensor<fp16, [1, 128, 3072]> second_45_cast_fp16 = silu(x = input_3_cast_fp16)[name = tensor<string, []>("second_45_cast_fp16")];
            tensor<fp16, [1, 128, 3072]> x_19_cast_fp16 = mul(x = first_33_cast_fp16, y = second_45_cast_fp16)[name = tensor<string, []>("x_19_cast_fp16")];
            tensor<fp16, [768, 3072]> transpose_6_to_fp16 = const()[name = tensor<string, []>("transpose_6_to_fp16"), val = tensor<fp16, [768, 3072]>(BLOBFILE(path = tensor<string, []>("@model_path/weights/weight.bin"), offset = tensor<uint64, []>(61102080)))];
            tensor<fp16, [1, 128, 768]> first_35_cast_fp16 = linear(bias = first_25_bias_0_to_fp16, weight = transpose_6_to_fp16, x = x_19_cast_fp16)[name = tensor<string, []>("first_35_cast_fp16")];
            tensor<fp16, [1, 128, 768]> input_tensor_103_cast_fp16 = add(x = first_35_cast_fp16, y = x_17_cast_fp16)[name = tensor<string, []>("input_tensor_103_cast_fp16")];
            tensor<bool, []> var_2018 = const()[name = tensor<string, []>("op_2018"), val = tensor<bool, []>(true)];
            tensor<int32, [1]> var_2020 = const()[name = tensor<string, []>("op_2020"), val = tensor<int32, [1]>([-1])];
            tensor<fp16, [1, 128, 1]> second_47_cast_fp16 = reduce_mean(axes = var_2020, keep_dims = var_2018, x = input_tensor_103_cast_fp16)[name = tensor<string, []>("second_47_cast_fp16")];
            tensor<fp16, [1, 128, 768]> input_tensor_105_cast_fp16 = sub(x = input_tensor_103_cast_fp16, y = second_47_cast_fp16)[name = tensor<string, []>("input_tensor_105_cast_fp16")];
            tensor<fp16, []> initializers_onnx_initializer_86_to_fp16 = const()[name = tensor<string, []>("initializers_onnx_initializer_86_to_fp16"), val = tensor<fp16, []>(0x1p+1)];
            tensor<fp16, [1, 128, 768]> input_tensor_107_cast_fp16 = pow(x = input_tensor_105_cast_fp16, y = initializers_onnx_initializer_86_to_fp16)[name = tensor<string, []>("input_tensor_107_cast_fp16")];
            tensor<bool, []> var_2026 = const()[name = tensor<string, []>("op_2026"), val = tensor<bool, []>(true)];
            tensor<int32, [1]> var_2028 = const()[name = tensor<string, []>("op_2028"), val = tensor<int32, [1]>([-1])];
            tensor<fp16, [1, 128, 1]> first_37_cast_fp16 = reduce_mean(axes = var_2028, keep_dims = var_2026, x = input_tensor_107_cast_fp16)[name = tensor<string, []>("first_37_cast_fp16")];
            tensor<fp16, []> initializers_onnx_initializer_87_to_fp16 = const()[name = tensor<string, []>("initializers_onnx_initializer_87_to_fp16"), val = tensor<fp16, []>(0x1p-24)];
            tensor<fp16, [1, 128, 1]> input_tensor_109_cast_fp16 = add(x = first_37_cast_fp16, y = initializers_onnx_initializer_87_to_fp16)[name = tensor<string, []>("input_tensor_109_cast_fp16")];
            tensor<fp16, [1, 128, 1]> second_51_cast_fp16 = sqrt(x = input_tensor_109_cast_fp16)[name = tensor<string, []>("second_51_cast_fp16")];
            tensor<fp16, [1, 128, 768]> first_39_cast_fp16 = real_div(x = input_tensor_105_cast_fp16, y = second_51_cast_fp16)[name = tensor<string, []>("first_39_cast_fp16")];
            tensor<fp16, [768]> initializers_onnx_initializer_88_to_fp16 = const()[name = tensor<string, []>("initializers_onnx_initializer_88_to_fp16"), val = tensor<fp16, [768]>(BLOBFILE(path = tensor<string, []>("@model_path/weights/weight.bin"), offset = tensor<uint64, []>(65820736)))];
            tensor<fp16, [1, 128, 768]> first_41_cast_fp16 = mul(x = first_39_cast_fp16, y = initializers_onnx_initializer_88_to_fp16)[name = tensor<string, []>("first_41_cast_fp16")];
            tensor<fp16, [768]> initializers_onnx_initializer_89_to_fp16 = const()[name = tensor<string, []>("initializers_onnx_initializer_89_to_fp16"), val = tensor<fp16, [768]>(BLOBFILE(path = tensor<string, []>("@model_path/weights/weight.bin"), offset = tensor<uint64, []>(65822336)))];
            tensor<fp16, [1, 128, 768]> x_21_cast_fp16 = add(x = first_41_cast_fp16, y = initializers_onnx_initializer_89_to_fp16)[name = tensor<string, []>("x_21_cast_fp16")];
            tensor<fp16, [2304, 768]> transpose_7_to_fp16 = const()[name = tensor<string, []>("transpose_7_to_fp16"), val = tensor<fp16, [2304, 768]>(BLOBFILE(path = tensor<string, []>("@model_path/weights/weight.bin"), offset = tensor<uint64, []>(65823936)))];
            tensor<fp16, [1, 128, 2304]> input_tensor_111_cast_fp16 = linear(bias = input_tensor_15_bias_0_to_fp16, weight = transpose_7_to_fp16, x = x_21_cast_fp16)[name = tensor<string, []>("input_tensor_111_cast_fp16")];
            tensor<int32, [5]> var_2078 = const()[name = tensor<string, []>("op_2078"), val = tensor<int32, [5]>([1, 128, 3, 12, 64])];
            tensor<fp16, [1, 128, 3, 12, 64]> input_tensor_119_cast_fp16 = reshape(shape = var_2078, x = input_tensor_111_cast_fp16)[name = tensor<string, []>("input_tensor_119_cast_fp16")];
            tensor<int32, [5]> input_tensor_123_begin_0 = const()[name = tensor<string, []>("input_tensor_123_begin_0"), val = tensor<int32, [5]>([0, 0, 0, 0, 0])];
            tensor<int32, [5]> input_tensor_123_end_0 = const()[name = tensor<string, []>("input_tensor_123_end_0"), val = tensor<int32, [5]>([1, 128, 1, 12, 64])];
            tensor<bool, [5]> input_tensor_123_end_mask_0 = const()[name = tensor<string, []>("input_tensor_123_end_mask_0"), val = tensor<bool, [5]>([true, true, false, true, true])];
            tensor<bool, [5]> input_tensor_123_squeeze_mask_0 = const()[name = tensor<string, []>("input_tensor_123_squeeze_mask_0"), val = tensor<bool, [5]>([false, false, true, false, false])];
            tensor<fp16, [1, 128, 12, 64]> input_tensor_123_cast_fp16 = slice_by_index(begin = input_tensor_123_begin_0, end = input_tensor_123_end_0, end_mask = input_tensor_123_end_mask_0, squeeze_mask = input_tensor_123_squeeze_mask_0, x = input_tensor_119_cast_fp16)[name = tensor<string, []>("input_tensor_123_cast_fp16")];
            tensor<int32, [5]> input_tensor_125_begin_0 = const()[name = tensor<string, []>("input_tensor_125_begin_0"), val = tensor<int32, [5]>([0, 0, 1, 0, 0])];
            tensor<int32, [5]> input_tensor_125_end_0 = const()[name = tensor<string, []>("input_tensor_125_end_0"), val = tensor<int32, [5]>([1, 128, 2, 12, 64])];
            tensor<bool, [5]> input_tensor_125_end_mask_0 = const()[name = tensor<string, []>("input_tensor_125_end_mask_0"), val = tensor<bool, [5]>([true, true, false, true, true])];
            tensor<bool, [5]> input_tensor_125_squeeze_mask_0 = const()[name = tensor<string, []>("input_tensor_125_squeeze_mask_0"), val = tensor<bool, [5]>([false, false, true, false, false])];
            tensor<fp16, [1, 128, 12, 64]> input_tensor_125_cast_fp16 = slice_by_index(begin = input_tensor_125_begin_0, end = input_tensor_125_end_0, end_mask = input_tensor_125_end_mask_0, squeeze_mask = input_tensor_125_squeeze_mask_0, x = input_tensor_119_cast_fp16)[name = tensor<string, []>("input_tensor_125_cast_fp16")];
            tensor<int32, [5]> input_tensor_127_begin_0 = const()[name = tensor<string, []>("input_tensor_127_begin_0"), val = tensor<int32, [5]>([0, 0, 2, 0, 0])];
            tensor<int32, [5]> input_tensor_127_end_0 = const()[name = tensor<string, []>("input_tensor_127_end_0"), val = tensor<int32, [5]>([1, 128, 3, 12, 64])];
            tensor<bool, [5]> input_tensor_127_end_mask_0 = const()[name = tensor<string, []>("input_tensor_127_end_mask_0"), val = tensor<bool, [5]>([true, true, false, true, true])];
            tensor<bool, [5]> input_tensor_127_squeeze_mask_0 = const()[name = tensor<string, []>("input_tensor_127_squeeze_mask_0"), val = tensor<bool, [5]>([false, false, true, false, false])];
            tensor<fp16, [1, 128, 12, 64]> input_tensor_127_cast_fp16 = slice_by_index(begin = input_tensor_127_begin_0, end = input_tensor_127_end_0, end_mask = input_tensor_127_end_mask_0, squeeze_mask = input_tensor_127_squeeze_mask_0, x = input_tensor_119_cast_fp16)[name = tensor<string, []>("input_tensor_127_cast_fp16")];
            tensor<int32, [1]> var_2131_axes_0 = const()[name = tensor<string, []>("op_2131_axes_0"), val = tensor<int32, [1]>([2])];
            tensor<fp16, [1, 128, 1, 12, 64]> var_2131_cast_fp16 = expand_dims(axes = var_2131_axes_0, x = input_tensor_127_cast_fp16)[name = tensor<string, []>("op_2131_cast_fp16")];
            tensor<int32, [4]> var_2215_begin_0 = const()[name = tensor<string, []>("op_2215_begin_0"), val = tensor<int32, [4]>([0, 0, 0, 0])];
            tensor<int32, [4]> var_2215_end_0 = const()[name = tensor<string, []>("op_2215_end_0"), val = tensor<int32, [4]>([1, 128, 12, 32])];
            tensor<bool, [4]> var_2215_end_mask_0 = const()[name = tensor<string, []>("op_2215_end_mask_0"), val = tensor<bool, [4]>([true, true, true, false])];
            tensor<fp16, [1, 128, 12, 32]> var_2215_cast_fp16 = slice_by_index(begin = var_2215_begin_0, end = var_2215_end_0, end_mask = var_2215_end_mask_0, x = input_tensor_123_cast_fp16)[name = tensor<string, []>("op_2215_cast_fp16")];
            tensor<int32, [4]> input_tensor_139_begin_0 = const()[name = tensor<string, []>("input_tensor_139_begin_0"), val = tensor<int32, [4]>([0, 0, 0, 32])];
            tensor<int32, [4]> input_tensor_139_end_0 = const()[name = tensor<string, []>("input_tensor_139_end_0"), val = tensor<int32, [4]>([1, 128, 12, 64])];
            tensor<bool, [4]> input_tensor_139_end_mask_0 = const()[name = tensor<string, []>("input_tensor_139_end_mask_0"), val = tensor<bool, [4]>([true, true, true, false])];
            tensor<fp16, [1, 128, 12, 32]> input_tensor_139_cast_fp16 = slice_by_index(begin = input_tensor_139_begin_0, end = input_tensor_139_end_0, end_mask = input_tensor_139_end_mask_0, x = input_tensor_123_cast_fp16)[name = tensor<string, []>("input_tensor_139_cast_fp16")];
            tensor<int32, [4]> var_2235_begin_0 = const()[name = tensor<string, []>("op_2235_begin_0"), val = tensor<int32, [4]>([0, 0, 0, 0])];
            tensor<int32, [4]> var_2235_end_0 = const()[name = tensor<string, []>("op_2235_end_0"), val = tensor<int32, [4]>([1, 128, 12, 32])];
            tensor<bool, [4]> var_2235_end_mask_0 = const()[name = tensor<string, []>("op_2235_end_mask_0"), val = tensor<bool, [4]>([true, true, true, false])];
            tensor<fp16, [1, 128, 12, 32]> var_2235_cast_fp16 = slice_by_index(begin = var_2235_begin_0, end = var_2235_end_0, end_mask = var_2235_end_mask_0, x = input_tensor_125_cast_fp16)[name = tensor<string, []>("op_2235_cast_fp16")];
            tensor<int32, [4]> input_tensor_141_begin_0 = const()[name = tensor<string, []>("input_tensor_141_begin_0"), val = tensor<int32, [4]>([0, 0, 0, 32])];
            tensor<int32, [4]> input_tensor_141_end_0 = const()[name = tensor<string, []>("input_tensor_141_end_0"), val = tensor<int32, [4]>([1, 128, 12, 64])];
            tensor<bool, [4]> input_tensor_141_end_mask_0 = const()[name = tensor<string, []>("input_tensor_141_end_mask_0"), val = tensor<bool, [4]>([true, true, true, false])];
            tensor<fp16, [1, 128, 12, 32]> input_tensor_141_cast_fp16 = slice_by_index(begin = input_tensor_141_begin_0, end = input_tensor_141_end_0, end_mask = input_tensor_141_end_mask_0, x = input_tensor_125_cast_fp16)[name = tensor<string, []>("input_tensor_141_cast_fp16")];
            tensor<fp16, []> const_2_promoted_to_fp16 = const()[name = tensor<string, []>("const_2_promoted_to_fp16"), val = tensor<fp16, []>(-0x1p+0)];
            tensor<fp16, [1, 128, 12, 32]> var_2257_cast_fp16 = mul(x = input_tensor_139_cast_fp16, y = const_2_promoted_to_fp16)[name = tensor<string, []>("op_2257_cast_fp16")];
            tensor<fp16, []> const_3_promoted_to_fp16 = const()[name = tensor<string, []>("const_3_promoted_to_fp16"), val = tensor<fp16, []>(-0x1p+0)];
            tensor<fp16, [1, 128, 12, 32]> var_2258_cast_fp16 = mul(x = input_tensor_141_cast_fp16, y = const_3_promoted_to_fp16)[name = tensor<string, []>("op_2258_cast_fp16")];
            tensor<int32, []> var_2263 = const()[name = tensor<string, []>("op_2263"), val = tensor<int32, []>(-1)];
            tensor<bool, []> first_43_interleave_0 = const()[name = tensor<string, []>("first_43_interleave_0"), val = tensor<bool, []>(false)];
            tensor<fp16, [1, 128, 12, 64]> first_43_cast_fp16 = concat(axis = var_2263, interleave = first_43_interleave_0, values = (var_2257_cast_fp16, var_2215_cast_fp16))[name = tensor<string, []>("first_43_cast_fp16")];
            tensor<int32, []> var_2266 = const()[name = tensor<string, []>("op_2266"), val = tensor<int32, []>(-1)];
            tensor<bool, []> first_45_interleave_0 = const()[name = tensor<string, []>("first_45_interleave_0"), val = tensor<bool, []>(false)];
            tensor<fp16, [1, 128, 12, 64]> first_45_cast_fp16 = concat(axis = var_2266, interleave = first_45_interleave_0, values = (var_2258_cast_fp16, var_2235_cast_fp16))[name = tensor<string, []>("first_45_cast_fp16")];
            tensor<fp16, [1, 128, 12, 64]> first_47_cast_fp16 = mul(x = input_tensor_123_cast_fp16, y = second_17_to_fp16)[name = tensor<string, []>("first_47_cast_fp16")];
            tensor<fp16, [1, 128, 12, 64]> first_49_cast_fp16 = mul(x = input_tensor_125_cast_fp16, y = second_17_to_fp16)[name = tensor<string, []>("first_49_cast_fp16")];
            tensor<fp16, [1, 128, 12, 64]> second_65_cast_fp16 = mul(x = first_43_cast_fp16, y = second_21_to_fp16)[name = tensor<string, []>("second_65_cast_fp16")];
            tensor<fp16, [1, 128, 12, 64]> second_67_cast_fp16 = mul(x = first_45_cast_fp16, y = second_21_to_fp16)[name = tensor<string, []>("second_67_cast_fp16")];
            tensor<fp16, [1, 128, 12, 64]> var_2420_cast_fp16 = add(x = first_47_cast_fp16, y = second_65_cast_fp16)[name = tensor<string, []>("op_2420_cast_fp16")];
            tensor<fp16, [1, 128, 12, 64]> var_2422_cast_fp16 = add(x = first_49_cast_fp16, y = second_67_cast_fp16)[name = tensor<string, []>("op_2422_cast_fp16")];
            tensor<int32, []> var_2423 = const()[name = tensor<string, []>("op_2423"), val = tensor<int32, []>(-1)];
            tensor<bool, []> input_tensor_169_interleave_0 = const()[name = tensor<string, []>("input_tensor_169_interleave_0"), val = tensor<bool, []>(false)];
            tensor<fp16, [1, 128, 12, 64]> input_tensor_169_cast_fp16 = concat(axis = var_2423, interleave = input_tensor_169_interleave_0, values = var_2420_cast_fp16)[name = tensor<string, []>("input_tensor_169_cast_fp16")];
            tensor<int32, []> var_2426 = const()[name = tensor<string, []>("op_2426"), val = tensor<int32, []>(-1)];
            tensor<bool, []> input_tensor_171_interleave_0 = const()[name = tensor<string, []>("input_tensor_171_interleave_0"), val = tensor<bool, []>(false)];
            tensor<fp16, [1, 128, 12, 64]> input_tensor_171_cast_fp16 = concat(axis = var_2426, interleave = input_tensor_171_interleave_0, values = var_2422_cast_fp16)[name = tensor<string, []>("input_tensor_171_cast_fp16")];
            tensor<int32, [1]> var_2430_axes_0 = const()[name = tensor<string, []>("op_2430_axes_0"), val = tensor<int32, [1]>([2])];
            tensor<fp16, [1, 128, 1, 12, 64]> var_2430_cast_fp16 = expand_dims(axes = var_2430_axes_0, x = input_tensor_169_cast_fp16)[name = tensor<string, []>("op_2430_cast_fp16")];
            tensor<int32, [1]> var_2432_axes_0 = const()[name = tensor<string, []>("op_2432_axes_0"), val = tensor<int32, [1]>([2])];
            tensor<fp16, [1, 128, 1, 12, 64]> var_2432_cast_fp16 = expand_dims(axes = var_2432_axes_0, x = input_tensor_171_cast_fp16)[name = tensor<string, []>("op_2432_cast_fp16")];
            tensor<int32, []> var_2433 = const()[name = tensor<string, []>("op_2433"), val = tensor<int32, []>(2)];
            tensor<bool, []> input_tensor_173_interleave_0 = const()[name = tensor<string, []>("input_tensor_173_interleave_0"), val = tensor<bool, []>(false)];
            tensor<fp16, [1, 128, 3, 12, 64]> input_tensor_173_cast_fp16 = concat(axis = var_2433, interleave = input_tensor_173_interleave_0, values = (var_2430_cast_fp16, var_2432_cast_fp16, var_2131_cast_fp16))[name = tensor<string, []>("input_tensor_173_cast_fp16")];
            tensor<int32, [5]> input_tensor_175_begin_0 = const()[name = tensor<string, []>("input_tensor_175_begin_0"), val = tensor<int32, [5]>([0, 0, 0, 0, 0])];
            tensor<int32, [5]> input_tensor_175_end_0 = const()[name = tensor<string, []>("input_tensor_175_end_0"), val = tensor<int32, [5]>([1, 128, 1, 12, 64])];
            tensor<bool, [5]> input_tensor_175_end_mask_0 = const()[name = tensor<string, []>("input_tensor_175_end_mask_0"), val = tensor<bool, [5]>([true, true, false, true, true])];
            tensor<bool, [5]> input_tensor_175_squeeze_mask_0 = const()[name = tensor<string, []>("input_tensor_175_squeeze_mask_0"), val = tensor<bool, [5]>([false, false, true, false, false])];
            tensor<fp16, [1, 128, 12, 64]> input_tensor_175_cast_fp16 = slice_by_index(begin = input_tensor_175_begin_0, end = input_tensor_175_end_0, end_mask = input_tensor_175_end_mask_0, squeeze_mask = input_tensor_175_squeeze_mask_0, x = input_tensor_173_cast_fp16)[name = tensor<string, []>("input_tensor_175_cast_fp16")];
            tensor<int32, [5]> input_tensor_179_begin_0 = const()[name = tensor<string, []>("input_tensor_179_begin_0"), val = tensor<int32, [5]>([0, 0, 1, 0, 0])];
            tensor<int32, [5]> input_tensor_179_end_0 = const()[name = tensor<string, []>("input_tensor_179_end_0"), val = tensor<int32, [5]>([1, 128, 2, 12, 64])];
            tensor<bool, [5]> input_tensor_179_end_mask_0 = const()[name = tensor<string, []>("input_tensor_179_end_mask_0"), val = tensor<bool, [5]>([true, true, false, true, true])];
            tensor<bool, [5]> input_tensor_179_squeeze_mask_0 = const()[name = tensor<string, []>("input_tensor_179_squeeze_mask_0"), val = tensor<bool, [5]>([false, false, true, false, false])];
            tensor<fp16, [1, 128, 12, 64]> input_tensor_179_cast_fp16 = slice_by_index(begin = input_tensor_179_begin_0, end = input_tensor_179_end_0, end_mask = input_tensor_179_end_mask_0, squeeze_mask = input_tensor_179_squeeze_mask_0, x = input_tensor_173_cast_fp16)[name = tensor<string, []>("input_tensor_179_cast_fp16")];
            tensor<int32, [5]> input_tensor_177_begin_0 = const()[name = tensor<string, []>("input_tensor_177_begin_0"), val = tensor<int32, [5]>([0, 0, 2, 0, 0])];
            tensor<int32, [5]> input_tensor_177_end_0 = const()[name = tensor<string, []>("input_tensor_177_end_0"), val = tensor<int32, [5]>([1, 128, 3, 12, 64])];
            tensor<bool, [5]> input_tensor_177_end_mask_0 = const()[name = tensor<string, []>("input_tensor_177_end_mask_0"), val = tensor<bool, [5]>([true, true, false, true, true])];
            tensor<bool, [5]> input_tensor_177_squeeze_mask_0 = const()[name = tensor<string, []>("input_tensor_177_squeeze_mask_0"), val = tensor<bool, [5]>([false, false, true, false, false])];
            tensor<fp16, [1, 128, 12, 64]> input_tensor_177_cast_fp16 = slice_by_index(begin = input_tensor_177_begin_0, end = input_tensor_177_end_0, end_mask = input_tensor_177_end_mask_0, squeeze_mask = input_tensor_177_squeeze_mask_0, x = input_tensor_173_cast_fp16)[name = tensor<string, []>("input_tensor_177_cast_fp16")];
            tensor<int32, [4]> var_2482 = const()[name = tensor<string, []>("op_2482"), val = tensor<int32, [4]>([0, 2, 1, 3])];
            tensor<bool, []> first_51_transpose_x_0 = const()[name = tensor<string, []>("first_51_transpose_x_0"), val = tensor<bool, []>(false)];
            tensor<bool, []> first_51_transpose_y_0 = const()[name = tensor<string, []>("first_51_transpose_y_0"), val = tensor<bool, []>(false)];
            tensor<int32, [4]> transpose_134_perm_0 = const()[name = tensor<string, []>("transpose_134_perm_0"), val = tensor<int32, [4]>([0, 2, -3, -1])];
            tensor<int32, [4]> transpose_135_perm_0 = const()[name = tensor<string, []>("transpose_135_perm_0"), val = tensor<int32, [4]>([0, 2, -1, -3])];
            tensor<fp16, [1, 12, 64, 128]> transpose_197 = transpose(perm = transpose_135_perm_0, x = input_tensor_179_cast_fp16)[name = tensor<string, []>("transpose_197")];
            tensor<fp16, [1, 12, 128, 64]> transpose_198 = transpose(perm = transpose_134_perm_0, x = input_tensor_175_cast_fp16)[name = tensor<string, []>("transpose_198")];
            tensor<fp16, [1, 12, 128, 128]> first_51_cast_fp16 = matmul(transpose_x = first_51_transpose_x_0, transpose_y = first_51_transpose_y_0, x = transpose_198, y = transpose_197)[name = tensor<string, []>("first_51_cast_fp16")];
            tensor<fp16, []> _inversed_first_53_y_0_to_fp16 = const()[name = tensor<string, []>("_inversed_first_53_y_0_to_fp16"), val = tensor<fp16, []>(0x1p-3)];
            tensor<fp16, [1, 12, 128, 128]> _inversed_first_53_cast_fp16 = mul(x = first_51_cast_fp16, y = _inversed_first_53_y_0_to_fp16)[name = tensor<string, []>("_inversed_first_53_cast_fp16")];
            tensor<fp16, [1, 12, 128, 128]> input_5_cast_fp16 = add(x = _inversed_first_53_cast_fp16, y = second_31_cast_fp16)[name = tensor<string, []>("input_5_cast_fp16")];
            tensor<int32, []> var_2495 = const()[name = tensor<string, []>("op_2495"), val = tensor<int32, []>(-1)];
            tensor<fp16, [1, 12, 128, 128]> x_33_cast_fp16 = softmax(axis = var_2495, x = input_5_cast_fp16)[name = tensor<string, []>("x_33_cast_fp16")];
            tensor<bool, []> input_tensor_181_transpose_x_0 = const()[name = tensor<string, []>("input_tensor_181_transpose_x_0"), val = tensor<bool, []>(false)];
            tensor<bool, []> input_tensor_181_transpose_y_0 = const()[name = tensor<string, []>("input_tensor_181_transpose_y_0"), val = tensor<bool, []>(false)];
            tensor<fp16, [1, 12, 128, 64]> transpose_199 = transpose(perm = var_2482, x = input_tensor_177_cast_fp16)[name = tensor<string, []>("transpose_199")];
            tensor<fp16, [1, 12, 128, 64]> input_tensor_181_cast_fp16 = matmul(transpose_x = input_tensor_181_transpose_x_0, transpose_y = input_tensor_181_transpose_y_0, x = x_33_cast_fp16, y = transpose_199)[name = tensor<string, []>("input_tensor_181_cast_fp16")];
            tensor<int32, [4]> var_2502 = const()[name = tensor<string, []>("op_2502"), val = tensor<int32, [4]>([0, 2, 1, 3])];
            tensor<int32, [3]> var_2540 = const()[name = tensor<string, []>("op_2540"), val = tensor<int32, [3]>([1, 128, 768])];
            tensor<fp16, [1, 128, 12, 64]> transpose_196 = transpose(perm = var_2502, x = input_tensor_181_cast_fp16)[name = tensor<string, []>("transpose_196")];
            tensor<fp16, [1, 128, 768]> x_35_cast_fp16 = reshape(shape = var_2540, x = transpose_196)[name = tensor<string, []>("x_35_cast_fp16")];
            tensor<fp16, [768, 768]> transpose_10_to_fp16 = const()[name = tensor<string, []>("transpose_10_to_fp16"), val = tensor<fp16, [768, 768]>(BLOBFILE(path = tensor<string, []>("@model_path/weights/weight.bin"), offset = tensor<uint64, []>(69362944)))];
            tensor<fp16, [1, 128, 768]> first_55_cast_fp16 = linear(bias = first_25_bias_0_to_fp16, weight = transpose_10_to_fp16, x = x_35_cast_fp16)[name = tensor<string, []>("first_55_cast_fp16")];
            tensor<fp16, [1, 128, 768]> input_tensor_191_cast_fp16 = add(x = first_55_cast_fp16, y = x_21_cast_fp16)[name = tensor<string, []>("input_tensor_191_cast_fp16")];
            tensor<bool, []> var_2546 = const()[name = tensor<string, []>("op_2546"), val = tensor<bool, []>(true)];
            tensor<int32, [1]> var_2548 = const()[name = tensor<string, []>("op_2548"), val = tensor<int32, [1]>([-1])];
            tensor<fp16, [1, 128, 1]> second_71_cast_fp16 = reduce_mean(axes = var_2548, keep_dims = var_2546, x = input_tensor_191_cast_fp16)[name = tensor<string, []>("second_71_cast_fp16")];
            tensor<fp16, [1, 128, 768]> input_tensor_193_cast_fp16 = sub(x = input_tensor_191_cast_fp16, y = second_71_cast_fp16)[name = tensor<string, []>("input_tensor_193_cast_fp16")];
            tensor<fp16, []> initializers_onnx_initializer_161_to_fp16 = const()[name = tensor<string, []>("initializers_onnx_initializer_161_to_fp16"), val = tensor<fp16, []>(0x1p+1)];
            tensor<fp16, [1, 128, 768]> input_tensor_195_cast_fp16 = pow(x = input_tensor_193_cast_fp16, y = initializers_onnx_initializer_161_to_fp16)[name = tensor<string, []>("input_tensor_195_cast_fp16")];
            tensor<bool, []> var_2554 = const()[name = tensor<string, []>("op_2554"), val = tensor<bool, []>(true)];
            tensor<int32, [1]> var_2556 = const()[name = tensor<string, []>("op_2556"), val = tensor<int32, [1]>([-1])];
            tensor<fp16, [1, 128, 1]> first_57_cast_fp16 = reduce_mean(axes = var_2556, keep_dims = var_2554, x = input_tensor_195_cast_fp16)[name = tensor<string, []>("first_57_cast_fp16")];
            tensor<fp16, []> initializers_onnx_initializer_162_to_fp16 = const()[name = tensor<string, []>("initializers_onnx_initializer_162_to_fp16"), val = tensor<fp16, []>(0x1p-24)];
            tensor<fp16, [1, 128, 1]> input_tensor_197_cast_fp16 = add(x = first_57_cast_fp16, y = initializers_onnx_initializer_162_to_fp16)[name = tensor<string, []>("input_tensor_197_cast_fp16")];
            tensor<fp16, [1, 128, 1]> second_75_cast_fp16 = sqrt(x = input_tensor_197_cast_fp16)[name = tensor<string, []>("second_75_cast_fp16")];
            tensor<fp16, [1, 128, 768]> first_59_cast_fp16 = real_div(x = input_tensor_193_cast_fp16, y = second_75_cast_fp16)[name = tensor<string, []>("first_59_cast_fp16")];
            tensor<fp16, [768]> initializers_onnx_initializer_163_to_fp16 = const()[name = tensor<string, []>("initializers_onnx_initializer_163_to_fp16"), val = tensor<fp16, [768]>(BLOBFILE(path = tensor<string, []>("@model_path/weights/weight.bin"), offset = tensor<uint64, []>(70542656)))];
            tensor<fp16, [1, 128, 768]> first_61_cast_fp16 = mul(x = first_59_cast_fp16, y = initializers_onnx_initializer_163_to_fp16)[name = tensor<string, []>("first_61_cast_fp16")];
            tensor<fp16, [768]> initializers_onnx_initializer_164_to_fp16 = const()[name = tensor<string, []>("initializers_onnx_initializer_164_to_fp16"), val = tensor<fp16, [768]>(BLOBFILE(path = tensor<string, []>("@model_path/weights/weight.bin"), offset = tensor<uint64, []>(70544256)))];
            tensor<fp16, [1, 128, 768]> x_37_cast_fp16 = add(x = first_61_cast_fp16, y = initializers_onnx_initializer_164_to_fp16)[name = tensor<string, []>("x_37_cast_fp16")];
            tensor<fp16, [3072, 768]> transpose_11_to_fp16 = const()[name = tensor<string, []>("transpose_11_to_fp16"), val = tensor<fp16, [3072, 768]>(BLOBFILE(path = tensor<string, []>("@model_path/weights/weight.bin"), offset = tensor<uint64, []>(70545856)))];
            tensor<fp16, [1, 128, 3072]> first_63_cast_fp16 = linear(bias = first_33_bias_0_to_fp16, weight = transpose_11_to_fp16, x = x_37_cast_fp16)[name = tensor<string, []>("first_63_cast_fp16")];
            tensor<fp16, [3072, 768]> transpose_12_to_fp16 = const()[name = tensor<string, []>("transpose_12_to_fp16"), val = tensor<fp16, [3072, 768]>(BLOBFILE(path = tensor<string, []>("@model_path/weights/weight.bin"), offset = tensor<uint64, []>(75264512)))];
            tensor<fp16, [1, 128, 3072]> input_7_cast_fp16 = linear(bias = first_33_bias_0_to_fp16, weight = transpose_12_to_fp16, x = x_37_cast_fp16)[name = tensor<string, []>("input_7_cast_fp16")];
            tensor<fp16, [1, 128, 3072]> second_83_cast_fp16 = silu(x = input_7_cast_fp16)[name = tensor<string, []>("second_83_cast_fp16")];
            tensor<fp16, [1, 128, 3072]> x_39_cast_fp16 = mul(x = first_63_cast_fp16, y = second_83_cast_fp16)[name = tensor<string, []>("x_39_cast_fp16")];
            tensor<fp16, [768, 3072]> transpose_13_to_fp16 = const()[name = tensor<string, []>("transpose_13_to_fp16"), val = tensor<fp16, [768, 3072]>(BLOBFILE(path = tensor<string, []>("@model_path/weights/weight.bin"), offset = tensor<uint64, []>(79983168)))];
            tensor<fp16, [1, 128, 768]> first_65_cast_fp16 = linear(bias = first_25_bias_0_to_fp16, weight = transpose_13_to_fp16, x = x_39_cast_fp16)[name = tensor<string, []>("first_65_cast_fp16")];
            tensor<fp16, [1, 128, 768]> input_tensor_199_cast_fp16 = add(x = first_65_cast_fp16, y = x_37_cast_fp16)[name = tensor<string, []>("input_tensor_199_cast_fp16")];
            tensor<bool, []> var_2574 = const()[name = tensor<string, []>("op_2574"), val = tensor<bool, []>(true)];
            tensor<int32, [1]> var_2576 = const()[name = tensor<string, []>("op_2576"), val = tensor<int32, [1]>([-1])];
            tensor<fp16, [1, 128, 1]> second_85_cast_fp16 = reduce_mean(axes = var_2576, keep_dims = var_2574, x = input_tensor_199_cast_fp16)[name = tensor<string, []>("second_85_cast_fp16")];
            tensor<fp16, [1, 128, 768]> input_tensor_201_cast_fp16 = sub(x = input_tensor_199_cast_fp16, y = second_85_cast_fp16)[name = tensor<string, []>("input_tensor_201_cast_fp16")];
            tensor<fp16, []> initializers_onnx_initializer_168_to_fp16 = const()[name = tensor<string, []>("initializers_onnx_initializer_168_to_fp16"), val = tensor<fp16, []>(0x1p+1)];
            tensor<fp16, [1, 128, 768]> input_tensor_203_cast_fp16 = pow(x = input_tensor_201_cast_fp16, y = initializers_onnx_initializer_168_to_fp16)[name = tensor<string, []>("input_tensor_203_cast_fp16")];
            tensor<bool, []> var_2582 = const()[name = tensor<string, []>("op_2582"), val = tensor<bool, []>(true)];
            tensor<int32, [1]> var_2584 = const()[name = tensor<string, []>("op_2584"), val = tensor<int32, [1]>([-1])];
            tensor<fp16, [1, 128, 1]> first_67_cast_fp16 = reduce_mean(axes = var_2584, keep_dims = var_2582, x = input_tensor_203_cast_fp16)[name = tensor<string, []>("first_67_cast_fp16")];
            tensor<fp16, []> initializers_onnx_initializer_169_to_fp16 = const()[name = tensor<string, []>("initializers_onnx_initializer_169_to_fp16"), val = tensor<fp16, []>(0x1p-24)];
            tensor<fp16, [1, 128, 1]> input_tensor_205_cast_fp16 = add(x = first_67_cast_fp16, y = initializers_onnx_initializer_169_to_fp16)[name = tensor<string, []>("input_tensor_205_cast_fp16")];
            tensor<fp16, [1, 128, 1]> second_89_cast_fp16 = sqrt(x = input_tensor_205_cast_fp16)[name = tensor<string, []>("second_89_cast_fp16")];
            tensor<fp16, [1, 128, 768]> first_69_cast_fp16 = real_div(x = input_tensor_201_cast_fp16, y = second_89_cast_fp16)[name = tensor<string, []>("first_69_cast_fp16")];
            tensor<fp16, [768]> initializers_onnx_initializer_170_to_fp16 = const()[name = tensor<string, []>("initializers_onnx_initializer_170_to_fp16"), val = tensor<fp16, [768]>(BLOBFILE(path = tensor<string, []>("@model_path/weights/weight.bin"), offset = tensor<uint64, []>(84701824)))];
            tensor<fp16, [1, 128, 768]> first_71_cast_fp16 = mul(x = first_69_cast_fp16, y = initializers_onnx_initializer_170_to_fp16)[name = tensor<string, []>("first_71_cast_fp16")];
            tensor<fp16, [768]> initializers_onnx_initializer_171_to_fp16 = const()[name = tensor<string, []>("initializers_onnx_initializer_171_to_fp16"), val = tensor<fp16, [768]>(BLOBFILE(path = tensor<string, []>("@model_path/weights/weight.bin"), offset = tensor<uint64, []>(84703424)))];
            tensor<fp16, [1, 128, 768]> x_41_cast_fp16 = add(x = first_71_cast_fp16, y = initializers_onnx_initializer_171_to_fp16)[name = tensor<string, []>("x_41_cast_fp16")];
            tensor<fp16, [2304, 768]> transpose_14_to_fp16 = const()[name = tensor<string, []>("transpose_14_to_fp16"), val = tensor<fp16, [2304, 768]>(BLOBFILE(path = tensor<string, []>("@model_path/weights/weight.bin"), offset = tensor<uint64, []>(84705024)))];
            tensor<fp16, [1, 128, 2304]> input_tensor_207_cast_fp16 = linear(bias = input_tensor_15_bias_0_to_fp16, weight = transpose_14_to_fp16, x = x_41_cast_fp16)[name = tensor<string, []>("input_tensor_207_cast_fp16")];
            tensor<int32, [5]> var_2634 = const()[name = tensor<string, []>("op_2634"), val = tensor<int32, [5]>([1, 128, 3, 12, 64])];
            tensor<fp16, [1, 128, 3, 12, 64]> input_tensor_215_cast_fp16 = reshape(shape = var_2634, x = input_tensor_207_cast_fp16)[name = tensor<string, []>("input_tensor_215_cast_fp16")];
            tensor<int32, [5]> input_tensor_219_begin_0 = const()[name = tensor<string, []>("input_tensor_219_begin_0"), val = tensor<int32, [5]>([0, 0, 0, 0, 0])];
            tensor<int32, [5]> input_tensor_219_end_0 = const()[name = tensor<string, []>("input_tensor_219_end_0"), val = tensor<int32, [5]>([1, 128, 1, 12, 64])];
            tensor<bool, [5]> input_tensor_219_end_mask_0 = const()[name = tensor<string, []>("input_tensor_219_end_mask_0"), val = tensor<bool, [5]>([true, true, false, true, true])];
            tensor<bool, [5]> input_tensor_219_squeeze_mask_0 = const()[name = tensor<string, []>("input_tensor_219_squeeze_mask_0"), val = tensor<bool, [5]>([false, false, true, false, false])];
            tensor<fp16, [1, 128, 12, 64]> input_tensor_219_cast_fp16 = slice_by_index(begin = input_tensor_219_begin_0, end = input_tensor_219_end_0, end_mask = input_tensor_219_end_mask_0, squeeze_mask = input_tensor_219_squeeze_mask_0, x = input_tensor_215_cast_fp16)[name = tensor<string, []>("input_tensor_219_cast_fp16")];
            tensor<int32, [5]> input_tensor_221_begin_0 = const()[name = tensor<string, []>("input_tensor_221_begin_0"), val = tensor<int32, [5]>([0, 0, 1, 0, 0])];
            tensor<int32, [5]> input_tensor_221_end_0 = const()[name = tensor<string, []>("input_tensor_221_end_0"), val = tensor<int32, [5]>([1, 128, 2, 12, 64])];
            tensor<bool, [5]> input_tensor_221_end_mask_0 = const()[name = tensor<string, []>("input_tensor_221_end_mask_0"), val = tensor<bool, [5]>([true, true, false, true, true])];
            tensor<bool, [5]> input_tensor_221_squeeze_mask_0 = const()[name = tensor<string, []>("input_tensor_221_squeeze_mask_0"), val = tensor<bool, [5]>([false, false, true, false, false])];
            tensor<fp16, [1, 128, 12, 64]> input_tensor_221_cast_fp16 = slice_by_index(begin = input_tensor_221_begin_0, end = input_tensor_221_end_0, end_mask = input_tensor_221_end_mask_0, squeeze_mask = input_tensor_221_squeeze_mask_0, x = input_tensor_215_cast_fp16)[name = tensor<string, []>("input_tensor_221_cast_fp16")];
            tensor<int32, [5]> input_tensor_223_begin_0 = const()[name = tensor<string, []>("input_tensor_223_begin_0"), val = tensor<int32, [5]>([0, 0, 2, 0, 0])];
            tensor<int32, [5]> input_tensor_223_end_0 = const()[name = tensor<string, []>("input_tensor_223_end_0"), val = tensor<int32, [5]>([1, 128, 3, 12, 64])];
            tensor<bool, [5]> input_tensor_223_end_mask_0 = const()[name = tensor<string, []>("input_tensor_223_end_mask_0"), val = tensor<bool, [5]>([true, true, false, true, true])];
            tensor<bool, [5]> input_tensor_223_squeeze_mask_0 = const()[name = tensor<string, []>("input_tensor_223_squeeze_mask_0"), val = tensor<bool, [5]>([false, false, true, false, false])];
            tensor<fp16, [1, 128, 12, 64]> input_tensor_223_cast_fp16 = slice_by_index(begin = input_tensor_223_begin_0, end = input_tensor_223_end_0, end_mask = input_tensor_223_end_mask_0, squeeze_mask = input_tensor_223_squeeze_mask_0, x = input_tensor_215_cast_fp16)[name = tensor<string, []>("input_tensor_223_cast_fp16")];
            tensor<int32, [1]> var_2687_axes_0 = const()[name = tensor<string, []>("op_2687_axes_0"), val = tensor<int32, [1]>([2])];
            tensor<fp16, [1, 128, 1, 12, 64]> var_2687_cast_fp16 = expand_dims(axes = var_2687_axes_0, x = input_tensor_223_cast_fp16)[name = tensor<string, []>("op_2687_cast_fp16")];
            tensor<int32, [4]> var_2771_begin_0 = const()[name = tensor<string, []>("op_2771_begin_0"), val = tensor<int32, [4]>([0, 0, 0, 0])];
            tensor<int32, [4]> var_2771_end_0 = const()[name = tensor<string, []>("op_2771_end_0"), val = tensor<int32, [4]>([1, 128, 12, 32])];
            tensor<bool, [4]> var_2771_end_mask_0 = const()[name = tensor<string, []>("op_2771_end_mask_0"), val = tensor<bool, [4]>([true, true, true, false])];
            tensor<fp16, [1, 128, 12, 32]> var_2771_cast_fp16 = slice_by_index(begin = var_2771_begin_0, end = var_2771_end_0, end_mask = var_2771_end_mask_0, x = input_tensor_219_cast_fp16)[name = tensor<string, []>("op_2771_cast_fp16")];
            tensor<int32, [4]> input_tensor_235_begin_0 = const()[name = tensor<string, []>("input_tensor_235_begin_0"), val = tensor<int32, [4]>([0, 0, 0, 32])];
            tensor<int32, [4]> input_tensor_235_end_0 = const()[name = tensor<string, []>("input_tensor_235_end_0"), val = tensor<int32, [4]>([1, 128, 12, 64])];
            tensor<bool, [4]> input_tensor_235_end_mask_0 = const()[name = tensor<string, []>("input_tensor_235_end_mask_0"), val = tensor<bool, [4]>([true, true, true, false])];
            tensor<fp16, [1, 128, 12, 32]> input_tensor_235_cast_fp16 = slice_by_index(begin = input_tensor_235_begin_0, end = input_tensor_235_end_0, end_mask = input_tensor_235_end_mask_0, x = input_tensor_219_cast_fp16)[name = tensor<string, []>("input_tensor_235_cast_fp16")];
            tensor<int32, [4]> var_2791_begin_0 = const()[name = tensor<string, []>("op_2791_begin_0"), val = tensor<int32, [4]>([0, 0, 0, 0])];
            tensor<int32, [4]> var_2791_end_0 = const()[name = tensor<string, []>("op_2791_end_0"), val = tensor<int32, [4]>([1, 128, 12, 32])];
            tensor<bool, [4]> var_2791_end_mask_0 = const()[name = tensor<string, []>("op_2791_end_mask_0"), val = tensor<bool, [4]>([true, true, true, false])];
            tensor<fp16, [1, 128, 12, 32]> var_2791_cast_fp16 = slice_by_index(begin = var_2791_begin_0, end = var_2791_end_0, end_mask = var_2791_end_mask_0, x = input_tensor_221_cast_fp16)[name = tensor<string, []>("op_2791_cast_fp16")];
            tensor<int32, [4]> input_tensor_237_begin_0 = const()[name = tensor<string, []>("input_tensor_237_begin_0"), val = tensor<int32, [4]>([0, 0, 0, 32])];
            tensor<int32, [4]> input_tensor_237_end_0 = const()[name = tensor<string, []>("input_tensor_237_end_0"), val = tensor<int32, [4]>([1, 128, 12, 64])];
            tensor<bool, [4]> input_tensor_237_end_mask_0 = const()[name = tensor<string, []>("input_tensor_237_end_mask_0"), val = tensor<bool, [4]>([true, true, true, false])];
            tensor<fp16, [1, 128, 12, 32]> input_tensor_237_cast_fp16 = slice_by_index(begin = input_tensor_237_begin_0, end = input_tensor_237_end_0, end_mask = input_tensor_237_end_mask_0, x = input_tensor_221_cast_fp16)[name = tensor<string, []>("input_tensor_237_cast_fp16")];
            tensor<fp16, []> const_4_promoted_to_fp16 = const()[name = tensor<string, []>("const_4_promoted_to_fp16"), val = tensor<fp16, []>(-0x1p+0)];
            tensor<fp16, [1, 128, 12, 32]> var_2813_cast_fp16 = mul(x = input_tensor_235_cast_fp16, y = const_4_promoted_to_fp16)[name = tensor<string, []>("op_2813_cast_fp16")];
            tensor<fp16, []> const_5_promoted_to_fp16 = const()[name = tensor<string, []>("const_5_promoted_to_fp16"), val = tensor<fp16, []>(-0x1p+0)];
            tensor<fp16, [1, 128, 12, 32]> var_2814_cast_fp16 = mul(x = input_tensor_237_cast_fp16, y = const_5_promoted_to_fp16)[name = tensor<string, []>("op_2814_cast_fp16")];
            tensor<int32, []> var_2819 = const()[name = tensor<string, []>("op_2819"), val = tensor<int32, []>(-1)];
            tensor<bool, []> first_73_interleave_0 = const()[name = tensor<string, []>("first_73_interleave_0"), val = tensor<bool, []>(false)];
            tensor<fp16, [1, 128, 12, 64]> first_73_cast_fp16 = concat(axis = var_2819, interleave = first_73_interleave_0, values = (var_2813_cast_fp16, var_2771_cast_fp16))[name = tensor<string, []>("first_73_cast_fp16")];
            tensor<int32, []> var_2822 = const()[name = tensor<string, []>("op_2822"), val = tensor<int32, []>(-1)];
            tensor<bool, []> first_75_interleave_0 = const()[name = tensor<string, []>("first_75_interleave_0"), val = tensor<bool, []>(false)];
            tensor<fp16, [1, 128, 12, 64]> first_75_cast_fp16 = concat(axis = var_2822, interleave = first_75_interleave_0, values = (var_2814_cast_fp16, var_2791_cast_fp16))[name = tensor<string, []>("first_75_cast_fp16")];
            tensor<fp16, [1, 128, 12, 64]> first_77_cast_fp16 = mul(x = input_tensor_219_cast_fp16, y = second_17_to_fp16)[name = tensor<string, []>("first_77_cast_fp16")];
            tensor<fp16, [1, 128, 12, 64]> first_79_cast_fp16 = mul(x = input_tensor_221_cast_fp16, y = second_17_to_fp16)[name = tensor<string, []>("first_79_cast_fp16")];
            tensor<fp16, [1, 128, 12, 64]> second_103_cast_fp16 = mul(x = first_73_cast_fp16, y = second_21_to_fp16)[name = tensor<string, []>("second_103_cast_fp16")];
            tensor<fp16, [1, 128, 12, 64]> second_105_cast_fp16 = mul(x = first_75_cast_fp16, y = second_21_to_fp16)[name = tensor<string, []>("second_105_cast_fp16")];
            tensor<fp16, [1, 128, 12, 64]> var_2976_cast_fp16 = add(x = first_77_cast_fp16, y = second_103_cast_fp16)[name = tensor<string, []>("op_2976_cast_fp16")];
            tensor<fp16, [1, 128, 12, 64]> var_2978_cast_fp16 = add(x = first_79_cast_fp16, y = second_105_cast_fp16)[name = tensor<string, []>("op_2978_cast_fp16")];
            tensor<int32, []> var_2979 = const()[name = tensor<string, []>("op_2979"), val = tensor<int32, []>(-1)];
            tensor<bool, []> input_tensor_265_interleave_0 = const()[name = tensor<string, []>("input_tensor_265_interleave_0"), val = tensor<bool, []>(false)];
            tensor<fp16, [1, 128, 12, 64]> input_tensor_265_cast_fp16 = concat(axis = var_2979, interleave = input_tensor_265_interleave_0, values = var_2976_cast_fp16)[name = tensor<string, []>("input_tensor_265_cast_fp16")];
            tensor<int32, []> var_2982 = const()[name = tensor<string, []>("op_2982"), val = tensor<int32, []>(-1)];
            tensor<bool, []> input_tensor_267_interleave_0 = const()[name = tensor<string, []>("input_tensor_267_interleave_0"), val = tensor<bool, []>(false)];
            tensor<fp16, [1, 128, 12, 64]> input_tensor_267_cast_fp16 = concat(axis = var_2982, interleave = input_tensor_267_interleave_0, values = var_2978_cast_fp16)[name = tensor<string, []>("input_tensor_267_cast_fp16")];
            tensor<int32, [1]> var_2986_axes_0 = const()[name = tensor<string, []>("op_2986_axes_0"), val = tensor<int32, [1]>([2])];
            tensor<fp16, [1, 128, 1, 12, 64]> var_2986_cast_fp16 = expand_dims(axes = var_2986_axes_0, x = input_tensor_265_cast_fp16)[name = tensor<string, []>("op_2986_cast_fp16")];
            tensor<int32, [1]> var_2988_axes_0 = const()[name = tensor<string, []>("op_2988_axes_0"), val = tensor<int32, [1]>([2])];
            tensor<fp16, [1, 128, 1, 12, 64]> var_2988_cast_fp16 = expand_dims(axes = var_2988_axes_0, x = input_tensor_267_cast_fp16)[name = tensor<string, []>("op_2988_cast_fp16")];
            tensor<int32, []> var_2989 = const()[name = tensor<string, []>("op_2989"), val = tensor<int32, []>(2)];
            tensor<bool, []> input_tensor_269_interleave_0 = const()[name = tensor<string, []>("input_tensor_269_interleave_0"), val = tensor<bool, []>(false)];
            tensor<fp16, [1, 128, 3, 12, 64]> input_tensor_269_cast_fp16 = concat(axis = var_2989, interleave = input_tensor_269_interleave_0, values = (var_2986_cast_fp16, var_2988_cast_fp16, var_2687_cast_fp16))[name = tensor<string, []>("input_tensor_269_cast_fp16")];
            tensor<int32, [5]> input_tensor_271_begin_0 = const()[name = tensor<string, []>("input_tensor_271_begin_0"), val = tensor<int32, [5]>([0, 0, 0, 0, 0])];
            tensor<int32, [5]> input_tensor_271_end_0 = const()[name = tensor<string, []>("input_tensor_271_end_0"), val = tensor<int32, [5]>([1, 128, 1, 12, 64])];
            tensor<bool, [5]> input_tensor_271_end_mask_0 = const()[name = tensor<string, []>("input_tensor_271_end_mask_0"), val = tensor<bool, [5]>([true, true, false, true, true])];
            tensor<bool, [5]> input_tensor_271_squeeze_mask_0 = const()[name = tensor<string, []>("input_tensor_271_squeeze_mask_0"), val = tensor<bool, [5]>([false, false, true, false, false])];
            tensor<fp16, [1, 128, 12, 64]> input_tensor_271_cast_fp16 = slice_by_index(begin = input_tensor_271_begin_0, end = input_tensor_271_end_0, end_mask = input_tensor_271_end_mask_0, squeeze_mask = input_tensor_271_squeeze_mask_0, x = input_tensor_269_cast_fp16)[name = tensor<string, []>("input_tensor_271_cast_fp16")];
            tensor<int32, [5]> input_tensor_275_begin_0 = const()[name = tensor<string, []>("input_tensor_275_begin_0"), val = tensor<int32, [5]>([0, 0, 1, 0, 0])];
            tensor<int32, [5]> input_tensor_275_end_0 = const()[name = tensor<string, []>("input_tensor_275_end_0"), val = tensor<int32, [5]>([1, 128, 2, 12, 64])];
            tensor<bool, [5]> input_tensor_275_end_mask_0 = const()[name = tensor<string, []>("input_tensor_275_end_mask_0"), val = tensor<bool, [5]>([true, true, false, true, true])];
            tensor<bool, [5]> input_tensor_275_squeeze_mask_0 = const()[name = tensor<string, []>("input_tensor_275_squeeze_mask_0"), val = tensor<bool, [5]>([false, false, true, false, false])];
            tensor<fp16, [1, 128, 12, 64]> input_tensor_275_cast_fp16 = slice_by_index(begin = input_tensor_275_begin_0, end = input_tensor_275_end_0, end_mask = input_tensor_275_end_mask_0, squeeze_mask = input_tensor_275_squeeze_mask_0, x = input_tensor_269_cast_fp16)[name = tensor<string, []>("input_tensor_275_cast_fp16")];
            tensor<int32, [5]> input_tensor_273_begin_0 = const()[name = tensor<string, []>("input_tensor_273_begin_0"), val = tensor<int32, [5]>([0, 0, 2, 0, 0])];
            tensor<int32, [5]> input_tensor_273_end_0 = const()[name = tensor<string, []>("input_tensor_273_end_0"), val = tensor<int32, [5]>([1, 128, 3, 12, 64])];
            tensor<bool, [5]> input_tensor_273_end_mask_0 = const()[name = tensor<string, []>("input_tensor_273_end_mask_0"), val = tensor<bool, [5]>([true, true, false, true, true])];
            tensor<bool, [5]> input_tensor_273_squeeze_mask_0 = const()[name = tensor<string, []>("input_tensor_273_squeeze_mask_0"), val = tensor<bool, [5]>([false, false, true, false, false])];
            tensor<fp16, [1, 128, 12, 64]> input_tensor_273_cast_fp16 = slice_by_index(begin = input_tensor_273_begin_0, end = input_tensor_273_end_0, end_mask = input_tensor_273_end_mask_0, squeeze_mask = input_tensor_273_squeeze_mask_0, x = input_tensor_269_cast_fp16)[name = tensor<string, []>("input_tensor_273_cast_fp16")];
            tensor<int32, [4]> var_3038 = const()[name = tensor<string, []>("op_3038"), val = tensor<int32, [4]>([0, 2, 1, 3])];
            tensor<bool, []> first_81_transpose_x_0 = const()[name = tensor<string, []>("first_81_transpose_x_0"), val = tensor<bool, []>(false)];
            tensor<bool, []> first_81_transpose_y_0 = const()[name = tensor<string, []>("first_81_transpose_y_0"), val = tensor<bool, []>(false)];
            tensor<int32, [4]> transpose_136_perm_0 = const()[name = tensor<string, []>("transpose_136_perm_0"), val = tensor<int32, [4]>([0, 2, -3, -1])];
            tensor<int32, [4]> transpose_137_perm_0 = const()[name = tensor<string, []>("transpose_137_perm_0"), val = tensor<int32, [4]>([0, 2, -1, -3])];
            tensor<fp16, [1, 12, 64, 128]> transpose_193 = transpose(perm = transpose_137_perm_0, x = input_tensor_275_cast_fp16)[name = tensor<string, []>("transpose_193")];
            tensor<fp16, [1, 12, 128, 64]> transpose_194 = transpose(perm = transpose_136_perm_0, x = input_tensor_271_cast_fp16)[name = tensor<string, []>("transpose_194")];
            tensor<fp16, [1, 12, 128, 128]> first_81_cast_fp16 = matmul(transpose_x = first_81_transpose_x_0, transpose_y = first_81_transpose_y_0, x = transpose_194, y = transpose_193)[name = tensor<string, []>("first_81_cast_fp16")];
            tensor<fp16, []> _inversed_first_83_y_0_to_fp16 = const()[name = tensor<string, []>("_inversed_first_83_y_0_to_fp16"), val = tensor<fp16, []>(0x1p-3)];
            tensor<fp16, [1, 12, 128, 128]> _inversed_first_83_cast_fp16 = mul(x = first_81_cast_fp16, y = _inversed_first_83_y_0_to_fp16)[name = tensor<string, []>("_inversed_first_83_cast_fp16")];
            tensor<fp16, [1, 12, 128, 128]> input_9_cast_fp16 = add(x = _inversed_first_83_cast_fp16, y = second_31_cast_fp16)[name = tensor<string, []>("input_9_cast_fp16")];
            tensor<int32, []> var_3051 = const()[name = tensor<string, []>("op_3051"), val = tensor<int32, []>(-1)];
            tensor<fp16, [1, 12, 128, 128]> x_53_cast_fp16 = softmax(axis = var_3051, x = input_9_cast_fp16)[name = tensor<string, []>("x_53_cast_fp16")];
            tensor<bool, []> input_tensor_277_transpose_x_0 = const()[name = tensor<string, []>("input_tensor_277_transpose_x_0"), val = tensor<bool, []>(false)];
            tensor<bool, []> input_tensor_277_transpose_y_0 = const()[name = tensor<string, []>("input_tensor_277_transpose_y_0"), val = tensor<bool, []>(false)];
            tensor<fp16, [1, 12, 128, 64]> transpose_195 = transpose(perm = var_3038, x = input_tensor_273_cast_fp16)[name = tensor<string, []>("transpose_195")];
            tensor<fp16, [1, 12, 128, 64]> input_tensor_277_cast_fp16 = matmul(transpose_x = input_tensor_277_transpose_x_0, transpose_y = input_tensor_277_transpose_y_0, x = x_53_cast_fp16, y = transpose_195)[name = tensor<string, []>("input_tensor_277_cast_fp16")];
            tensor<int32, [4]> var_3058 = const()[name = tensor<string, []>("op_3058"), val = tensor<int32, [4]>([0, 2, 1, 3])];
            tensor<int32, [3]> var_3096 = const()[name = tensor<string, []>("op_3096"), val = tensor<int32, [3]>([1, 128, 768])];
            tensor<fp16, [1, 128, 12, 64]> transpose_192 = transpose(perm = var_3058, x = input_tensor_277_cast_fp16)[name = tensor<string, []>("transpose_192")];
            tensor<fp16, [1, 128, 768]> x_55_cast_fp16 = reshape(shape = var_3096, x = transpose_192)[name = tensor<string, []>("x_55_cast_fp16")];
            tensor<fp16, [768, 768]> transpose_17_to_fp16 = const()[name = tensor<string, []>("transpose_17_to_fp16"), val = tensor<fp16, [768, 768]>(BLOBFILE(path = tensor<string, []>("@model_path/weights/weight.bin"), offset = tensor<uint64, []>(88244032)))];
            tensor<fp16, [1, 128, 768]> first_85_cast_fp16 = linear(bias = first_25_bias_0_to_fp16, weight = transpose_17_to_fp16, x = x_55_cast_fp16)[name = tensor<string, []>("first_85_cast_fp16")];
            tensor<fp16, [1, 128, 768]> input_tensor_287_cast_fp16 = add(x = first_85_cast_fp16, y = x_41_cast_fp16)[name = tensor<string, []>("input_tensor_287_cast_fp16")];
            tensor<bool, []> var_3102 = const()[name = tensor<string, []>("op_3102"), val = tensor<bool, []>(true)];
            tensor<int32, [1]> var_3104 = const()[name = tensor<string, []>("op_3104"), val = tensor<int32, [1]>([-1])];
            tensor<fp16, [1, 128, 1]> second_109_cast_fp16 = reduce_mean(axes = var_3104, keep_dims = var_3102, x = input_tensor_287_cast_fp16)[name = tensor<string, []>("second_109_cast_fp16")];
            tensor<fp16, [1, 128, 768]> input_tensor_289_cast_fp16 = sub(x = input_tensor_287_cast_fp16, y = second_109_cast_fp16)[name = tensor<string, []>("input_tensor_289_cast_fp16")];
            tensor<fp16, []> initializers_onnx_initializer_243_to_fp16 = const()[name = tensor<string, []>("initializers_onnx_initializer_243_to_fp16"), val = tensor<fp16, []>(0x1p+1)];
            tensor<fp16, [1, 128, 768]> input_tensor_291_cast_fp16 = pow(x = input_tensor_289_cast_fp16, y = initializers_onnx_initializer_243_to_fp16)[name = tensor<string, []>("input_tensor_291_cast_fp16")];
            tensor<bool, []> var_3110 = const()[name = tensor<string, []>("op_3110"), val = tensor<bool, []>(true)];
            tensor<int32, [1]> var_3112 = const()[name = tensor<string, []>("op_3112"), val = tensor<int32, [1]>([-1])];
            tensor<fp16, [1, 128, 1]> first_87_cast_fp16 = reduce_mean(axes = var_3112, keep_dims = var_3110, x = input_tensor_291_cast_fp16)[name = tensor<string, []>("first_87_cast_fp16")];
            tensor<fp16, []> initializers_onnx_initializer_244_to_fp16 = const()[name = tensor<string, []>("initializers_onnx_initializer_244_to_fp16"), val = tensor<fp16, []>(0x1p-24)];
            tensor<fp16, [1, 128, 1]> input_tensor_293_cast_fp16 = add(x = first_87_cast_fp16, y = initializers_onnx_initializer_244_to_fp16)[name = tensor<string, []>("input_tensor_293_cast_fp16")];
            tensor<fp16, [1, 128, 1]> second_113_cast_fp16 = sqrt(x = input_tensor_293_cast_fp16)[name = tensor<string, []>("second_113_cast_fp16")];
            tensor<fp16, [1, 128, 768]> first_89_cast_fp16 = real_div(x = input_tensor_289_cast_fp16, y = second_113_cast_fp16)[name = tensor<string, []>("first_89_cast_fp16")];
            tensor<fp16, [768]> initializers_onnx_initializer_245_to_fp16 = const()[name = tensor<string, []>("initializers_onnx_initializer_245_to_fp16"), val = tensor<fp16, [768]>(BLOBFILE(path = tensor<string, []>("@model_path/weights/weight.bin"), offset = tensor<uint64, []>(89423744)))];
            tensor<fp16, [1, 128, 768]> first_91_cast_fp16 = mul(x = first_89_cast_fp16, y = initializers_onnx_initializer_245_to_fp16)[name = tensor<string, []>("first_91_cast_fp16")];
            tensor<fp16, [768]> initializers_onnx_initializer_246_to_fp16 = const()[name = tensor<string, []>("initializers_onnx_initializer_246_to_fp16"), val = tensor<fp16, [768]>(BLOBFILE(path = tensor<string, []>("@model_path/weights/weight.bin"), offset = tensor<uint64, []>(89425344)))];
            tensor<fp16, [1, 128, 768]> x_57_cast_fp16 = add(x = first_91_cast_fp16, y = initializers_onnx_initializer_246_to_fp16)[name = tensor<string, []>("x_57_cast_fp16")];
            tensor<fp16, [3072, 768]> transpose_18_to_fp16 = const()[name = tensor<string, []>("transpose_18_to_fp16"), val = tensor<fp16, [3072, 768]>(BLOBFILE(path = tensor<string, []>("@model_path/weights/weight.bin"), offset = tensor<uint64, []>(89426944)))];
            tensor<fp16, [1, 128, 3072]> first_93_cast_fp16 = linear(bias = first_33_bias_0_to_fp16, weight = transpose_18_to_fp16, x = x_57_cast_fp16)[name = tensor<string, []>("first_93_cast_fp16")];
            tensor<fp16, [3072, 768]> transpose_19_to_fp16 = const()[name = tensor<string, []>("transpose_19_to_fp16"), val = tensor<fp16, [3072, 768]>(BLOBFILE(path = tensor<string, []>("@model_path/weights/weight.bin"), offset = tensor<uint64, []>(94145600)))];
            tensor<fp16, [1, 128, 3072]> input_11_cast_fp16 = linear(bias = first_33_bias_0_to_fp16, weight = transpose_19_to_fp16, x = x_57_cast_fp16)[name = tensor<string, []>("input_11_cast_fp16")];
            tensor<fp16, [1, 128, 3072]> second_121_cast_fp16 = silu(x = input_11_cast_fp16)[name = tensor<string, []>("second_121_cast_fp16")];
            tensor<fp16, [1, 128, 3072]> x_59_cast_fp16 = mul(x = first_93_cast_fp16, y = second_121_cast_fp16)[name = tensor<string, []>("x_59_cast_fp16")];
            tensor<fp16, [768, 3072]> transpose_20_to_fp16 = const()[name = tensor<string, []>("transpose_20_to_fp16"), val = tensor<fp16, [768, 3072]>(BLOBFILE(path = tensor<string, []>("@model_path/weights/weight.bin"), offset = tensor<uint64, []>(98864256)))];
            tensor<fp16, [1, 128, 768]> first_95_cast_fp16 = linear(bias = first_25_bias_0_to_fp16, weight = transpose_20_to_fp16, x = x_59_cast_fp16)[name = tensor<string, []>("first_95_cast_fp16")];
            tensor<fp16, [1, 128, 768]> input_tensor_295_cast_fp16 = add(x = first_95_cast_fp16, y = x_57_cast_fp16)[name = tensor<string, []>("input_tensor_295_cast_fp16")];
            tensor<bool, []> var_3130 = const()[name = tensor<string, []>("op_3130"), val = tensor<bool, []>(true)];
            tensor<int32, [1]> var_3132 = const()[name = tensor<string, []>("op_3132"), val = tensor<int32, [1]>([-1])];
            tensor<fp16, [1, 128, 1]> second_123_cast_fp16 = reduce_mean(axes = var_3132, keep_dims = var_3130, x = input_tensor_295_cast_fp16)[name = tensor<string, []>("second_123_cast_fp16")];
            tensor<fp16, [1, 128, 768]> input_tensor_297_cast_fp16 = sub(x = input_tensor_295_cast_fp16, y = second_123_cast_fp16)[name = tensor<string, []>("input_tensor_297_cast_fp16")];
            tensor<fp16, []> initializers_onnx_initializer_250_to_fp16 = const()[name = tensor<string, []>("initializers_onnx_initializer_250_to_fp16"), val = tensor<fp16, []>(0x1p+1)];
            tensor<fp16, [1, 128, 768]> input_tensor_299_cast_fp16 = pow(x = input_tensor_297_cast_fp16, y = initializers_onnx_initializer_250_to_fp16)[name = tensor<string, []>("input_tensor_299_cast_fp16")];
            tensor<bool, []> var_3138 = const()[name = tensor<string, []>("op_3138"), val = tensor<bool, []>(true)];
            tensor<int32, [1]> var_3140 = const()[name = tensor<string, []>("op_3140"), val = tensor<int32, [1]>([-1])];
            tensor<fp16, [1, 128, 1]> first_97_cast_fp16 = reduce_mean(axes = var_3140, keep_dims = var_3138, x = input_tensor_299_cast_fp16)[name = tensor<string, []>("first_97_cast_fp16")];
            tensor<fp16, []> initializers_onnx_initializer_251_to_fp16 = const()[name = tensor<string, []>("initializers_onnx_initializer_251_to_fp16"), val = tensor<fp16, []>(0x1p-24)];
            tensor<fp16, [1, 128, 1]> input_tensor_301_cast_fp16 = add(x = first_97_cast_fp16, y = initializers_onnx_initializer_251_to_fp16)[name = tensor<string, []>("input_tensor_301_cast_fp16")];
            tensor<fp16, [1, 128, 1]> second_127_cast_fp16 = sqrt(x = input_tensor_301_cast_fp16)[name = tensor<string, []>("second_127_cast_fp16")];
            tensor<fp16, [1, 128, 768]> first_99_cast_fp16 = real_div(x = input_tensor_297_cast_fp16, y = second_127_cast_fp16)[name = tensor<string, []>("first_99_cast_fp16")];
            tensor<fp16, [768]> initializers_onnx_initializer_252_to_fp16 = const()[name = tensor<string, []>("initializers_onnx_initializer_252_to_fp16"), val = tensor<fp16, [768]>(BLOBFILE(path = tensor<string, []>("@model_path/weights/weight.bin"), offset = tensor<uint64, []>(103582912)))];
            tensor<fp16, [1, 128, 768]> first_101_cast_fp16 = mul(x = first_99_cast_fp16, y = initializers_onnx_initializer_252_to_fp16)[name = tensor<string, []>("first_101_cast_fp16")];
            tensor<fp16, [768]> initializers_onnx_initializer_253_to_fp16 = const()[name = tensor<string, []>("initializers_onnx_initializer_253_to_fp16"), val = tensor<fp16, [768]>(BLOBFILE(path = tensor<string, []>("@model_path/weights/weight.bin"), offset = tensor<uint64, []>(103584512)))];
            tensor<fp16, [1, 128, 768]> x_61_cast_fp16 = add(x = first_101_cast_fp16, y = initializers_onnx_initializer_253_to_fp16)[name = tensor<string, []>("x_61_cast_fp16")];
            tensor<fp16, [2304, 768]> transpose_21_to_fp16 = const()[name = tensor<string, []>("transpose_21_to_fp16"), val = tensor<fp16, [2304, 768]>(BLOBFILE(path = tensor<string, []>("@model_path/weights/weight.bin"), offset = tensor<uint64, []>(103586112)))];
            tensor<fp16, [1, 128, 2304]> input_tensor_303_cast_fp16 = linear(bias = input_tensor_15_bias_0_to_fp16, weight = transpose_21_to_fp16, x = x_61_cast_fp16)[name = tensor<string, []>("input_tensor_303_cast_fp16")];
            tensor<int32, [5]> var_3190 = const()[name = tensor<string, []>("op_3190"), val = tensor<int32, [5]>([1, 128, 3, 12, 64])];
            tensor<fp16, [1, 128, 3, 12, 64]> input_tensor_311_cast_fp16 = reshape(shape = var_3190, x = input_tensor_303_cast_fp16)[name = tensor<string, []>("input_tensor_311_cast_fp16")];
            tensor<int32, [5]> input_tensor_315_begin_0 = const()[name = tensor<string, []>("input_tensor_315_begin_0"), val = tensor<int32, [5]>([0, 0, 0, 0, 0])];
            tensor<int32, [5]> input_tensor_315_end_0 = const()[name = tensor<string, []>("input_tensor_315_end_0"), val = tensor<int32, [5]>([1, 128, 1, 12, 64])];
            tensor<bool, [5]> input_tensor_315_end_mask_0 = const()[name = tensor<string, []>("input_tensor_315_end_mask_0"), val = tensor<bool, [5]>([true, true, false, true, true])];
            tensor<bool, [5]> input_tensor_315_squeeze_mask_0 = const()[name = tensor<string, []>("input_tensor_315_squeeze_mask_0"), val = tensor<bool, [5]>([false, false, true, false, false])];
            tensor<fp16, [1, 128, 12, 64]> input_tensor_315_cast_fp16 = slice_by_index(begin = input_tensor_315_begin_0, end = input_tensor_315_end_0, end_mask = input_tensor_315_end_mask_0, squeeze_mask = input_tensor_315_squeeze_mask_0, x = input_tensor_311_cast_fp16)[name = tensor<string, []>("input_tensor_315_cast_fp16")];
            tensor<int32, [5]> input_tensor_317_begin_0 = const()[name = tensor<string, []>("input_tensor_317_begin_0"), val = tensor<int32, [5]>([0, 0, 1, 0, 0])];
            tensor<int32, [5]> input_tensor_317_end_0 = const()[name = tensor<string, []>("input_tensor_317_end_0"), val = tensor<int32, [5]>([1, 128, 2, 12, 64])];
            tensor<bool, [5]> input_tensor_317_end_mask_0 = const()[name = tensor<string, []>("input_tensor_317_end_mask_0"), val = tensor<bool, [5]>([true, true, false, true, true])];
            tensor<bool, [5]> input_tensor_317_squeeze_mask_0 = const()[name = tensor<string, []>("input_tensor_317_squeeze_mask_0"), val = tensor<bool, [5]>([false, false, true, false, false])];
            tensor<fp16, [1, 128, 12, 64]> input_tensor_317_cast_fp16 = slice_by_index(begin = input_tensor_317_begin_0, end = input_tensor_317_end_0, end_mask = input_tensor_317_end_mask_0, squeeze_mask = input_tensor_317_squeeze_mask_0, x = input_tensor_311_cast_fp16)[name = tensor<string, []>("input_tensor_317_cast_fp16")];
            tensor<int32, [5]> input_tensor_319_begin_0 = const()[name = tensor<string, []>("input_tensor_319_begin_0"), val = tensor<int32, [5]>([0, 0, 2, 0, 0])];
            tensor<int32, [5]> input_tensor_319_end_0 = const()[name = tensor<string, []>("input_tensor_319_end_0"), val = tensor<int32, [5]>([1, 128, 3, 12, 64])];
            tensor<bool, [5]> input_tensor_319_end_mask_0 = const()[name = tensor<string, []>("input_tensor_319_end_mask_0"), val = tensor<bool, [5]>([true, true, false, true, true])];
            tensor<bool, [5]> input_tensor_319_squeeze_mask_0 = const()[name = tensor<string, []>("input_tensor_319_squeeze_mask_0"), val = tensor<bool, [5]>([false, false, true, false, false])];
            tensor<fp16, [1, 128, 12, 64]> input_tensor_319_cast_fp16 = slice_by_index(begin = input_tensor_319_begin_0, end = input_tensor_319_end_0, end_mask = input_tensor_319_end_mask_0, squeeze_mask = input_tensor_319_squeeze_mask_0, x = input_tensor_311_cast_fp16)[name = tensor<string, []>("input_tensor_319_cast_fp16")];
            tensor<int32, [1]> var_3243_axes_0 = const()[name = tensor<string, []>("op_3243_axes_0"), val = tensor<int32, [1]>([2])];
            tensor<fp16, [1, 128, 1, 12, 64]> var_3243_cast_fp16 = expand_dims(axes = var_3243_axes_0, x = input_tensor_319_cast_fp16)[name = tensor<string, []>("op_3243_cast_fp16")];
            tensor<int32, [4]> var_3327_begin_0 = const()[name = tensor<string, []>("op_3327_begin_0"), val = tensor<int32, [4]>([0, 0, 0, 0])];
            tensor<int32, [4]> var_3327_end_0 = const()[name = tensor<string, []>("op_3327_end_0"), val = tensor<int32, [4]>([1, 128, 12, 32])];
            tensor<bool, [4]> var_3327_end_mask_0 = const()[name = tensor<string, []>("op_3327_end_mask_0"), val = tensor<bool, [4]>([true, true, true, false])];
            tensor<fp16, [1, 128, 12, 32]> var_3327_cast_fp16 = slice_by_index(begin = var_3327_begin_0, end = var_3327_end_0, end_mask = var_3327_end_mask_0, x = input_tensor_315_cast_fp16)[name = tensor<string, []>("op_3327_cast_fp16")];
            tensor<int32, [4]> input_tensor_331_begin_0 = const()[name = tensor<string, []>("input_tensor_331_begin_0"), val = tensor<int32, [4]>([0, 0, 0, 32])];
            tensor<int32, [4]> input_tensor_331_end_0 = const()[name = tensor<string, []>("input_tensor_331_end_0"), val = tensor<int32, [4]>([1, 128, 12, 64])];
            tensor<bool, [4]> input_tensor_331_end_mask_0 = const()[name = tensor<string, []>("input_tensor_331_end_mask_0"), val = tensor<bool, [4]>([true, true, true, false])];
            tensor<fp16, [1, 128, 12, 32]> input_tensor_331_cast_fp16 = slice_by_index(begin = input_tensor_331_begin_0, end = input_tensor_331_end_0, end_mask = input_tensor_331_end_mask_0, x = input_tensor_315_cast_fp16)[name = tensor<string, []>("input_tensor_331_cast_fp16")];
            tensor<int32, [4]> var_3347_begin_0 = const()[name = tensor<string, []>("op_3347_begin_0"), val = tensor<int32, [4]>([0, 0, 0, 0])];
            tensor<int32, [4]> var_3347_end_0 = const()[name = tensor<string, []>("op_3347_end_0"), val = tensor<int32, [4]>([1, 128, 12, 32])];
            tensor<bool, [4]> var_3347_end_mask_0 = const()[name = tensor<string, []>("op_3347_end_mask_0"), val = tensor<bool, [4]>([true, true, true, false])];
            tensor<fp16, [1, 128, 12, 32]> var_3347_cast_fp16 = slice_by_index(begin = var_3347_begin_0, end = var_3347_end_0, end_mask = var_3347_end_mask_0, x = input_tensor_317_cast_fp16)[name = tensor<string, []>("op_3347_cast_fp16")];
            tensor<int32, [4]> input_tensor_333_begin_0 = const()[name = tensor<string, []>("input_tensor_333_begin_0"), val = tensor<int32, [4]>([0, 0, 0, 32])];
            tensor<int32, [4]> input_tensor_333_end_0 = const()[name = tensor<string, []>("input_tensor_333_end_0"), val = tensor<int32, [4]>([1, 128, 12, 64])];
            tensor<bool, [4]> input_tensor_333_end_mask_0 = const()[name = tensor<string, []>("input_tensor_333_end_mask_0"), val = tensor<bool, [4]>([true, true, true, false])];
            tensor<fp16, [1, 128, 12, 32]> input_tensor_333_cast_fp16 = slice_by_index(begin = input_tensor_333_begin_0, end = input_tensor_333_end_0, end_mask = input_tensor_333_end_mask_0, x = input_tensor_317_cast_fp16)[name = tensor<string, []>("input_tensor_333_cast_fp16")];
            tensor<fp16, []> const_6_promoted_to_fp16 = const()[name = tensor<string, []>("const_6_promoted_to_fp16"), val = tensor<fp16, []>(-0x1p+0)];
            tensor<fp16, [1, 128, 12, 32]> var_3369_cast_fp16 = mul(x = input_tensor_331_cast_fp16, y = const_6_promoted_to_fp16)[name = tensor<string, []>("op_3369_cast_fp16")];
            tensor<fp16, []> const_7_promoted_to_fp16 = const()[name = tensor<string, []>("const_7_promoted_to_fp16"), val = tensor<fp16, []>(-0x1p+0)];
            tensor<fp16, [1, 128, 12, 32]> var_3370_cast_fp16 = mul(x = input_tensor_333_cast_fp16, y = const_7_promoted_to_fp16)[name = tensor<string, []>("op_3370_cast_fp16")];
            tensor<int32, []> var_3375 = const()[name = tensor<string, []>("op_3375"), val = tensor<int32, []>(-1)];
            tensor<bool, []> first_103_interleave_0 = const()[name = tensor<string, []>("first_103_interleave_0"), val = tensor<bool, []>(false)];
            tensor<fp16, [1, 128, 12, 64]> first_103_cast_fp16 = concat(axis = var_3375, interleave = first_103_interleave_0, values = (var_3369_cast_fp16, var_3327_cast_fp16))[name = tensor<string, []>("first_103_cast_fp16")];
            tensor<int32, []> var_3378 = const()[name = tensor<string, []>("op_3378"), val = tensor<int32, []>(-1)];
            tensor<bool, []> first_105_interleave_0 = const()[name = tensor<string, []>("first_105_interleave_0"), val = tensor<bool, []>(false)];
            tensor<fp16, [1, 128, 12, 64]> first_105_cast_fp16 = concat(axis = var_3378, interleave = first_105_interleave_0, values = (var_3370_cast_fp16, var_3347_cast_fp16))[name = tensor<string, []>("first_105_cast_fp16")];
            tensor<fp16, [1, 128, 12, 64]> first_107_cast_fp16 = mul(x = input_tensor_315_cast_fp16, y = second_17_to_fp16)[name = tensor<string, []>("first_107_cast_fp16")];
            tensor<fp16, [1, 128, 12, 64]> first_109_cast_fp16 = mul(x = input_tensor_317_cast_fp16, y = second_17_to_fp16)[name = tensor<string, []>("first_109_cast_fp16")];
            tensor<fp16, [1, 128, 12, 64]> second_141_cast_fp16 = mul(x = first_103_cast_fp16, y = second_21_to_fp16)[name = tensor<string, []>("second_141_cast_fp16")];
            tensor<fp16, [1, 128, 12, 64]> second_143_cast_fp16 = mul(x = first_105_cast_fp16, y = second_21_to_fp16)[name = tensor<string, []>("second_143_cast_fp16")];
            tensor<fp16, [1, 128, 12, 64]> var_3532_cast_fp16 = add(x = first_107_cast_fp16, y = second_141_cast_fp16)[name = tensor<string, []>("op_3532_cast_fp16")];
            tensor<fp16, [1, 128, 12, 64]> var_3534_cast_fp16 = add(x = first_109_cast_fp16, y = second_143_cast_fp16)[name = tensor<string, []>("op_3534_cast_fp16")];
            tensor<int32, []> var_3535 = const()[name = tensor<string, []>("op_3535"), val = tensor<int32, []>(-1)];
            tensor<bool, []> input_tensor_361_interleave_0 = const()[name = tensor<string, []>("input_tensor_361_interleave_0"), val = tensor<bool, []>(false)];
            tensor<fp16, [1, 128, 12, 64]> input_tensor_361_cast_fp16 = concat(axis = var_3535, interleave = input_tensor_361_interleave_0, values = var_3532_cast_fp16)[name = tensor<string, []>("input_tensor_361_cast_fp16")];
            tensor<int32, []> var_3538 = const()[name = tensor<string, []>("op_3538"), val = tensor<int32, []>(-1)];
            tensor<bool, []> input_tensor_363_interleave_0 = const()[name = tensor<string, []>("input_tensor_363_interleave_0"), val = tensor<bool, []>(false)];
            tensor<fp16, [1, 128, 12, 64]> input_tensor_363_cast_fp16 = concat(axis = var_3538, interleave = input_tensor_363_interleave_0, values = var_3534_cast_fp16)[name = tensor<string, []>("input_tensor_363_cast_fp16")];
            tensor<int32, [1]> var_3542_axes_0 = const()[name = tensor<string, []>("op_3542_axes_0"), val = tensor<int32, [1]>([2])];
            tensor<fp16, [1, 128, 1, 12, 64]> var_3542_cast_fp16 = expand_dims(axes = var_3542_axes_0, x = input_tensor_361_cast_fp16)[name = tensor<string, []>("op_3542_cast_fp16")];
            tensor<int32, [1]> var_3544_axes_0 = const()[name = tensor<string, []>("op_3544_axes_0"), val = tensor<int32, [1]>([2])];
            tensor<fp16, [1, 128, 1, 12, 64]> var_3544_cast_fp16 = expand_dims(axes = var_3544_axes_0, x = input_tensor_363_cast_fp16)[name = tensor<string, []>("op_3544_cast_fp16")];
            tensor<int32, []> var_3545 = const()[name = tensor<string, []>("op_3545"), val = tensor<int32, []>(2)];
            tensor<bool, []> input_tensor_365_interleave_0 = const()[name = tensor<string, []>("input_tensor_365_interleave_0"), val = tensor<bool, []>(false)];
            tensor<fp16, [1, 128, 3, 12, 64]> input_tensor_365_cast_fp16 = concat(axis = var_3545, interleave = input_tensor_365_interleave_0, values = (var_3542_cast_fp16, var_3544_cast_fp16, var_3243_cast_fp16))[name = tensor<string, []>("input_tensor_365_cast_fp16")];
            tensor<int32, [5]> input_tensor_367_begin_0 = const()[name = tensor<string, []>("input_tensor_367_begin_0"), val = tensor<int32, [5]>([0, 0, 0, 0, 0])];
            tensor<int32, [5]> input_tensor_367_end_0 = const()[name = tensor<string, []>("input_tensor_367_end_0"), val = tensor<int32, [5]>([1, 128, 1, 12, 64])];
            tensor<bool, [5]> input_tensor_367_end_mask_0 = const()[name = tensor<string, []>("input_tensor_367_end_mask_0"), val = tensor<bool, [5]>([true, true, false, true, true])];
            tensor<bool, [5]> input_tensor_367_squeeze_mask_0 = const()[name = tensor<string, []>("input_tensor_367_squeeze_mask_0"), val = tensor<bool, [5]>([false, false, true, false, false])];
            tensor<fp16, [1, 128, 12, 64]> input_tensor_367_cast_fp16 = slice_by_index(begin = input_tensor_367_begin_0, end = input_tensor_367_end_0, end_mask = input_tensor_367_end_mask_0, squeeze_mask = input_tensor_367_squeeze_mask_0, x = input_tensor_365_cast_fp16)[name = tensor<string, []>("input_tensor_367_cast_fp16")];
            tensor<int32, [5]> input_tensor_371_begin_0 = const()[name = tensor<string, []>("input_tensor_371_begin_0"), val = tensor<int32, [5]>([0, 0, 1, 0, 0])];
            tensor<int32, [5]> input_tensor_371_end_0 = const()[name = tensor<string, []>("input_tensor_371_end_0"), val = tensor<int32, [5]>([1, 128, 2, 12, 64])];
            tensor<bool, [5]> input_tensor_371_end_mask_0 = const()[name = tensor<string, []>("input_tensor_371_end_mask_0"), val = tensor<bool, [5]>([true, true, false, true, true])];
            tensor<bool, [5]> input_tensor_371_squeeze_mask_0 = const()[name = tensor<string, []>("input_tensor_371_squeeze_mask_0"), val = tensor<bool, [5]>([false, false, true, false, false])];
            tensor<fp16, [1, 128, 12, 64]> input_tensor_371_cast_fp16 = slice_by_index(begin = input_tensor_371_begin_0, end = input_tensor_371_end_0, end_mask = input_tensor_371_end_mask_0, squeeze_mask = input_tensor_371_squeeze_mask_0, x = input_tensor_365_cast_fp16)[name = tensor<string, []>("input_tensor_371_cast_fp16")];
            tensor<int32, [5]> input_tensor_369_begin_0 = const()[name = tensor<string, []>("input_tensor_369_begin_0"), val = tensor<int32, [5]>([0, 0, 2, 0, 0])];
            tensor<int32, [5]> input_tensor_369_end_0 = const()[name = tensor<string, []>("input_tensor_369_end_0"), val = tensor<int32, [5]>([1, 128, 3, 12, 64])];
            tensor<bool, [5]> input_tensor_369_end_mask_0 = const()[name = tensor<string, []>("input_tensor_369_end_mask_0"), val = tensor<bool, [5]>([true, true, false, true, true])];
            tensor<bool, [5]> input_tensor_369_squeeze_mask_0 = const()[name = tensor<string, []>("input_tensor_369_squeeze_mask_0"), val = tensor<bool, [5]>([false, false, true, false, false])];
            tensor<fp16, [1, 128, 12, 64]> input_tensor_369_cast_fp16 = slice_by_index(begin = input_tensor_369_begin_0, end = input_tensor_369_end_0, end_mask = input_tensor_369_end_mask_0, squeeze_mask = input_tensor_369_squeeze_mask_0, x = input_tensor_365_cast_fp16)[name = tensor<string, []>("input_tensor_369_cast_fp16")];
            tensor<int32, [4]> var_3594 = const()[name = tensor<string, []>("op_3594"), val = tensor<int32, [4]>([0, 2, 1, 3])];
            tensor<bool, []> first_111_transpose_x_0 = const()[name = tensor<string, []>("first_111_transpose_x_0"), val = tensor<bool, []>(false)];
            tensor<bool, []> first_111_transpose_y_0 = const()[name = tensor<string, []>("first_111_transpose_y_0"), val = tensor<bool, []>(false)];
            tensor<int32, [4]> transpose_138_perm_0 = const()[name = tensor<string, []>("transpose_138_perm_0"), val = tensor<int32, [4]>([0, 2, -3, -1])];
            tensor<int32, [4]> transpose_139_perm_0 = const()[name = tensor<string, []>("transpose_139_perm_0"), val = tensor<int32, [4]>([0, 2, -1, -3])];
            tensor<fp16, [1, 12, 64, 128]> transpose_189 = transpose(perm = transpose_139_perm_0, x = input_tensor_371_cast_fp16)[name = tensor<string, []>("transpose_189")];
            tensor<fp16, [1, 12, 128, 64]> transpose_190 = transpose(perm = transpose_138_perm_0, x = input_tensor_367_cast_fp16)[name = tensor<string, []>("transpose_190")];
            tensor<fp16, [1, 12, 128, 128]> first_111_cast_fp16 = matmul(transpose_x = first_111_transpose_x_0, transpose_y = first_111_transpose_y_0, x = transpose_190, y = transpose_189)[name = tensor<string, []>("first_111_cast_fp16")];
            tensor<fp16, []> _inversed_first_113_y_0_to_fp16 = const()[name = tensor<string, []>("_inversed_first_113_y_0_to_fp16"), val = tensor<fp16, []>(0x1p-3)];
            tensor<fp16, [1, 12, 128, 128]> _inversed_first_113_cast_fp16 = mul(x = first_111_cast_fp16, y = _inversed_first_113_y_0_to_fp16)[name = tensor<string, []>("_inversed_first_113_cast_fp16")];
            tensor<fp16, [1, 12, 128, 128]> input_13_cast_fp16 = add(x = _inversed_first_113_cast_fp16, y = second_31_cast_fp16)[name = tensor<string, []>("input_13_cast_fp16")];
            tensor<int32, []> var_3607 = const()[name = tensor<string, []>("op_3607"), val = tensor<int32, []>(-1)];
            tensor<fp16, [1, 12, 128, 128]> x_73_cast_fp16 = softmax(axis = var_3607, x = input_13_cast_fp16)[name = tensor<string, []>("x_73_cast_fp16")];
            tensor<bool, []> input_tensor_373_transpose_x_0 = const()[name = tensor<string, []>("input_tensor_373_transpose_x_0"), val = tensor<bool, []>(false)];
            tensor<bool, []> input_tensor_373_transpose_y_0 = const()[name = tensor<string, []>("input_tensor_373_transpose_y_0"), val = tensor<bool, []>(false)];
            tensor<fp16, [1, 12, 128, 64]> transpose_191 = transpose(perm = var_3594, x = input_tensor_369_cast_fp16)[name = tensor<string, []>("transpose_191")];
            tensor<fp16, [1, 12, 128, 64]> input_tensor_373_cast_fp16 = matmul(transpose_x = input_tensor_373_transpose_x_0, transpose_y = input_tensor_373_transpose_y_0, x = x_73_cast_fp16, y = transpose_191)[name = tensor<string, []>("input_tensor_373_cast_fp16")];
            tensor<int32, [4]> var_3614 = const()[name = tensor<string, []>("op_3614"), val = tensor<int32, [4]>([0, 2, 1, 3])];
            tensor<int32, [3]> var_3652 = const()[name = tensor<string, []>("op_3652"), val = tensor<int32, [3]>([1, 128, 768])];
            tensor<fp16, [1, 128, 12, 64]> transpose_188 = transpose(perm = var_3614, x = input_tensor_373_cast_fp16)[name = tensor<string, []>("transpose_188")];
            tensor<fp16, [1, 128, 768]> x_75_cast_fp16 = reshape(shape = var_3652, x = transpose_188)[name = tensor<string, []>("x_75_cast_fp16")];
            tensor<fp16, [768, 768]> transpose_24_to_fp16 = const()[name = tensor<string, []>("transpose_24_to_fp16"), val = tensor<fp16, [768, 768]>(BLOBFILE(path = tensor<string, []>("@model_path/weights/weight.bin"), offset = tensor<uint64, []>(107125120)))];
            tensor<fp16, [1, 128, 768]> first_115_cast_fp16 = linear(bias = first_25_bias_0_to_fp16, weight = transpose_24_to_fp16, x = x_75_cast_fp16)[name = tensor<string, []>("first_115_cast_fp16")];
            tensor<fp16, [1, 128, 768]> input_tensor_383_cast_fp16 = add(x = first_115_cast_fp16, y = x_61_cast_fp16)[name = tensor<string, []>("input_tensor_383_cast_fp16")];
            tensor<bool, []> var_3658 = const()[name = tensor<string, []>("op_3658"), val = tensor<bool, []>(true)];
            tensor<int32, [1]> var_3660 = const()[name = tensor<string, []>("op_3660"), val = tensor<int32, [1]>([-1])];
            tensor<fp16, [1, 128, 1]> second_147_cast_fp16 = reduce_mean(axes = var_3660, keep_dims = var_3658, x = input_tensor_383_cast_fp16)[name = tensor<string, []>("second_147_cast_fp16")];
            tensor<fp16, [1, 128, 768]> input_tensor_385_cast_fp16 = sub(x = input_tensor_383_cast_fp16, y = second_147_cast_fp16)[name = tensor<string, []>("input_tensor_385_cast_fp16")];
            tensor<fp16, []> initializers_onnx_initializer_325_to_fp16 = const()[name = tensor<string, []>("initializers_onnx_initializer_325_to_fp16"), val = tensor<fp16, []>(0x1p+1)];
            tensor<fp16, [1, 128, 768]> input_tensor_387_cast_fp16 = pow(x = input_tensor_385_cast_fp16, y = initializers_onnx_initializer_325_to_fp16)[name = tensor<string, []>("input_tensor_387_cast_fp16")];
            tensor<bool, []> var_3666 = const()[name = tensor<string, []>("op_3666"), val = tensor<bool, []>(true)];
            tensor<int32, [1]> var_3668 = const()[name = tensor<string, []>("op_3668"), val = tensor<int32, [1]>([-1])];
            tensor<fp16, [1, 128, 1]> first_117_cast_fp16 = reduce_mean(axes = var_3668, keep_dims = var_3666, x = input_tensor_387_cast_fp16)[name = tensor<string, []>("first_117_cast_fp16")];
            tensor<fp16, []> initializers_onnx_initializer_326_to_fp16 = const()[name = tensor<string, []>("initializers_onnx_initializer_326_to_fp16"), val = tensor<fp16, []>(0x1p-24)];
            tensor<fp16, [1, 128, 1]> input_tensor_389_cast_fp16 = add(x = first_117_cast_fp16, y = initializers_onnx_initializer_326_to_fp16)[name = tensor<string, []>("input_tensor_389_cast_fp16")];
            tensor<fp16, [1, 128, 1]> second_151_cast_fp16 = sqrt(x = input_tensor_389_cast_fp16)[name = tensor<string, []>("second_151_cast_fp16")];
            tensor<fp16, [1, 128, 768]> first_119_cast_fp16 = real_div(x = input_tensor_385_cast_fp16, y = second_151_cast_fp16)[name = tensor<string, []>("first_119_cast_fp16")];
            tensor<fp16, [768]> initializers_onnx_initializer_327_to_fp16 = const()[name = tensor<string, []>("initializers_onnx_initializer_327_to_fp16"), val = tensor<fp16, [768]>(BLOBFILE(path = tensor<string, []>("@model_path/weights/weight.bin"), offset = tensor<uint64, []>(108304832)))];
            tensor<fp16, [1, 128, 768]> first_121_cast_fp16 = mul(x = first_119_cast_fp16, y = initializers_onnx_initializer_327_to_fp16)[name = tensor<string, []>("first_121_cast_fp16")];
            tensor<fp16, [768]> initializers_onnx_initializer_328_to_fp16 = const()[name = tensor<string, []>("initializers_onnx_initializer_328_to_fp16"), val = tensor<fp16, [768]>(BLOBFILE(path = tensor<string, []>("@model_path/weights/weight.bin"), offset = tensor<uint64, []>(108306432)))];
            tensor<fp16, [1, 128, 768]> x_77_cast_fp16 = add(x = first_121_cast_fp16, y = initializers_onnx_initializer_328_to_fp16)[name = tensor<string, []>("x_77_cast_fp16")];
            tensor<fp16, [3072, 768]> transpose_25_to_fp16 = const()[name = tensor<string, []>("transpose_25_to_fp16"), val = tensor<fp16, [3072, 768]>(BLOBFILE(path = tensor<string, []>("@model_path/weights/weight.bin"), offset = tensor<uint64, []>(108308032)))];
            tensor<fp16, [1, 128, 3072]> first_123_cast_fp16 = linear(bias = first_33_bias_0_to_fp16, weight = transpose_25_to_fp16, x = x_77_cast_fp16)[name = tensor<string, []>("first_123_cast_fp16")];
            tensor<fp16, [3072, 768]> transpose_26_to_fp16 = const()[name = tensor<string, []>("transpose_26_to_fp16"), val = tensor<fp16, [3072, 768]>(BLOBFILE(path = tensor<string, []>("@model_path/weights/weight.bin"), offset = tensor<uint64, []>(113026688)))];
            tensor<fp16, [1, 128, 3072]> input_15_cast_fp16 = linear(bias = first_33_bias_0_to_fp16, weight = transpose_26_to_fp16, x = x_77_cast_fp16)[name = tensor<string, []>("input_15_cast_fp16")];
            tensor<fp16, [1, 128, 3072]> second_159_cast_fp16 = silu(x = input_15_cast_fp16)[name = tensor<string, []>("second_159_cast_fp16")];
            tensor<fp16, [1, 128, 3072]> x_79_cast_fp16 = mul(x = first_123_cast_fp16, y = second_159_cast_fp16)[name = tensor<string, []>("x_79_cast_fp16")];
            tensor<fp16, [768, 3072]> transpose_27_to_fp16 = const()[name = tensor<string, []>("transpose_27_to_fp16"), val = tensor<fp16, [768, 3072]>(BLOBFILE(path = tensor<string, []>("@model_path/weights/weight.bin"), offset = tensor<uint64, []>(117745344)))];
            tensor<fp16, [1, 128, 768]> first_125_cast_fp16 = linear(bias = first_25_bias_0_to_fp16, weight = transpose_27_to_fp16, x = x_79_cast_fp16)[name = tensor<string, []>("first_125_cast_fp16")];
            tensor<fp16, [1, 128, 768]> input_tensor_391_cast_fp16 = add(x = first_125_cast_fp16, y = x_77_cast_fp16)[name = tensor<string, []>("input_tensor_391_cast_fp16")];
            tensor<bool, []> var_3686 = const()[name = tensor<string, []>("op_3686"), val = tensor<bool, []>(true)];
            tensor<int32, [1]> var_3688 = const()[name = tensor<string, []>("op_3688"), val = tensor<int32, [1]>([-1])];
            tensor<fp16, [1, 128, 1]> second_161_cast_fp16 = reduce_mean(axes = var_3688, keep_dims = var_3686, x = input_tensor_391_cast_fp16)[name = tensor<string, []>("second_161_cast_fp16")];
            tensor<fp16, [1, 128, 768]> input_tensor_393_cast_fp16 = sub(x = input_tensor_391_cast_fp16, y = second_161_cast_fp16)[name = tensor<string, []>("input_tensor_393_cast_fp16")];
            tensor<fp16, []> initializers_onnx_initializer_332_to_fp16 = const()[name = tensor<string, []>("initializers_onnx_initializer_332_to_fp16"), val = tensor<fp16, []>(0x1p+1)];
            tensor<fp16, [1, 128, 768]> input_tensor_395_cast_fp16 = pow(x = input_tensor_393_cast_fp16, y = initializers_onnx_initializer_332_to_fp16)[name = tensor<string, []>("input_tensor_395_cast_fp16")];
            tensor<bool, []> var_3694 = const()[name = tensor<string, []>("op_3694"), val = tensor<bool, []>(true)];
            tensor<int32, [1]> var_3696 = const()[name = tensor<string, []>("op_3696"), val = tensor<int32, [1]>([-1])];
            tensor<fp16, [1, 128, 1]> first_127_cast_fp16 = reduce_mean(axes = var_3696, keep_dims = var_3694, x = input_tensor_395_cast_fp16)[name = tensor<string, []>("first_127_cast_fp16")];
            tensor<fp16, []> initializers_onnx_initializer_333_to_fp16 = const()[name = tensor<string, []>("initializers_onnx_initializer_333_to_fp16"), val = tensor<fp16, []>(0x1p-24)];
            tensor<fp16, [1, 128, 1]> input_tensor_397_cast_fp16 = add(x = first_127_cast_fp16, y = initializers_onnx_initializer_333_to_fp16)[name = tensor<string, []>("input_tensor_397_cast_fp16")];
            tensor<fp16, [1, 128, 1]> second_165_cast_fp16 = sqrt(x = input_tensor_397_cast_fp16)[name = tensor<string, []>("second_165_cast_fp16")];
            tensor<fp16, [1, 128, 768]> first_129_cast_fp16 = real_div(x = input_tensor_393_cast_fp16, y = second_165_cast_fp16)[name = tensor<string, []>("first_129_cast_fp16")];
            tensor<fp16, [768]> initializers_onnx_initializer_334_to_fp16 = const()[name = tensor<string, []>("initializers_onnx_initializer_334_to_fp16"), val = tensor<fp16, [768]>(BLOBFILE(path = tensor<string, []>("@model_path/weights/weight.bin"), offset = tensor<uint64, []>(122464000)))];
            tensor<fp16, [1, 128, 768]> first_131_cast_fp16 = mul(x = first_129_cast_fp16, y = initializers_onnx_initializer_334_to_fp16)[name = tensor<string, []>("first_131_cast_fp16")];
            tensor<fp16, [768]> initializers_onnx_initializer_335_to_fp16 = const()[name = tensor<string, []>("initializers_onnx_initializer_335_to_fp16"), val = tensor<fp16, [768]>(BLOBFILE(path = tensor<string, []>("@model_path/weights/weight.bin"), offset = tensor<uint64, []>(122465600)))];
            tensor<fp16, [1, 128, 768]> x_81_cast_fp16 = add(x = first_131_cast_fp16, y = initializers_onnx_initializer_335_to_fp16)[name = tensor<string, []>("x_81_cast_fp16")];
            tensor<fp16, [2304, 768]> transpose_28_to_fp16 = const()[name = tensor<string, []>("transpose_28_to_fp16"), val = tensor<fp16, [2304, 768]>(BLOBFILE(path = tensor<string, []>("@model_path/weights/weight.bin"), offset = tensor<uint64, []>(122467200)))];
            tensor<fp16, [1, 128, 2304]> input_tensor_399_cast_fp16 = linear(bias = input_tensor_15_bias_0_to_fp16, weight = transpose_28_to_fp16, x = x_81_cast_fp16)[name = tensor<string, []>("input_tensor_399_cast_fp16")];
            tensor<int32, [5]> var_3746 = const()[name = tensor<string, []>("op_3746"), val = tensor<int32, [5]>([1, 128, 3, 12, 64])];
            tensor<fp16, [1, 128, 3, 12, 64]> input_tensor_407_cast_fp16 = reshape(shape = var_3746, x = input_tensor_399_cast_fp16)[name = tensor<string, []>("input_tensor_407_cast_fp16")];
            tensor<int32, [5]> input_tensor_411_begin_0 = const()[name = tensor<string, []>("input_tensor_411_begin_0"), val = tensor<int32, [5]>([0, 0, 0, 0, 0])];
            tensor<int32, [5]> input_tensor_411_end_0 = const()[name = tensor<string, []>("input_tensor_411_end_0"), val = tensor<int32, [5]>([1, 128, 1, 12, 64])];
            tensor<bool, [5]> input_tensor_411_end_mask_0 = const()[name = tensor<string, []>("input_tensor_411_end_mask_0"), val = tensor<bool, [5]>([true, true, false, true, true])];
            tensor<bool, [5]> input_tensor_411_squeeze_mask_0 = const()[name = tensor<string, []>("input_tensor_411_squeeze_mask_0"), val = tensor<bool, [5]>([false, false, true, false, false])];
            tensor<fp16, [1, 128, 12, 64]> input_tensor_411_cast_fp16 = slice_by_index(begin = input_tensor_411_begin_0, end = input_tensor_411_end_0, end_mask = input_tensor_411_end_mask_0, squeeze_mask = input_tensor_411_squeeze_mask_0, x = input_tensor_407_cast_fp16)[name = tensor<string, []>("input_tensor_411_cast_fp16")];
            tensor<int32, [5]> input_tensor_413_begin_0 = const()[name = tensor<string, []>("input_tensor_413_begin_0"), val = tensor<int32, [5]>([0, 0, 1, 0, 0])];
            tensor<int32, [5]> input_tensor_413_end_0 = const()[name = tensor<string, []>("input_tensor_413_end_0"), val = tensor<int32, [5]>([1, 128, 2, 12, 64])];
            tensor<bool, [5]> input_tensor_413_end_mask_0 = const()[name = tensor<string, []>("input_tensor_413_end_mask_0"), val = tensor<bool, [5]>([true, true, false, true, true])];
            tensor<bool, [5]> input_tensor_413_squeeze_mask_0 = const()[name = tensor<string, []>("input_tensor_413_squeeze_mask_0"), val = tensor<bool, [5]>([false, false, true, false, false])];
            tensor<fp16, [1, 128, 12, 64]> input_tensor_413_cast_fp16 = slice_by_index(begin = input_tensor_413_begin_0, end = input_tensor_413_end_0, end_mask = input_tensor_413_end_mask_0, squeeze_mask = input_tensor_413_squeeze_mask_0, x = input_tensor_407_cast_fp16)[name = tensor<string, []>("input_tensor_413_cast_fp16")];
            tensor<int32, [5]> input_tensor_415_begin_0 = const()[name = tensor<string, []>("input_tensor_415_begin_0"), val = tensor<int32, [5]>([0, 0, 2, 0, 0])];
            tensor<int32, [5]> input_tensor_415_end_0 = const()[name = tensor<string, []>("input_tensor_415_end_0"), val = tensor<int32, [5]>([1, 128, 3, 12, 64])];
            tensor<bool, [5]> input_tensor_415_end_mask_0 = const()[name = tensor<string, []>("input_tensor_415_end_mask_0"), val = tensor<bool, [5]>([true, true, false, true, true])];
            tensor<bool, [5]> input_tensor_415_squeeze_mask_0 = const()[name = tensor<string, []>("input_tensor_415_squeeze_mask_0"), val = tensor<bool, [5]>([false, false, true, false, false])];
            tensor<fp16, [1, 128, 12, 64]> input_tensor_415_cast_fp16 = slice_by_index(begin = input_tensor_415_begin_0, end = input_tensor_415_end_0, end_mask = input_tensor_415_end_mask_0, squeeze_mask = input_tensor_415_squeeze_mask_0, x = input_tensor_407_cast_fp16)[name = tensor<string, []>("input_tensor_415_cast_fp16")];
            tensor<int32, [1]> var_3799_axes_0 = const()[name = tensor<string, []>("op_3799_axes_0"), val = tensor<int32, [1]>([2])];
            tensor<fp16, [1, 128, 1, 12, 64]> var_3799_cast_fp16 = expand_dims(axes = var_3799_axes_0, x = input_tensor_415_cast_fp16)[name = tensor<string, []>("op_3799_cast_fp16")];
            tensor<int32, [4]> var_3883_begin_0 = const()[name = tensor<string, []>("op_3883_begin_0"), val = tensor<int32, [4]>([0, 0, 0, 0])];
            tensor<int32, [4]> var_3883_end_0 = const()[name = tensor<string, []>("op_3883_end_0"), val = tensor<int32, [4]>([1, 128, 12, 32])];
            tensor<bool, [4]> var_3883_end_mask_0 = const()[name = tensor<string, []>("op_3883_end_mask_0"), val = tensor<bool, [4]>([true, true, true, false])];
            tensor<fp16, [1, 128, 12, 32]> var_3883_cast_fp16 = slice_by_index(begin = var_3883_begin_0, end = var_3883_end_0, end_mask = var_3883_end_mask_0, x = input_tensor_411_cast_fp16)[name = tensor<string, []>("op_3883_cast_fp16")];
            tensor<int32, [4]> input_tensor_427_begin_0 = const()[name = tensor<string, []>("input_tensor_427_begin_0"), val = tensor<int32, [4]>([0, 0, 0, 32])];
            tensor<int32, [4]> input_tensor_427_end_0 = const()[name = tensor<string, []>("input_tensor_427_end_0"), val = tensor<int32, [4]>([1, 128, 12, 64])];
            tensor<bool, [4]> input_tensor_427_end_mask_0 = const()[name = tensor<string, []>("input_tensor_427_end_mask_0"), val = tensor<bool, [4]>([true, true, true, false])];
            tensor<fp16, [1, 128, 12, 32]> input_tensor_427_cast_fp16 = slice_by_index(begin = input_tensor_427_begin_0, end = input_tensor_427_end_0, end_mask = input_tensor_427_end_mask_0, x = input_tensor_411_cast_fp16)[name = tensor<string, []>("input_tensor_427_cast_fp16")];
            tensor<int32, [4]> var_3903_begin_0 = const()[name = tensor<string, []>("op_3903_begin_0"), val = tensor<int32, [4]>([0, 0, 0, 0])];
            tensor<int32, [4]> var_3903_end_0 = const()[name = tensor<string, []>("op_3903_end_0"), val = tensor<int32, [4]>([1, 128, 12, 32])];
            tensor<bool, [4]> var_3903_end_mask_0 = const()[name = tensor<string, []>("op_3903_end_mask_0"), val = tensor<bool, [4]>([true, true, true, false])];
            tensor<fp16, [1, 128, 12, 32]> var_3903_cast_fp16 = slice_by_index(begin = var_3903_begin_0, end = var_3903_end_0, end_mask = var_3903_end_mask_0, x = input_tensor_413_cast_fp16)[name = tensor<string, []>("op_3903_cast_fp16")];
            tensor<int32, [4]> input_tensor_429_begin_0 = const()[name = tensor<string, []>("input_tensor_429_begin_0"), val = tensor<int32, [4]>([0, 0, 0, 32])];
            tensor<int32, [4]> input_tensor_429_end_0 = const()[name = tensor<string, []>("input_tensor_429_end_0"), val = tensor<int32, [4]>([1, 128, 12, 64])];
            tensor<bool, [4]> input_tensor_429_end_mask_0 = const()[name = tensor<string, []>("input_tensor_429_end_mask_0"), val = tensor<bool, [4]>([true, true, true, false])];
            tensor<fp16, [1, 128, 12, 32]> input_tensor_429_cast_fp16 = slice_by_index(begin = input_tensor_429_begin_0, end = input_tensor_429_end_0, end_mask = input_tensor_429_end_mask_0, x = input_tensor_413_cast_fp16)[name = tensor<string, []>("input_tensor_429_cast_fp16")];
            tensor<fp16, []> const_8_promoted_to_fp16 = const()[name = tensor<string, []>("const_8_promoted_to_fp16"), val = tensor<fp16, []>(-0x1p+0)];
            tensor<fp16, [1, 128, 12, 32]> var_3925_cast_fp16 = mul(x = input_tensor_427_cast_fp16, y = const_8_promoted_to_fp16)[name = tensor<string, []>("op_3925_cast_fp16")];
            tensor<fp16, []> const_9_promoted_to_fp16 = const()[name = tensor<string, []>("const_9_promoted_to_fp16"), val = tensor<fp16, []>(-0x1p+0)];
            tensor<fp16, [1, 128, 12, 32]> var_3926_cast_fp16 = mul(x = input_tensor_429_cast_fp16, y = const_9_promoted_to_fp16)[name = tensor<string, []>("op_3926_cast_fp16")];
            tensor<int32, []> var_3931 = const()[name = tensor<string, []>("op_3931"), val = tensor<int32, []>(-1)];
            tensor<bool, []> first_133_interleave_0 = const()[name = tensor<string, []>("first_133_interleave_0"), val = tensor<bool, []>(false)];
            tensor<fp16, [1, 128, 12, 64]> first_133_cast_fp16 = concat(axis = var_3931, interleave = first_133_interleave_0, values = (var_3925_cast_fp16, var_3883_cast_fp16))[name = tensor<string, []>("first_133_cast_fp16")];
            tensor<int32, []> var_3934 = const()[name = tensor<string, []>("op_3934"), val = tensor<int32, []>(-1)];
            tensor<bool, []> first_135_interleave_0 = const()[name = tensor<string, []>("first_135_interleave_0"), val = tensor<bool, []>(false)];
            tensor<fp16, [1, 128, 12, 64]> first_135_cast_fp16 = concat(axis = var_3934, interleave = first_135_interleave_0, values = (var_3926_cast_fp16, var_3903_cast_fp16))[name = tensor<string, []>("first_135_cast_fp16")];
            tensor<fp16, [1, 128, 12, 64]> first_137_cast_fp16 = mul(x = input_tensor_411_cast_fp16, y = second_17_to_fp16)[name = tensor<string, []>("first_137_cast_fp16")];
            tensor<fp16, [1, 128, 12, 64]> first_139_cast_fp16 = mul(x = input_tensor_413_cast_fp16, y = second_17_to_fp16)[name = tensor<string, []>("first_139_cast_fp16")];
            tensor<fp16, [1, 128, 12, 64]> second_179_cast_fp16 = mul(x = first_133_cast_fp16, y = second_21_to_fp16)[name = tensor<string, []>("second_179_cast_fp16")];
            tensor<fp16, [1, 128, 12, 64]> second_181_cast_fp16 = mul(x = first_135_cast_fp16, y = second_21_to_fp16)[name = tensor<string, []>("second_181_cast_fp16")];
            tensor<fp16, [1, 128, 12, 64]> var_4088_cast_fp16 = add(x = first_137_cast_fp16, y = second_179_cast_fp16)[name = tensor<string, []>("op_4088_cast_fp16")];
            tensor<fp16, [1, 128, 12, 64]> var_4090_cast_fp16 = add(x = first_139_cast_fp16, y = second_181_cast_fp16)[name = tensor<string, []>("op_4090_cast_fp16")];
            tensor<int32, []> var_4091 = const()[name = tensor<string, []>("op_4091"), val = tensor<int32, []>(-1)];
            tensor<bool, []> input_tensor_457_interleave_0 = const()[name = tensor<string, []>("input_tensor_457_interleave_0"), val = tensor<bool, []>(false)];
            tensor<fp16, [1, 128, 12, 64]> input_tensor_457_cast_fp16 = concat(axis = var_4091, interleave = input_tensor_457_interleave_0, values = var_4088_cast_fp16)[name = tensor<string, []>("input_tensor_457_cast_fp16")];
            tensor<int32, []> var_4094 = const()[name = tensor<string, []>("op_4094"), val = tensor<int32, []>(-1)];
            tensor<bool, []> input_tensor_459_interleave_0 = const()[name = tensor<string, []>("input_tensor_459_interleave_0"), val = tensor<bool, []>(false)];
            tensor<fp16, [1, 128, 12, 64]> input_tensor_459_cast_fp16 = concat(axis = var_4094, interleave = input_tensor_459_interleave_0, values = var_4090_cast_fp16)[name = tensor<string, []>("input_tensor_459_cast_fp16")];
            tensor<int32, [1]> var_4098_axes_0 = const()[name = tensor<string, []>("op_4098_axes_0"), val = tensor<int32, [1]>([2])];
            tensor<fp16, [1, 128, 1, 12, 64]> var_4098_cast_fp16 = expand_dims(axes = var_4098_axes_0, x = input_tensor_457_cast_fp16)[name = tensor<string, []>("op_4098_cast_fp16")];
            tensor<int32, [1]> var_4100_axes_0 = const()[name = tensor<string, []>("op_4100_axes_0"), val = tensor<int32, [1]>([2])];
            tensor<fp16, [1, 128, 1, 12, 64]> var_4100_cast_fp16 = expand_dims(axes = var_4100_axes_0, x = input_tensor_459_cast_fp16)[name = tensor<string, []>("op_4100_cast_fp16")];
            tensor<int32, []> var_4101 = const()[name = tensor<string, []>("op_4101"), val = tensor<int32, []>(2)];
            tensor<bool, []> input_tensor_461_interleave_0 = const()[name = tensor<string, []>("input_tensor_461_interleave_0"), val = tensor<bool, []>(false)];
            tensor<fp16, [1, 128, 3, 12, 64]> input_tensor_461_cast_fp16 = concat(axis = var_4101, interleave = input_tensor_461_interleave_0, values = (var_4098_cast_fp16, var_4100_cast_fp16, var_3799_cast_fp16))[name = tensor<string, []>("input_tensor_461_cast_fp16")];
            tensor<int32, [5]> input_tensor_463_begin_0 = const()[name = tensor<string, []>("input_tensor_463_begin_0"), val = tensor<int32, [5]>([0, 0, 0, 0, 0])];
            tensor<int32, [5]> input_tensor_463_end_0 = const()[name = tensor<string, []>("input_tensor_463_end_0"), val = tensor<int32, [5]>([1, 128, 1, 12, 64])];
            tensor<bool, [5]> input_tensor_463_end_mask_0 = const()[name = tensor<string, []>("input_tensor_463_end_mask_0"), val = tensor<bool, [5]>([true, true, false, true, true])];
            tensor<bool, [5]> input_tensor_463_squeeze_mask_0 = const()[name = tensor<string, []>("input_tensor_463_squeeze_mask_0"), val = tensor<bool, [5]>([false, false, true, false, false])];
            tensor<fp16, [1, 128, 12, 64]> input_tensor_463_cast_fp16 = slice_by_index(begin = input_tensor_463_begin_0, end = input_tensor_463_end_0, end_mask = input_tensor_463_end_mask_0, squeeze_mask = input_tensor_463_squeeze_mask_0, x = input_tensor_461_cast_fp16)[name = tensor<string, []>("input_tensor_463_cast_fp16")];
            tensor<int32, [5]> input_tensor_467_begin_0 = const()[name = tensor<string, []>("input_tensor_467_begin_0"), val = tensor<int32, [5]>([0, 0, 1, 0, 0])];
            tensor<int32, [5]> input_tensor_467_end_0 = const()[name = tensor<string, []>("input_tensor_467_end_0"), val = tensor<int32, [5]>([1, 128, 2, 12, 64])];
            tensor<bool, [5]> input_tensor_467_end_mask_0 = const()[name = tensor<string, []>("input_tensor_467_end_mask_0"), val = tensor<bool, [5]>([true, true, false, true, true])];
            tensor<bool, [5]> input_tensor_467_squeeze_mask_0 = const()[name = tensor<string, []>("input_tensor_467_squeeze_mask_0"), val = tensor<bool, [5]>([false, false, true, false, false])];
            tensor<fp16, [1, 128, 12, 64]> input_tensor_467_cast_fp16 = slice_by_index(begin = input_tensor_467_begin_0, end = input_tensor_467_end_0, end_mask = input_tensor_467_end_mask_0, squeeze_mask = input_tensor_467_squeeze_mask_0, x = input_tensor_461_cast_fp16)[name = tensor<string, []>("input_tensor_467_cast_fp16")];
            tensor<int32, [5]> input_tensor_465_begin_0 = const()[name = tensor<string, []>("input_tensor_465_begin_0"), val = tensor<int32, [5]>([0, 0, 2, 0, 0])];
            tensor<int32, [5]> input_tensor_465_end_0 = const()[name = tensor<string, []>("input_tensor_465_end_0"), val = tensor<int32, [5]>([1, 128, 3, 12, 64])];
            tensor<bool, [5]> input_tensor_465_end_mask_0 = const()[name = tensor<string, []>("input_tensor_465_end_mask_0"), val = tensor<bool, [5]>([true, true, false, true, true])];
            tensor<bool, [5]> input_tensor_465_squeeze_mask_0 = const()[name = tensor<string, []>("input_tensor_465_squeeze_mask_0"), val = tensor<bool, [5]>([false, false, true, false, false])];
            tensor<fp16, [1, 128, 12, 64]> input_tensor_465_cast_fp16 = slice_by_index(begin = input_tensor_465_begin_0, end = input_tensor_465_end_0, end_mask = input_tensor_465_end_mask_0, squeeze_mask = input_tensor_465_squeeze_mask_0, x = input_tensor_461_cast_fp16)[name = tensor<string, []>("input_tensor_465_cast_fp16")];
            tensor<int32, [4]> var_4150 = const()[name = tensor<string, []>("op_4150"), val = tensor<int32, [4]>([0, 2, 1, 3])];
            tensor<bool, []> first_141_transpose_x_0 = const()[name = tensor<string, []>("first_141_transpose_x_0"), val = tensor<bool, []>(false)];
            tensor<bool, []> first_141_transpose_y_0 = const()[name = tensor<string, []>("first_141_transpose_y_0"), val = tensor<bool, []>(false)];
            tensor<int32, [4]> transpose_140_perm_0 = const()[name = tensor<string, []>("transpose_140_perm_0"), val = tensor<int32, [4]>([0, 2, -3, -1])];
            tensor<int32, [4]> transpose_141_perm_0 = const()[name = tensor<string, []>("transpose_141_perm_0"), val = tensor<int32, [4]>([0, 2, -1, -3])];
            tensor<fp16, [1, 12, 64, 128]> transpose_185 = transpose(perm = transpose_141_perm_0, x = input_tensor_467_cast_fp16)[name = tensor<string, []>("transpose_185")];
            tensor<fp16, [1, 12, 128, 64]> transpose_186 = transpose(perm = transpose_140_perm_0, x = input_tensor_463_cast_fp16)[name = tensor<string, []>("transpose_186")];
            tensor<fp16, [1, 12, 128, 128]> first_141_cast_fp16 = matmul(transpose_x = first_141_transpose_x_0, transpose_y = first_141_transpose_y_0, x = transpose_186, y = transpose_185)[name = tensor<string, []>("first_141_cast_fp16")];
            tensor<fp16, []> _inversed_first_143_y_0_to_fp16 = const()[name = tensor<string, []>("_inversed_first_143_y_0_to_fp16"), val = tensor<fp16, []>(0x1p-3)];
            tensor<fp16, [1, 12, 128, 128]> _inversed_first_143_cast_fp16 = mul(x = first_141_cast_fp16, y = _inversed_first_143_y_0_to_fp16)[name = tensor<string, []>("_inversed_first_143_cast_fp16")];
            tensor<fp16, [1, 12, 128, 128]> input_17_cast_fp16 = add(x = _inversed_first_143_cast_fp16, y = second_31_cast_fp16)[name = tensor<string, []>("input_17_cast_fp16")];
            tensor<int32, []> var_4163 = const()[name = tensor<string, []>("op_4163"), val = tensor<int32, []>(-1)];
            tensor<fp16, [1, 12, 128, 128]> x_93_cast_fp16 = softmax(axis = var_4163, x = input_17_cast_fp16)[name = tensor<string, []>("x_93_cast_fp16")];
            tensor<bool, []> input_tensor_469_transpose_x_0 = const()[name = tensor<string, []>("input_tensor_469_transpose_x_0"), val = tensor<bool, []>(false)];
            tensor<bool, []> input_tensor_469_transpose_y_0 = const()[name = tensor<string, []>("input_tensor_469_transpose_y_0"), val = tensor<bool, []>(false)];
            tensor<fp16, [1, 12, 128, 64]> transpose_187 = transpose(perm = var_4150, x = input_tensor_465_cast_fp16)[name = tensor<string, []>("transpose_187")];
            tensor<fp16, [1, 12, 128, 64]> input_tensor_469_cast_fp16 = matmul(transpose_x = input_tensor_469_transpose_x_0, transpose_y = input_tensor_469_transpose_y_0, x = x_93_cast_fp16, y = transpose_187)[name = tensor<string, []>("input_tensor_469_cast_fp16")];
            tensor<int32, [4]> var_4170 = const()[name = tensor<string, []>("op_4170"), val = tensor<int32, [4]>([0, 2, 1, 3])];
            tensor<int32, [3]> var_4208 = const()[name = tensor<string, []>("op_4208"), val = tensor<int32, [3]>([1, 128, 768])];
            tensor<fp16, [1, 128, 12, 64]> transpose_184 = transpose(perm = var_4170, x = input_tensor_469_cast_fp16)[name = tensor<string, []>("transpose_184")];
            tensor<fp16, [1, 128, 768]> x_95_cast_fp16 = reshape(shape = var_4208, x = transpose_184)[name = tensor<string, []>("x_95_cast_fp16")];
            tensor<fp16, [768, 768]> transpose_31_to_fp16 = const()[name = tensor<string, []>("transpose_31_to_fp16"), val = tensor<fp16, [768, 768]>(BLOBFILE(path = tensor<string, []>("@model_path/weights/weight.bin"), offset = tensor<uint64, []>(126006208)))];
            tensor<fp16, [1, 128, 768]> first_145_cast_fp16 = linear(bias = first_25_bias_0_to_fp16, weight = transpose_31_to_fp16, x = x_95_cast_fp16)[name = tensor<string, []>("first_145_cast_fp16")];
            tensor<fp16, [1, 128, 768]> input_tensor_479_cast_fp16 = add(x = first_145_cast_fp16, y = x_81_cast_fp16)[name = tensor<string, []>("input_tensor_479_cast_fp16")];
            tensor<bool, []> var_4214 = const()[name = tensor<string, []>("op_4214"), val = tensor<bool, []>(true)];
            tensor<int32, [1]> var_4216 = const()[name = tensor<string, []>("op_4216"), val = tensor<int32, [1]>([-1])];
            tensor<fp16, [1, 128, 1]> second_185_cast_fp16 = reduce_mean(axes = var_4216, keep_dims = var_4214, x = input_tensor_479_cast_fp16)[name = tensor<string, []>("second_185_cast_fp16")];
            tensor<fp16, [1, 128, 768]> input_tensor_481_cast_fp16 = sub(x = input_tensor_479_cast_fp16, y = second_185_cast_fp16)[name = tensor<string, []>("input_tensor_481_cast_fp16")];
            tensor<fp16, []> initializers_onnx_initializer_407_to_fp16 = const()[name = tensor<string, []>("initializers_onnx_initializer_407_to_fp16"), val = tensor<fp16, []>(0x1p+1)];
            tensor<fp16, [1, 128, 768]> input_tensor_483_cast_fp16 = pow(x = input_tensor_481_cast_fp16, y = initializers_onnx_initializer_407_to_fp16)[name = tensor<string, []>("input_tensor_483_cast_fp16")];
            tensor<bool, []> var_4222 = const()[name = tensor<string, []>("op_4222"), val = tensor<bool, []>(true)];
            tensor<int32, [1]> var_4224 = const()[name = tensor<string, []>("op_4224"), val = tensor<int32, [1]>([-1])];
            tensor<fp16, [1, 128, 1]> first_147_cast_fp16 = reduce_mean(axes = var_4224, keep_dims = var_4222, x = input_tensor_483_cast_fp16)[name = tensor<string, []>("first_147_cast_fp16")];
            tensor<fp16, []> initializers_onnx_initializer_408_to_fp16 = const()[name = tensor<string, []>("initializers_onnx_initializer_408_to_fp16"), val = tensor<fp16, []>(0x1p-24)];
            tensor<fp16, [1, 128, 1]> input_tensor_485_cast_fp16 = add(x = first_147_cast_fp16, y = initializers_onnx_initializer_408_to_fp16)[name = tensor<string, []>("input_tensor_485_cast_fp16")];
            tensor<fp16, [1, 128, 1]> second_189_cast_fp16 = sqrt(x = input_tensor_485_cast_fp16)[name = tensor<string, []>("second_189_cast_fp16")];
            tensor<fp16, [1, 128, 768]> first_149_cast_fp16 = real_div(x = input_tensor_481_cast_fp16, y = second_189_cast_fp16)[name = tensor<string, []>("first_149_cast_fp16")];
            tensor<fp16, [768]> initializers_onnx_initializer_409_to_fp16 = const()[name = tensor<string, []>("initializers_onnx_initializer_409_to_fp16"), val = tensor<fp16, [768]>(BLOBFILE(path = tensor<string, []>("@model_path/weights/weight.bin"), offset = tensor<uint64, []>(127185920)))];
            tensor<fp16, [1, 128, 768]> first_151_cast_fp16 = mul(x = first_149_cast_fp16, y = initializers_onnx_initializer_409_to_fp16)[name = tensor<string, []>("first_151_cast_fp16")];
            tensor<fp16, [768]> initializers_onnx_initializer_410_to_fp16 = const()[name = tensor<string, []>("initializers_onnx_initializer_410_to_fp16"), val = tensor<fp16, [768]>(BLOBFILE(path = tensor<string, []>("@model_path/weights/weight.bin"), offset = tensor<uint64, []>(127187520)))];
            tensor<fp16, [1, 128, 768]> x_97_cast_fp16 = add(x = first_151_cast_fp16, y = initializers_onnx_initializer_410_to_fp16)[name = tensor<string, []>("x_97_cast_fp16")];
            tensor<fp16, [3072, 768]> transpose_32_to_fp16 = const()[name = tensor<string, []>("transpose_32_to_fp16"), val = tensor<fp16, [3072, 768]>(BLOBFILE(path = tensor<string, []>("@model_path/weights/weight.bin"), offset = tensor<uint64, []>(127189120)))];
            tensor<fp16, [1, 128, 3072]> first_153_cast_fp16 = linear(bias = first_33_bias_0_to_fp16, weight = transpose_32_to_fp16, x = x_97_cast_fp16)[name = tensor<string, []>("first_153_cast_fp16")];
            tensor<fp16, [3072, 768]> transpose_33_to_fp16 = const()[name = tensor<string, []>("transpose_33_to_fp16"), val = tensor<fp16, [3072, 768]>(BLOBFILE(path = tensor<string, []>("@model_path/weights/weight.bin"), offset = tensor<uint64, []>(131907776)))];
            tensor<fp16, [1, 128, 3072]> input_19_cast_fp16 = linear(bias = first_33_bias_0_to_fp16, weight = transpose_33_to_fp16, x = x_97_cast_fp16)[name = tensor<string, []>("input_19_cast_fp16")];
            tensor<fp16, [1, 128, 3072]> second_197_cast_fp16 = silu(x = input_19_cast_fp16)[name = tensor<string, []>("second_197_cast_fp16")];
            tensor<fp16, [1, 128, 3072]> x_99_cast_fp16 = mul(x = first_153_cast_fp16, y = second_197_cast_fp16)[name = tensor<string, []>("x_99_cast_fp16")];
            tensor<fp16, [768, 3072]> transpose_34_to_fp16 = const()[name = tensor<string, []>("transpose_34_to_fp16"), val = tensor<fp16, [768, 3072]>(BLOBFILE(path = tensor<string, []>("@model_path/weights/weight.bin"), offset = tensor<uint64, []>(136626432)))];
            tensor<fp16, [1, 128, 768]> first_155_cast_fp16 = linear(bias = first_25_bias_0_to_fp16, weight = transpose_34_to_fp16, x = x_99_cast_fp16)[name = tensor<string, []>("first_155_cast_fp16")];
            tensor<fp16, [1, 128, 768]> input_tensor_487_cast_fp16 = add(x = first_155_cast_fp16, y = x_97_cast_fp16)[name = tensor<string, []>("input_tensor_487_cast_fp16")];
            tensor<bool, []> var_4242 = const()[name = tensor<string, []>("op_4242"), val = tensor<bool, []>(true)];
            tensor<int32, [1]> var_4244 = const()[name = tensor<string, []>("op_4244"), val = tensor<int32, [1]>([-1])];
            tensor<fp16, [1, 128, 1]> second_199_cast_fp16 = reduce_mean(axes = var_4244, keep_dims = var_4242, x = input_tensor_487_cast_fp16)[name = tensor<string, []>("second_199_cast_fp16")];
            tensor<fp16, [1, 128, 768]> input_tensor_489_cast_fp16 = sub(x = input_tensor_487_cast_fp16, y = second_199_cast_fp16)[name = tensor<string, []>("input_tensor_489_cast_fp16")];
            tensor<fp16, []> initializers_onnx_initializer_414_to_fp16 = const()[name = tensor<string, []>("initializers_onnx_initializer_414_to_fp16"), val = tensor<fp16, []>(0x1p+1)];
            tensor<fp16, [1, 128, 768]> input_tensor_491_cast_fp16 = pow(x = input_tensor_489_cast_fp16, y = initializers_onnx_initializer_414_to_fp16)[name = tensor<string, []>("input_tensor_491_cast_fp16")];
            tensor<bool, []> var_4250 = const()[name = tensor<string, []>("op_4250"), val = tensor<bool, []>(true)];
            tensor<int32, [1]> var_4252 = const()[name = tensor<string, []>("op_4252"), val = tensor<int32, [1]>([-1])];
            tensor<fp16, [1, 128, 1]> first_157_cast_fp16 = reduce_mean(axes = var_4252, keep_dims = var_4250, x = input_tensor_491_cast_fp16)[name = tensor<string, []>("first_157_cast_fp16")];
            tensor<fp16, []> initializers_onnx_initializer_415_to_fp16 = const()[name = tensor<string, []>("initializers_onnx_initializer_415_to_fp16"), val = tensor<fp16, []>(0x1p-24)];
            tensor<fp16, [1, 128, 1]> input_tensor_493_cast_fp16 = add(x = first_157_cast_fp16, y = initializers_onnx_initializer_415_to_fp16)[name = tensor<string, []>("input_tensor_493_cast_fp16")];
            tensor<fp16, [1, 128, 1]> second_203_cast_fp16 = sqrt(x = input_tensor_493_cast_fp16)[name = tensor<string, []>("second_203_cast_fp16")];
            tensor<fp16, [1, 128, 768]> first_159_cast_fp16 = real_div(x = input_tensor_489_cast_fp16, y = second_203_cast_fp16)[name = tensor<string, []>("first_159_cast_fp16")];
            tensor<fp16, [768]> initializers_onnx_initializer_416_to_fp16 = const()[name = tensor<string, []>("initializers_onnx_initializer_416_to_fp16"), val = tensor<fp16, [768]>(BLOBFILE(path = tensor<string, []>("@model_path/weights/weight.bin"), offset = tensor<uint64, []>(141345088)))];
            tensor<fp16, [1, 128, 768]> first_161_cast_fp16 = mul(x = first_159_cast_fp16, y = initializers_onnx_initializer_416_to_fp16)[name = tensor<string, []>("first_161_cast_fp16")];
            tensor<fp16, [768]> initializers_onnx_initializer_417_to_fp16 = const()[name = tensor<string, []>("initializers_onnx_initializer_417_to_fp16"), val = tensor<fp16, [768]>(BLOBFILE(path = tensor<string, []>("@model_path/weights/weight.bin"), offset = tensor<uint64, []>(141346688)))];
            tensor<fp16, [1, 128, 768]> x_101_cast_fp16 = add(x = first_161_cast_fp16, y = initializers_onnx_initializer_417_to_fp16)[name = tensor<string, []>("x_101_cast_fp16")];
            tensor<fp16, [2304, 768]> transpose_35_to_fp16 = const()[name = tensor<string, []>("transpose_35_to_fp16"), val = tensor<fp16, [2304, 768]>(BLOBFILE(path = tensor<string, []>("@model_path/weights/weight.bin"), offset = tensor<uint64, []>(141348288)))];
            tensor<fp16, [1, 128, 2304]> input_tensor_495_cast_fp16 = linear(bias = input_tensor_15_bias_0_to_fp16, weight = transpose_35_to_fp16, x = x_101_cast_fp16)[name = tensor<string, []>("input_tensor_495_cast_fp16")];
            tensor<int32, [5]> var_4302 = const()[name = tensor<string, []>("op_4302"), val = tensor<int32, [5]>([1, 128, 3, 12, 64])];
            tensor<fp16, [1, 128, 3, 12, 64]> input_tensor_503_cast_fp16 = reshape(shape = var_4302, x = input_tensor_495_cast_fp16)[name = tensor<string, []>("input_tensor_503_cast_fp16")];
            tensor<int32, [5]> input_tensor_507_begin_0 = const()[name = tensor<string, []>("input_tensor_507_begin_0"), val = tensor<int32, [5]>([0, 0, 0, 0, 0])];
            tensor<int32, [5]> input_tensor_507_end_0 = const()[name = tensor<string, []>("input_tensor_507_end_0"), val = tensor<int32, [5]>([1, 128, 1, 12, 64])];
            tensor<bool, [5]> input_tensor_507_end_mask_0 = const()[name = tensor<string, []>("input_tensor_507_end_mask_0"), val = tensor<bool, [5]>([true, true, false, true, true])];
            tensor<bool, [5]> input_tensor_507_squeeze_mask_0 = const()[name = tensor<string, []>("input_tensor_507_squeeze_mask_0"), val = tensor<bool, [5]>([false, false, true, false, false])];
            tensor<fp16, [1, 128, 12, 64]> input_tensor_507_cast_fp16 = slice_by_index(begin = input_tensor_507_begin_0, end = input_tensor_507_end_0, end_mask = input_tensor_507_end_mask_0, squeeze_mask = input_tensor_507_squeeze_mask_0, x = input_tensor_503_cast_fp16)[name = tensor<string, []>("input_tensor_507_cast_fp16")];
            tensor<int32, [5]> input_tensor_509_begin_0 = const()[name = tensor<string, []>("input_tensor_509_begin_0"), val = tensor<int32, [5]>([0, 0, 1, 0, 0])];
            tensor<int32, [5]> input_tensor_509_end_0 = const()[name = tensor<string, []>("input_tensor_509_end_0"), val = tensor<int32, [5]>([1, 128, 2, 12, 64])];
            tensor<bool, [5]> input_tensor_509_end_mask_0 = const()[name = tensor<string, []>("input_tensor_509_end_mask_0"), val = tensor<bool, [5]>([true, true, false, true, true])];
            tensor<bool, [5]> input_tensor_509_squeeze_mask_0 = const()[name = tensor<string, []>("input_tensor_509_squeeze_mask_0"), val = tensor<bool, [5]>([false, false, true, false, false])];
            tensor<fp16, [1, 128, 12, 64]> input_tensor_509_cast_fp16 = slice_by_index(begin = input_tensor_509_begin_0, end = input_tensor_509_end_0, end_mask = input_tensor_509_end_mask_0, squeeze_mask = input_tensor_509_squeeze_mask_0, x = input_tensor_503_cast_fp16)[name = tensor<string, []>("input_tensor_509_cast_fp16")];
            tensor<int32, [5]> input_tensor_511_begin_0 = const()[name = tensor<string, []>("input_tensor_511_begin_0"), val = tensor<int32, [5]>([0, 0, 2, 0, 0])];
            tensor<int32, [5]> input_tensor_511_end_0 = const()[name = tensor<string, []>("input_tensor_511_end_0"), val = tensor<int32, [5]>([1, 128, 3, 12, 64])];
            tensor<bool, [5]> input_tensor_511_end_mask_0 = const()[name = tensor<string, []>("input_tensor_511_end_mask_0"), val = tensor<bool, [5]>([true, true, false, true, true])];
            tensor<bool, [5]> input_tensor_511_squeeze_mask_0 = const()[name = tensor<string, []>("input_tensor_511_squeeze_mask_0"), val = tensor<bool, [5]>([false, false, true, false, false])];
            tensor<fp16, [1, 128, 12, 64]> input_tensor_511_cast_fp16 = slice_by_index(begin = input_tensor_511_begin_0, end = input_tensor_511_end_0, end_mask = input_tensor_511_end_mask_0, squeeze_mask = input_tensor_511_squeeze_mask_0, x = input_tensor_503_cast_fp16)[name = tensor<string, []>("input_tensor_511_cast_fp16")];
            tensor<int32, [1]> var_4355_axes_0 = const()[name = tensor<string, []>("op_4355_axes_0"), val = tensor<int32, [1]>([2])];
            tensor<fp16, [1, 128, 1, 12, 64]> var_4355_cast_fp16 = expand_dims(axes = var_4355_axes_0, x = input_tensor_511_cast_fp16)[name = tensor<string, []>("op_4355_cast_fp16")];
            tensor<int32, [4]> var_4439_begin_0 = const()[name = tensor<string, []>("op_4439_begin_0"), val = tensor<int32, [4]>([0, 0, 0, 0])];
            tensor<int32, [4]> var_4439_end_0 = const()[name = tensor<string, []>("op_4439_end_0"), val = tensor<int32, [4]>([1, 128, 12, 32])];
            tensor<bool, [4]> var_4439_end_mask_0 = const()[name = tensor<string, []>("op_4439_end_mask_0"), val = tensor<bool, [4]>([true, true, true, false])];
            tensor<fp16, [1, 128, 12, 32]> var_4439_cast_fp16 = slice_by_index(begin = var_4439_begin_0, end = var_4439_end_0, end_mask = var_4439_end_mask_0, x = input_tensor_507_cast_fp16)[name = tensor<string, []>("op_4439_cast_fp16")];
            tensor<int32, [4]> input_tensor_523_begin_0 = const()[name = tensor<string, []>("input_tensor_523_begin_0"), val = tensor<int32, [4]>([0, 0, 0, 32])];
            tensor<int32, [4]> input_tensor_523_end_0 = const()[name = tensor<string, []>("input_tensor_523_end_0"), val = tensor<int32, [4]>([1, 128, 12, 64])];
…
            tensor<fp16, [1, 128, 12, 32]> input_tensor_1003_cast_fp16 = slice_by_index(begin = input_tensor_1003_begin_0, end = input_tensor_1003_end_0, end_mask = input_tensor_1003_end_mask_0, x = input_tensor_987_cast_fp16)[name = tensor<string, []>("input_tensor_1003_cast_fp16")];
            tensor<int32, [4]> var_7239_begin_0 = const()[name = tensor<string, []>("op_7239_begin_0"), val = tensor<int32, [4]>([0, 0, 0, 0])];
            tensor<int32, [4]> var_7239_end_0 = const()[name = tensor<string, []>("op_7239_end_0"), val = tensor<int32, [4]>([1, 128, 12, 32])];
            tensor<bool, [4]> var_7239_end_mask_0 = const()[name = tensor<string, []>("op_7239_end_mask_0"), val = tensor<bool, [4]>([true, true, true, false])];
            tensor<fp16, [1, 128, 12, 32]> var_7239_cast_fp16 = slice_by_index(begin = var_7239_begin_0, end = var_7239_end_0, end_mask = var_7239_end_mask_0, x = input_tensor_989_cast_fp16)[name = tensor<string, []>("op_7239_cast_fp16")];
            tensor<int32, [4]> input_tensor_1005_begin_0 = const()[name = tensor<string, []>("input_tensor_1005_begin_0"), val = tensor<int32, [4]>([0, 0, 0, 32])];
            tensor<int32, [4]> input_tensor_1005_end_0 = const()[name = tensor<string, []>("input_tensor_1005_end_0"), val = tensor<int32, [4]>([1, 128, 12, 64])];
            tensor<bool, [4]> input_tensor_1005_end_mask_0 = const()[name = tensor<string, []>("input_tensor_1005_end_mask_0"), val = tensor<bool, [4]>([true, true, true, false])];
            tensor<fp16, [1, 128, 12, 32]> input_tensor_1005_cast_fp16 = slice_by_index(begin = input_tensor_1005_begin_0, end = input_tensor_1005_end_0, end_mask = input_tensor_1005_end_mask_0, x = input_tensor_989_cast_fp16)[name = tensor<string, []>("input_tensor_1005_cast_fp16")];
            tensor<fp16, []> const_20_promoted_to_fp16 = const()[name = tensor<string, []>("const_20_promoted_to_fp16"), val = tensor<fp16, []>(-0x1p+0)];
            tensor<fp16, [1, 128, 12, 32]> var_7261_cast_fp16 = mul(x = input_tensor_1003_cast_fp16, y = const_20_promoted_to_fp16)[name = tensor<string, []>("op_7261_cast_fp16")];
            tensor<fp16, []> const_21_promoted_to_fp16 = const()[name = tensor<string, []>("const_21_promoted_to_fp16"), val = tensor<fp16, []>(-0x1p+0)];
            tensor<fp16, [1, 128, 12, 32]> var_7262_cast_fp16 = mul(x = input_tensor_1005_cast_fp16, y = const_21_promoted_to_fp16)[name = tensor<string, []>("op_7262_cast_fp16")];
            tensor<int32, []> var_7267 = const()[name = tensor<string, []>("op_7267"), val = tensor<int32, []>(-1)];
            tensor<bool, []> first_313_interleave_0 = const()[name = tensor<string, []>("first_313_interleave_0"), val = tensor<bool, []>(false)];
            tensor<fp16, [1, 128, 12, 64]> first_313_cast_fp16 = concat(axis = var_7267, interleave = first_313_interleave_0, values = (var_7261_cast_fp16, var_7219_cast_fp16))[name = tensor<string, []>("first_313_cast_fp16")];
            tensor<int32, []> var_7270 = const()[name = tensor<string, []>("op_7270"), val = tensor<int32, []>(-1)];
            tensor<bool, []> first_315_interleave_0 = const()[name = tensor<string, []>("first_315_interleave_0"), val = tensor<bool, []>(false)];
            tensor<fp16, [1, 128, 12, 64]> first_315_cast_fp16 = concat(axis = var_7270, interleave = first_315_interleave_0, values = (var_7262_cast_fp16, var_7239_cast_fp16))[name = tensor<string, []>("first_315_cast_fp16")];
            tensor<fp16, [1, 128, 12, 64]> first_317_cast_fp16 = mul(x = input_tensor_987_cast_fp16, y = second_17_to_fp16)[name = tensor<string, []>("first_317_cast_fp16")];
            tensor<fp16, [1, 128, 12, 64]> first_319_cast_fp16 = mul(x = input_tensor_989_cast_fp16, y = second_17_to_fp16)[name = tensor<string, []>("first_319_cast_fp16")];
            tensor<fp16, [1, 128, 12, 64]> second_407_cast_fp16 = mul(x = first_313_cast_fp16, y = second_21_to_fp16)[name = tensor<string, []>("second_407_cast_fp16")];
            tensor<fp16, [1, 128, 12, 64]> second_409_cast_fp16 = mul(x = first_315_cast_fp16, y = second_21_to_fp16)[name = tensor<string, []>("second_409_cast_fp16")];
            tensor<fp16, [1, 128, 12, 64]> var_7424_cast_fp16 = add(x = first_317_cast_fp16, y = second_407_cast_fp16)[name = tensor<string, []>("op_7424_cast_fp16")];
            tensor<fp16, [1, 128, 12, 64]> var_7426_cast_fp16 = add(x = first_319_cast_fp16, y = second_409_cast_fp16)[name = tensor<string, []>("op_7426_cast_fp16")];
            tensor<int32, []> var_7427 = const()[name = tensor<string, []>("op_7427"), val = tensor<int32, []>(-1)];
            tensor<bool, []> input_tensor_1033_interleave_0 = const()[name = tensor<string, []>("input_tensor_1033_interleave_0"), val = tensor<bool, []>(false)];
            tensor<fp16, [1, 128, 12, 64]> input_tensor_1033_cast_fp16 = concat(axis = var_7427, interleave = input_tensor_1033_interleave_0, values = var_7424_cast_fp16)[name = tensor<string, []>("input_tensor_1033_cast_fp16")];
            tensor<int32, []> var_7430 = const()[name = tensor<string, []>("op_7430"), val = tensor<int32, []>(-1)];
            tensor<bool, []> input_tensor_1035_interleave_0 = const()[name = tensor<string, []>("input_tensor_1035_interleave_0"), val = tensor<bool, []>(false)];
            tensor<fp16, [1, 128, 12, 64]> input_tensor_1035_cast_fp16 = concat(axis = var_7430, interleave = input_tensor_1035_interleave_0, values = var_7426_cast_fp16)[name = tensor<string, []>("input_tensor_1035_cast_fp16")];
            tensor<int32, [1]> var_7434_axes_0 = const()[name = tensor<string, []>("op_7434_axes_0"), val = tensor<int32, [1]>([2])];
            tensor<fp16, [1, 128, 1, 12, 64]> var_7434_cast_fp16 = expand_dims(axes = var_7434_axes_0, x = input_tensor_1033_cast_fp16)[name = tensor<string, []>("op_7434_cast_fp16")];
            tensor<int32, [1]> var_7436_axes_0 = const()[name = tensor<string, []>("op_7436_axes_0"), val = tensor<int32, [1]>([2])];
            tensor<fp16, [1, 128, 1, 12, 64]> var_7436_cast_fp16 = expand_dims(axes = var_7436_axes_0, x = input_tensor_1035_cast_fp16)[name = tensor<string, []>("op_7436_cast_fp16")];
            tensor<int32, []> var_7437 = const()[name = tensor<string, []>("op_7437"), val = tensor<int32, []>(2)];
            tensor<bool, []> input_tensor_1037_interleave_0 = const()[name = tensor<string, []>("input_tensor_1037_interleave_0"), val = tensor<bool, []>(false)];
            tensor<fp16, [1, 128, 3, 12, 64]> input_tensor_1037_cast_fp16 = concat(axis = var_7437, interleave = input_tensor_1037_interleave_0, values = (var_7434_cast_fp16, var_7436_cast_fp16, var_7135_cast_fp16))[name = tensor<string, []>("input_tensor_1037_cast_fp16")];
            tensor<int32, [5]> input_tensor_1039_begin_0 = const()[name = tensor<string, []>("input_tensor_1039_begin_0"), val = tensor<int32, [5]>([0, 0, 0, 0, 0])];
            tensor<int32, [5]> input_tensor_1039_end_0 = const()[name = tensor<string, []>("input_tensor_1039_end_0"), val = tensor<int32, [5]>([1, 128, 1, 12, 64])];
            tensor<bool, [5]> input_tensor_1039_end_mask_0 = const()[name = tensor<string, []>("input_tensor_1039_end_mask_0"), val = tensor<bool, [5]>([true, true, false, true, true])];
            tensor<bool, [5]> input_tensor_1039_squeeze_mask_0 = const()[name = tensor<string, []>("input_tensor_1039_squeeze_mask_0"), val = tensor<bool, [5]>([false, false, true, false, false])];
            tensor<fp16, [1, 128, 12, 64]> input_tensor_1039_cast_fp16 = slice_by_index(begin = input_tensor_1039_begin_0, end = input_tensor_1039_end_0, end_mask = input_tensor_1039_end_mask_0, squeeze_mask = input_tensor_1039_squeeze_mask_0, x = input_tensor_1037_cast_fp16)[name = tensor<string, []>("input_tensor_1039_cast_fp16")];
            tensor<int32, [5]> input_tensor_1043_begin_0 = const()[name = tensor<string, []>("input_tensor_1043_begin_0"), val = tensor<int32, [5]>([0, 0, 1, 0, 0])];
            tensor<int32, [5]> input_tensor_1043_end_0 = const()[name = tensor<string, []>("input_tensor_1043_end_0"), val = tensor<int32, [5]>([1, 128, 2, 12, 64])];
            tensor<bool, [5]> input_tensor_1043_end_mask_0 = const()[name = tensor<string, []>("input_tensor_1043_end_mask_0"), val = tensor<bool, [5]>([true, true, false, true, true])];
            tensor<bool, [5]> input_tensor_1043_squeeze_mask_0 = const()[name = tensor<string, []>("input_tensor_1043_squeeze_mask_0"), val = tensor<bool, [5]>([false, false, true, false, false])];
            tensor<fp16, [1, 128, 12, 64]> input_tensor_1043_cast_fp16 = slice_by_index(begin = input_tensor_1043_begin_0, end = input_tensor_1043_end_0, end_mask = input_tensor_1043_end_mask_0, squeeze_mask = input_tensor_1043_squeeze_mask_0, x = input_tensor_1037_cast_fp16)[name = tensor<string, []>("input_tensor_1043_cast_fp16")];
            tensor<int32, [5]> input_tensor_1041_begin_0 = const()[name = tensor<string, []>("input_tensor_1041_begin_0"), val = tensor<int32, [5]>([0, 0, 2, 0, 0])];
            tensor<int32, [5]> input_tensor_1041_end_0 = const()[name = tensor<string, []>("input_tensor_1041_end_0"), val = tensor<int32, [5]>([1, 128, 3, 12, 64])];
            tensor<bool, [5]> input_tensor_1041_end_mask_0 = const()[name = tensor<string, []>("input_tensor_1041_end_mask_0"), val = tensor<bool, [5]>([true, true, false, true, true])];
            tensor<bool, [5]> input_tensor_1041_squeeze_mask_0 = const()[name = tensor<string, []>("input_tensor_1041_squeeze_mask_0"), val = tensor<bool, [5]>([false, false, true, false, false])];
            tensor<fp16, [1, 128, 12, 64]> input_tensor_1041_cast_fp16 = slice_by_index(begin = input_tensor_1041_begin_0, end = input_tensor_1041_end_0, end_mask = input_tensor_1041_end_mask_0, squeeze_mask = input_tensor_1041_squeeze_mask_0, x = input_tensor_1037_cast_fp16)[name = tensor<string, []>("input_tensor_1041_cast_fp16")];
            tensor<int32, [4]> var_7486 = const()[name = tensor<string, []>("op_7486"), val = tensor<int32, [4]>([0, 2, 1, 3])];
            tensor<bool, []> first_321_transpose_x_0 = const()[name = tensor<string, []>("first_321_transpose_x_0"), val = tensor<bool, []>(false)];
            tensor<bool, []> first_321_transpose_y_0 = const()[name = tensor<string, []>("first_321_transpose_y_0"), val = tensor<bool, []>(false)];
            tensor<int32, [4]> transpose_152_perm_0 = const()[name = tensor<string, []>("transpose_152_perm_0"), val = tensor<int32, [4]>([0, 2, -3, -1])];
            tensor<int32, [4]> transpose_153_perm_0 = const()[name = tensor<string, []>("transpose_153_perm_0"), val = tensor<int32, [4]>([0, 2, -1, -3])];
            tensor<fp16, [1, 12, 64, 128]> transpose_161 = transpose(perm = transpose_153_perm_0, x = input_tensor_1043_cast_fp16)[name = tensor<string, []>("transpose_161")];
            tensor<fp16, [1, 12, 128, 64]> transpose_162 = transpose(perm = transpose_152_perm_0, x = input_tensor_1039_cast_fp16)[name = tensor<string, []>("transpose_162")];
            tensor<fp16, [1, 12, 128, 128]> first_321_cast_fp16 = matmul(transpose_x = first_321_transpose_x_0, transpose_y = first_321_transpose_y_0, x = transpose_162, y = transpose_161)[name = tensor<string, []>("first_321_cast_fp16")];
            tensor<fp16, []> _inversed_first_323_y_0_to_fp16 = const()[name = tensor<string, []>("_inversed_first_323_y_0_to_fp16"), val = tensor<fp16, []>(0x1p-3)];
            tensor<fp16, [1, 12, 128, 128]> _inversed_first_323_cast_fp16 = mul(x = first_321_cast_fp16, y = _inversed_first_323_y_0_to_fp16)[name = tensor<string, []>("_inversed_first_323_cast_fp16")];
            tensor<fp16, [1, 12, 128, 128]> input_41_cast_fp16 = add(x = _inversed_first_323_cast_fp16, y = second_31_cast_fp16)[name = tensor<string, []>("input_41_cast_fp16")];
            tensor<int32, []> var_7499 = const()[name = tensor<string, []>("op_7499"), val = tensor<int32, []>(-1)];
            tensor<fp16, [1, 12, 128, 128]> x_213_cast_fp16 = softmax(axis = var_7499, x = input_41_cast_fp16)[name = tensor<string, []>("x_213_cast_fp16")];
            tensor<bool, []> input_tensor_1045_transpose_x_0 = const()[name = tensor<string, []>("input_tensor_1045_transpose_x_0"), val = tensor<bool, []>(false)];
            tensor<bool, []> input_tensor_1045_transpose_y_0 = const()[name = tensor<string, []>("input_tensor_1045_transpose_y_0"), val = tensor<bool, []>(false)];
            tensor<fp16, [1, 12, 128, 64]> transpose_163 = transpose(perm = var_7486, x = input_tensor_1041_cast_fp16)[name = tensor<string, []>("transpose_163")];
            tensor<fp16, [1, 12, 128, 64]> input_tensor_1045_cast_fp16 = matmul(transpose_x = input_tensor_1045_transpose_x_0, transpose_y = input_tensor_1045_transpose_y_0, x = x_213_cast_fp16, y = transpose_163)[name = tensor<string, []>("input_tensor_1045_cast_fp16")];
            tensor<int32, [4]> var_7506 = const()[name = tensor<string, []>("op_7506"), val = tensor<int32, [4]>([0, 2, 1, 3])];
            tensor<int32, [3]> var_7544 = const()[name = tensor<string, []>("op_7544"), val = tensor<int32, [3]>([1, 128, 768])];
            tensor<fp16, [1, 128, 12, 64]> transpose_160 = transpose(perm = var_7506, x = input_tensor_1045_cast_fp16)[name = tensor<string, []>("transpose_160")];
            tensor<fp16, [1, 128, 768]> x_215_cast_fp16 = reshape(shape = var_7544, x = transpose_160)[name = tensor<string, []>("x_215_cast_fp16")];
            tensor<fp16, [768, 768]> transpose_73_to_fp16 = const()[name = tensor<string, []>("transpose_73_to_fp16"), val = tensor<fp16, [768, 768]>(BLOBFILE(path = tensor<string, []>("@model_path/weights/weight.bin"), offset = tensor<uint64, []>(239292736)))];
            tensor<fp16, [1, 128, 768]> first_325_cast_fp16 = linear(bias = first_25_bias_0_to_fp16, weight = transpose_73_to_fp16, x = x_215_cast_fp16)[name = tensor<string, []>("first_325_cast_fp16")];
            tensor<fp16, [1, 128, 768]> input_tensor_1055_cast_fp16 = add(x = first_325_cast_fp16, y = x_201_cast_fp16)[name = tensor<string, []>("input_tensor_1055_cast_fp16")];
            tensor<bool, []> var_7550 = const()[name = tensor<string, []>("op_7550"), val = tensor<bool, []>(true)];
            tensor<int32, [1]> var_7552 = const()[name = tensor<string, []>("op_7552"), val = tensor<int32, [1]>([-1])];
            tensor<fp16, [1, 128, 1]> second_413_cast_fp16 = reduce_mean(axes = var_7552, keep_dims = var_7550, x = input_tensor_1055_cast_fp16)[name = tensor<string, []>("second_413_cast_fp16")];
            tensor<fp16, [1, 128, 768]> input_tensor_1057_cast_fp16 = sub(x = input_tensor_1055_cast_fp16, y = second_413_cast_fp16)[name = tensor<string, []>("input_tensor_1057_cast_fp16")];
            tensor<fp16, []> initializers_onnx_initializer_899_to_fp16 = const()[name = tensor<string, []>("initializers_onnx_initializer_899_to_fp16"), val = tensor<fp16, []>(0x1p+1)];
            tensor<fp16, [1, 128, 768]> input_tensor_1059_cast_fp16 = pow(x = input_tensor_1057_cast_fp16, y = initializers_onnx_initializer_899_to_fp16)[name = tensor<string, []>("input_tensor_1059_cast_fp16")];
            tensor<bool, []> var_7558 = const()[name = tensor<string, []>("op_7558"), val = tensor<bool, []>(true)];
            tensor<int32, [1]> var_7560 = const()[name = tensor<string, []>("op_7560"), val = tensor<int32, [1]>([-1])];
            tensor<fp16, [1, 128, 1]> first_327_cast_fp16 = reduce_mean(axes = var_7560, keep_dims = var_7558, x = input_tensor_1059_cast_fp16)[name = tensor<string, []>("first_327_cast_fp16")];
            tensor<fp16, []> initializers_onnx_initializer_900_to_fp16 = const()[name = tensor<string, []>("initializers_onnx_initializer_900_to_fp16"), val = tensor<fp16, []>(0x1p-24)];
            tensor<fp16, [1, 128, 1]> input_tensor_1061_cast_fp16 = add(x = first_327_cast_fp16, y = initializers_onnx_initializer_900_to_fp16)[name = tensor<string, []>("input_tensor_1061_cast_fp16")];
            tensor<fp16, [1, 128, 1]> second_417_cast_fp16 = sqrt(x = input_tensor_1061_cast_fp16)[name = tensor<string, []>("second_417_cast_fp16")];
            tensor<fp16, [1, 128, 768]> first_329_cast_fp16 = real_div(x = input_tensor_1057_cast_fp16, y = second_417_cast_fp16)[name = tensor<string, []>("first_329_cast_fp16")];
            tensor<fp16, [768]> initializers_onnx_initializer_901_to_fp16 = const()[name = tensor<string, []>("initializers_onnx_initializer_901_to_fp16"), val = tensor<fp16, [768]>(BLOBFILE(path = tensor<string, []>("@model_path/weights/weight.bin"), offset = tensor<uint64, []>(240472448)))];
            tensor<fp16, [1, 128, 768]> first_331_cast_fp16 = mul(x = first_329_cast_fp16, y = initializers_onnx_initializer_901_to_fp16)[name = tensor<string, []>("first_331_cast_fp16")];
            tensor<fp16, [768]> initializers_onnx_initializer_902_to_fp16 = const()[name = tensor<string, []>("initializers_onnx_initializer_902_to_fp16"), val = tensor<fp16, [768]>(BLOBFILE(path = tensor<string, []>("@model_path/weights/weight.bin"), offset = tensor<uint64, []>(240474048)))];
            tensor<fp16, [1, 128, 768]> x_217_cast_fp16 = add(x = first_331_cast_fp16, y = initializers_onnx_initializer_902_to_fp16)[name = tensor<string, []>("x_217_cast_fp16")];
            tensor<fp16, [3072, 768]> transpose_74_to_fp16 = const()[name = tensor<string, []>("transpose_74_to_fp16"), val = tensor<fp16, [3072, 768]>(BLOBFILE(path = tensor<string, []>("@model_path/weights/weight.bin"), offset = tensor<uint64, []>(240475648)))];
            tensor<fp16, [1, 128, 3072]> first_333_cast_fp16 = linear(bias = first_33_bias_0_to_fp16, weight = transpose_74_to_fp16, x = x_217_cast_fp16)[name = tensor<string, []>("first_333_cast_fp16")];
            tensor<fp16, [3072, 768]> transpose_75_to_fp16 = const()[name = tensor<string, []>("transpose_75_to_fp16"), val = tensor<fp16, [3072, 768]>(BLOBFILE(path = tensor<string, []>("@model_path/weights/weight.bin"), offset = tensor<uint64, []>(245194304)))];
            tensor<fp16, [1, 128, 3072]> input_43_cast_fp16 = linear(bias = first_33_bias_0_to_fp16, weight = transpose_75_to_fp16, x = x_217_cast_fp16)[name = tensor<string, []>("input_43_cast_fp16")];
            tensor<fp16, [1, 128, 3072]> second_425_cast_fp16 = silu(x = input_43_cast_fp16)[name = tensor<string, []>("second_425_cast_fp16")];
            tensor<fp16, [1, 128, 3072]> x_219_cast_fp16 = mul(x = first_333_cast_fp16, y = second_425_cast_fp16)[name = tensor<string, []>("x_219_cast_fp16")];
            tensor<fp16, [768, 3072]> transpose_76_to_fp16 = const()[name = tensor<string, []>("transpose_76_to_fp16"), val = tensor<fp16, [768, 3072]>(BLOBFILE(path = tensor<string, []>("@model_path/weights/weight.bin"), offset = tensor<uint64, []>(249912960)))];
            tensor<fp16, [1, 128, 768]> first_335_cast_fp16 = linear(bias = first_25_bias_0_to_fp16, weight = transpose_76_to_fp16, x = x_219_cast_fp16)[name = tensor<string, []>("first_335_cast_fp16")];
            tensor<fp16, [1, 128, 768]> input_tensor_1063_cast_fp16 = add(x = first_335_cast_fp16, y = x_217_cast_fp16)[name = tensor<string, []>("input_tensor_1063_cast_fp16")];
            tensor<bool, []> var_7578 = const()[name = tensor<string, []>("op_7578"), val = tensor<bool, []>(true)];
            tensor<int32, [1]> var_7580 = const()[name = tensor<string, []>("op_7580"), val = tensor<int32, [1]>([-1])];
            tensor<fp16, [1, 128, 1]> second_427_cast_fp16 = reduce_mean(axes = var_7580, keep_dims = var_7578, x = input_tensor_1063_cast_fp16)[name = tensor<string, []>("second_427_cast_fp16")];
            tensor<fp16, [1, 128, 768]> input_tensor_1065_cast_fp16 = sub(x = input_tensor_1063_cast_fp16, y = second_427_cast_fp16)[name = tensor<string, []>("input_tensor_1065_cast_fp16")];
            tensor<fp16, []> initializers_onnx_initializer_906_to_fp16 = const()[name = tensor<string, []>("initializers_onnx_initializer_906_to_fp16"), val = tensor<fp16, []>(0x1p+1)];
            tensor<fp16, [1, 128, 768]> input_tensor_1067_cast_fp16 = pow(x = input_tensor_1065_cast_fp16, y = initializers_onnx_initializer_906_to_fp16)[name = tensor<string, []>("input_tensor_1067_cast_fp16")];
            tensor<bool, []> var_7586 = const()[name = tensor<string, []>("op_7586"), val = tensor<bool, []>(true)];
            tensor<int32, [1]> var_7588 = const()[name = tensor<string, []>("op_7588"), val = tensor<int32, [1]>([-1])];
            tensor<fp16, [1, 128, 1]> first_337_cast_fp16 = reduce_mean(axes = var_7588, keep_dims = var_7586, x = input_tensor_1067_cast_fp16)[name = tensor<string, []>("first_337_cast_fp16")];
            tensor<fp16, []> initializers_onnx_initializer_907_to_fp16 = const()[name = tensor<string, []>("initializers_onnx_initializer_907_to_fp16"), val = tensor<fp16, []>(0x1p-24)];
            tensor<fp16, [1, 128, 1]> input_tensor_1069_cast_fp16 = add(x = first_337_cast_fp16, y = initializers_onnx_initializer_907_to_fp16)[name = tensor<string, []>("input_tensor_1069_cast_fp16")];
            tensor<fp16, [1, 128, 1]> second_431_cast_fp16 = sqrt(x = input_tensor_1069_cast_fp16)[name = tensor<string, []>("second_431_cast_fp16")];
            tensor<fp16, [1, 128, 768]> first_339_cast_fp16 = real_div(x = input_tensor_1065_cast_fp16, y = second_431_cast_fp16)[name = tensor<string, []>("first_339_cast_fp16")];
            tensor<fp16, [768]> initializers_onnx_initializer_908_to_fp16 = const()[name = tensor<string, []>("initializers_onnx_initializer_908_to_fp16"), val = tensor<fp16, [768]>(BLOBFILE(path = tensor<string, []>("@model_path/weights/weight.bin"), offset = tensor<uint64, []>(254631616)))];
            tensor<fp16, [1, 128, 768]> first_341_cast_fp16 = mul(x = first_339_cast_fp16, y = initializers_onnx_initializer_908_to_fp16)[name = tensor<string, []>("first_341_cast_fp16")];
            tensor<fp16, [768]> initializers_onnx_initializer_909_to_fp16 = const()[name = tensor<string, []>("initializers_onnx_initializer_909_to_fp16"), val = tensor<fp16, [768]>(BLOBFILE(path = tensor<string, []>("@model_path/weights/weight.bin"), offset = tensor<uint64, []>(254633216)))];
            tensor<fp16, [1, 128, 768]> x_221_cast_fp16 = add(x = first_341_cast_fp16, y = initializers_onnx_initializer_909_to_fp16)[name = tensor<string, []>("x_221_cast_fp16")];
            tensor<fp16, [2304, 768]> transpose_77_to_fp16 = const()[name = tensor<string, []>("transpose_77_to_fp16"), val = tensor<fp16, [2304, 768]>(BLOBFILE(path = tensor<string, []>("@model_path/weights/weight.bin"), offset = tensor<uint64, []>(254634816)))];
            tensor<fp16, [1, 128, 2304]> input_tensor_1071_cast_fp16 = linear(bias = input_tensor_15_bias_0_to_fp16, weight = transpose_77_to_fp16, x = x_221_cast_fp16)[name = tensor<string, []>("input_tensor_1071_cast_fp16")];
            tensor<int32, [5]> var_7638 = const()[name = tensor<string, []>("op_7638"), val = tensor<int32, [5]>([1, 128, 3, 12, 64])];
            tensor<fp16, [1, 128, 3, 12, 64]> input_tensor_1079_cast_fp16 = reshape(shape = var_7638, x = input_tensor_1071_cast_fp16)[name = tensor<string, []>("input_tensor_1079_cast_fp16")];
            tensor<int32, [5]> input_tensor_1083_begin_0 = const()[name = tensor<string, []>("input_tensor_1083_begin_0"), val = tensor<int32, [5]>([0, 0, 0, 0, 0])];
            tensor<int32, [5]> input_tensor_1083_end_0 = const()[name = tensor<string, []>("input_tensor_1083_end_0"), val = tensor<int32, [5]>([1, 128, 1, 12, 64])];
            tensor<bool, [5]> input_tensor_1083_end_mask_0 = const()[name = tensor<string, []>("input_tensor_1083_end_mask_0"), val = tensor<bool, [5]>([true, true, false, true, true])];
            tensor<bool, [5]> input_tensor_1083_squeeze_mask_0 = const()[name = tensor<string, []>("input_tensor_1083_squeeze_mask_0"), val = tensor<bool, [5]>([false, false, true, false, false])];
            tensor<fp16, [1, 128, 12, 64]> input_tensor_1083_cast_fp16 = slice_by_index(begin = input_tensor_1083_begin_0, end = input_tensor_1083_end_0, end_mask = input_tensor_1083_end_mask_0, squeeze_mask = input_tensor_1083_squeeze_mask_0, x = input_tensor_1079_cast_fp16)[name = tensor<string, []>("input_tensor_1083_cast_fp16")];
            tensor<int32, [5]> input_tensor_1085_begin_0 = const()[name = tensor<string, []>("input_tensor_1085_begin_0"), val = tensor<int32, [5]>([0, 0, 1, 0, 0])];
            tensor<int32, [5]> input_tensor_1085_end_0 = const()[name = tensor<string, []>("input_tensor_1085_end_0"), val = tensor<int32, [5]>([1, 128, 2, 12, 64])];
            tensor<bool, [5]> input_tensor_1085_end_mask_0 = const()[name = tensor<string, []>("input_tensor_1085_end_mask_0"), val = tensor<bool, [5]>([true, true, false, true, true])];
            tensor<bool, [5]> input_tensor_1085_squeeze_mask_0 = const()[name = tensor<string, []>("input_tensor_1085_squeeze_mask_0"), val = tensor<bool, [5]>([false, false, true, false, false])];
            tensor<fp16, [1, 128, 12, 64]> input_tensor_1085_cast_fp16 = slice_by_index(begin = input_tensor_1085_begin_0, end = input_tensor_1085_end_0, end_mask = input_tensor_1085_end_mask_0, squeeze_mask = input_tensor_1085_squeeze_mask_0, x = input_tensor_1079_cast_fp16)[name = tensor<string, []>("input_tensor_1085_cast_fp16")];
            tensor<int32, [5]> input_tensor_1087_begin_0 = const()[name = tensor<string, []>("input_tensor_1087_begin_0"), val = tensor<int32, [5]>([0, 0, 2, 0, 0])];
            tensor<int32, [5]> input_tensor_1087_end_0 = const()[name = tensor<string, []>("input_tensor_1087_end_0"), val = tensor<int32, [5]>([1, 128, 3, 12, 64])];
            tensor<bool, [5]> input_tensor_1087_end_mask_0 = const()[name = tensor<string, []>("input_tensor_1087_end_mask_0"), val = tensor<bool, [5]>([true, true, false, true, true])];
            tensor<bool, [5]> input_tensor_1087_squeeze_mask_0 = const()[name = tensor<string, []>("input_tensor_1087_squeeze_mask_0"), val = tensor<bool, [5]>([false, false, true, false, false])];
            tensor<fp16, [1, 128, 12, 64]> input_tensor_1087_cast_fp16 = slice_by_index(begin = input_tensor_1087_begin_0, end = input_tensor_1087_end_0, end_mask = input_tensor_1087_end_mask_0, squeeze_mask = input_tensor_1087_squeeze_mask_0, x = input_tensor_1079_cast_fp16)[name = tensor<string, []>("input_tensor_1087_cast_fp16")];
            tensor<int32, [1]> var_7691_axes_0 = const()[name = tensor<string, []>("op_7691_axes_0"), val = tensor<int32, [1]>([2])];
            tensor<fp16, [1, 128, 1, 12, 64]> var_7691_cast_fp16 = expand_dims(axes = var_7691_axes_0, x = input_tensor_1087_cast_fp16)[name = tensor<string, []>("op_7691_cast_fp16")];
            tensor<int32, [4]> var_7775_begin_0 = const()[name = tensor<string, []>("op_7775_begin_0"), val = tensor<int32, [4]>([0, 0, 0, 0])];
            tensor<int32, [4]> var_7775_end_0 = const()[name = tensor<string, []>("op_7775_end_0"), val = tensor<int32, [4]>([1, 128, 12, 32])];
            tensor<bool, [4]> var_7775_end_mask_0 = const()[name = tensor<string, []>("op_7775_end_mask_0"), val = tensor<bool, [4]>([true, true, true, false])];
            tensor<fp16, [1, 128, 12, 32]> var_7775_cast_fp16 = slice_by_index(begin = var_7775_begin_0, end = var_7775_end_0, end_mask = var_7775_end_mask_0, x = input_tensor_1083_cast_fp16)[name = tensor<string, []>("op_7775_cast_fp16")];
            tensor<int32, [4]> input_tensor_1099_begin_0 = const()[name = tensor<string, []>("input_tensor_1099_begin_0"), val = tensor<int32, [4]>([0, 0, 0, 32])];
            tensor<int32, [4]> input_tensor_1099_end_0 = const()[name = tensor<string, []>("input_tensor_1099_end_0"), val = tensor<int32, [4]>([1, 128, 12, 64])];
            tensor<bool, [4]> input_tensor_1099_end_mask_0 = const()[name = tensor<string, []>("input_tensor_1099_end_mask_0"), val = tensor<bool, [4]>([true, true, true, false])];
            tensor<fp16, [1, 128, 12, 32]> input_tensor_1099_cast_fp16 = slice_by_index(begin = input_tensor_1099_begin_0, end = input_tensor_1099_end_0, end_mask = input_tensor_1099_end_mask_0, x = input_tensor_1083_cast_fp16)[name = tensor<string, []>("input_tensor_1099_cast_fp16")];
            tensor<int32, [4]> var_7795_begin_0 = const()[name = tensor<string, []>("op_7795_begin_0"), val = tensor<int32, [4]>([0, 0, 0, 0])];
            tensor<int32, [4]> var_7795_end_0 = const()[name = tensor<string, []>("op_7795_end_0"), val = tensor<int32, [4]>([1, 128, 12, 32])];
            tensor<bool, [4]> var_7795_end_mask_0 = const()[name = tensor<string, []>("op_7795_end_mask_0"), val = tensor<bool, [4]>([true, true, true, false])];
            tensor<fp16, [1, 128, 12, 32]> var_7795_cast_fp16 = slice_by_index(begin = var_7795_begin_0, end = var_7795_end_0, end_mask = var_7795_end_mask_0, x = input_tensor_1085_cast_fp16)[name = tensor<string, []>("op_7795_cast_fp16")];
            tensor<int32, [4]> input_tensor_1101_begin_0 = const()[name = tensor<string, []>("input_tensor_1101_begin_0"), val = tensor<int32, [4]>([0, 0, 0, 32])];
            tensor<int32, [4]> input_tensor_1101_end_0 = const()[name = tensor<string, []>("input_tensor_1101_end_0"), val = tensor<int32, [4]>([1, 128, 12, 64])];
            tensor<bool, [4]> input_tensor_1101_end_mask_0 = const()[name = tensor<string, []>("input_tensor_1101_end_mask_0"), val = tensor<bool, [4]>([true, true, true, false])];
            tensor<fp16, [1, 128, 12, 32]> input_tensor_1101_cast_fp16 = slice_by_index(begin = input_tensor_1101_begin_0, end = input_tensor_1101_end_0, end_mask = input_tensor_1101_end_mask_0, x = input_tensor_1085_cast_fp16)[name = tensor<string, []>("input_tensor_1101_cast_fp16")];
            tensor<fp16, []> const_22_promoted_to_fp16 = const()[name = tensor<string, []>("const_22_promoted_to_fp16"), val = tensor<fp16, []>(-0x1p+0)];
            tensor<fp16, [1, 128, 12, 32]> var_7817_cast_fp16 = mul(x = input_tensor_1099_cast_fp16, y = const_22_promoted_to_fp16)[name = tensor<string, []>("op_7817_cast_fp16")];
            tensor<fp16, []> const_23_promoted_to_fp16 = const()[name = tensor<string, []>("const_23_promoted_to_fp16"), val = tensor<fp16, []>(-0x1p+0)];
            tensor<fp16, [1, 128, 12, 32]> var_7818_cast_fp16 = mul(x = input_tensor_1101_cast_fp16, y = const_23_promoted_to_fp16)[name = tensor<string, []>("op_7818_cast_fp16")];
            tensor<int32, []> var_7823 = const()[name = tensor<string, []>("op_7823"), val = tensor<int32, []>(-1)];
            tensor<bool, []> first_343_interleave_0 = const()[name = tensor<string, []>("first_343_interleave_0"), val = tensor<bool, []>(false)];
            tensor<fp16, [1, 128, 12, 64]> first_343_cast_fp16 = concat(axis = var_7823, interleave = first_343_interleave_0, values = (var_7817_cast_fp16, var_7775_cast_fp16))[name = tensor<string, []>("first_343_cast_fp16")];
            tensor<int32, []> var_7826 = const()[name = tensor<string, []>("op_7826"), val = tensor<int32, []>(-1)];
            tensor<bool, []> first_345_interleave_0 = const()[name = tensor<string, []>("first_345_interleave_0"), val = tensor<bool, []>(false)];
            tensor<fp16, [1, 128, 12, 64]> first_345_cast_fp16 = concat(axis = var_7826, interleave = first_345_interleave_0, values = (var_7818_cast_fp16, var_7795_cast_fp16))[name = tensor<string, []>("first_345_cast_fp16")];
            tensor<fp16, [1, 128, 12, 64]> first_347_cast_fp16 = mul(x = input_tensor_1083_cast_fp16, y = second_17_to_fp16)[name = tensor<string, []>("first_347_cast_fp16")];
            tensor<fp16, [1, 128, 12, 64]> first_349_cast_fp16 = mul(x = input_tensor_1085_cast_fp16, y = second_17_to_fp16)[name = tensor<string, []>("first_349_cast_fp16")];
            tensor<fp16, [1, 128, 12, 64]> second_445_cast_fp16 = mul(x = first_343_cast_fp16, y = second_21_to_fp16)[name = tensor<string, []>("second_445_cast_fp16")];
            tensor<fp16, [1, 128, 12, 64]> second_447_cast_fp16 = mul(x = first_345_cast_fp16, y = second_21_to_fp16)[name = tensor<string, []>("second_447_cast_fp16")];
            tensor<fp16, [1, 128, 12, 64]> var_7980_cast_fp16 = add(x = first_347_cast_fp16, y = second_445_cast_fp16)[name = tensor<string, []>("op_7980_cast_fp16")];
            tensor<fp16, [1, 128, 12, 64]> var_7982_cast_fp16 = add(x = first_349_cast_fp16, y = second_447_cast_fp16)[name = tensor<string, []>("op_7982_cast_fp16")];
            tensor<int32, []> var_7983 = const()[name = tensor<string, []>("op_7983"), val = tensor<int32, []>(-1)];
            tensor<bool, []> input_tensor_1129_interleave_0 = const()[name = tensor<string, []>("input_tensor_1129_interleave_0"), val = tensor<bool, []>(false)];
            tensor<fp16, [1, 128, 12, 64]> input_tensor_1129_cast_fp16 = concat(axis = var_7983, interleave = input_tensor_1129_interleave_0, values = var_7980_cast_fp16)[name = tensor<string, []>("input_tensor_1129_cast_fp16")];
            tensor<int32, []> var_7986 = const()[name = tensor<string, []>("op_7986"), val = tensor<int32, []>(-1)];
            tensor<bool, []> input_tensor_1131_interleave_0 = const()[name = tensor<string, []>("input_tensor_1131_interleave_0"), val = tensor<bool, []>(false)];
            tensor<fp16, [1, 128, 12, 64]> input_tensor_1131_cast_fp16 = concat(axis = var_7986, interleave = input_tensor_1131_interleave_0, values = var_7982_cast_fp16)[name = tensor<string, []>("input_tensor_1131_cast_fp16")];
            tensor<int32, [1]> var_7990_axes_0 = const()[name = tensor<string, []>("op_7990_axes_0"), val = tensor<int32, [1]>([2])];
            tensor<fp16, [1, 128, 1, 12, 64]> var_7990_cast_fp16 = expand_dims(axes = var_7990_axes_0, x = input_tensor_1129_cast_fp16)[name = tensor<string, []>("op_7990_cast_fp16")];
            tensor<int32, [1]> var_7992_axes_0 = const()[name = tensor<string, []>("op_7992_axes_0"), val = tensor<int32, [1]>([2])];
            tensor<fp16, [1, 128, 1, 12, 64]> var_7992_cast_fp16 = expand_dims(axes = var_7992_axes_0, x = input_tensor_1131_cast_fp16)[name = tensor<string, []>("op_7992_cast_fp16")];
            tensor<int32, []> var_7993 = const()[name = tensor<string, []>("op_7993"), val = tensor<int32, []>(2)];
            tensor<bool, []> input_tensor_1133_interleave_0 = const()[name = tensor<string, []>("input_tensor_1133_interleave_0"), val = tensor<bool, []>(false)];
            tensor<fp16, [1, 128, 3, 12, 64]> input_tensor_1133_cast_fp16 = concat(axis = var_7993, interleave = input_tensor_1133_interleave_0, values = (var_7990_cast_fp16, var_7992_cast_fp16, var_7691_cast_fp16))[name = tensor<string, []>("input_tensor_1133_cast_fp16")];
            tensor<int32, [5]> input_tensor_1135_begin_0 = const()[name = tensor<string, []>("input_tensor_1135_begin_0"), val = tensor<int32, [5]>([0, 0, 0, 0, 0])];
            tensor<int32, [5]> input_tensor_1135_end_0 = const()[name = tensor<string, []>("input_tensor_1135_end_0"), val = tensor<int32, [5]>([1, 128, 1, 12, 64])];
            tensor<bool, [5]> input_tensor_1135_end_mask_0 = const()[name = tensor<string, []>("input_tensor_1135_end_mask_0"), val = tensor<bool, [5]>([true, true, false, true, true])];
            tensor<bool, [5]> input_tensor_1135_squeeze_mask_0 = const()[name = tensor<string, []>("input_tensor_1135_squeeze_mask_0"), val = tensor<bool, [5]>([false, false, true, false, false])];
            tensor<fp16, [1, 128, 12, 64]> input_tensor_1135_cast_fp16 = slice_by_index(begin = input_tensor_1135_begin_0, end = input_tensor_1135_end_0, end_mask = input_tensor_1135_end_mask_0, squeeze_mask = input_tensor_1135_squeeze_mask_0, x = input_tensor_1133_cast_fp16)[name = tensor<string, []>("input_tensor_1135_cast_fp16")];
            tensor<int32, [5]> input_tensor_1139_begin_0 = const()[name = tensor<string, []>("input_tensor_1139_begin_0"), val = tensor<int32, [5]>([0, 0, 1, 0, 0])];
            tensor<int32, [5]> input_tensor_1139_end_0 = const()[name = tensor<string, []>("input_tensor_1139_end_0"), val = tensor<int32, [5]>([1, 128, 2, 12, 64])];
            tensor<bool, [5]> input_tensor_1139_end_mask_0 = const()[name = tensor<string, []>("input_tensor_1139_end_mask_0"), val = tensor<bool, [5]>([true, true, false, true, true])];
            tensor<bool, [5]> input_tensor_1139_squeeze_mask_0 = const()[name = tensor<string, []>("input_tensor_1139_squeeze_mask_0"), val = tensor<bool, [5]>([false, false, true, false, false])];
            tensor<fp16, [1, 128, 12, 64]> input_tensor_1139_cast_fp16 = slice_by_index(begin = input_tensor_1139_begin_0, end = input_tensor_1139_end_0, end_mask = input_tensor_1139_end_mask_0, squeeze_mask = input_tensor_1139_squeeze_mask_0, x = input_tensor_1133_cast_fp16)[name = tensor<string, []>("input_tensor_1139_cast_fp16")];
            tensor<int32, [5]> input_tensor_1137_begin_0 = const()[name = tensor<string, []>("input_tensor_1137_begin_0"), val = tensor<int32, [5]>([0, 0, 2, 0, 0])];
            tensor<int32, [5]> input_tensor_1137_end_0 = const()[name = tensor<string, []>("input_tensor_1137_end_0"), val = tensor<int32, [5]>([1, 128, 3, 12, 64])];
            tensor<bool, [5]> input_tensor_1137_end_mask_0 = const()[name = tensor<string, []>("input_tensor_1137_end_mask_0"), val = tensor<bool, [5]>([true, true, false, true, true])];
            tensor<bool, [5]> input_tensor_1137_squeeze_mask_0 = const()[name = tensor<string, []>("input_tensor_1137_squeeze_mask_0"), val = tensor<bool, [5]>([false, false, true, false, false])];
            tensor<fp16, [1, 128, 12, 64]> input_tensor_1137_cast_fp16 = slice_by_index(begin = input_tensor_1137_begin_0, end = input_tensor_1137_end_0, end_mask = input_tensor_1137_end_mask_0, squeeze_mask = input_tensor_1137_squeeze_mask_0, x = input_tensor_1133_cast_fp16)[name = tensor<string, []>("input_tensor_1137_cast_fp16")];
            tensor<int32, [4]> var_8042 = const()[name = tensor<string, []>("op_8042"), val = tensor<int32, [4]>([0, 2, 1, 3])];
            tensor<bool, []> first_351_transpose_x_0 = const()[name = tensor<string, []>("first_351_transpose_x_0"), val = tensor<bool, []>(false)];
            tensor<bool, []> first_351_transpose_y_0 = const()[name = tensor<string, []>("first_351_transpose_y_0"), val = tensor<bool, []>(false)];
            tensor<int32, [4]> transpose_154_perm_0 = const()[name = tensor<string, []>("transpose_154_perm_0"), val = tensor<int32, [4]>([0, 2, -3, -1])];
            tensor<int32, [4]> transpose_155_perm_0 = const()[name = tensor<string, []>("transpose_155_perm_0"), val = tensor<int32, [4]>([0, 2, -1, -3])];
            tensor<fp16, [1, 12, 64, 128]> transpose_157 = transpose(perm = transpose_155_perm_0, x = input_tensor_1139_cast_fp16)[name = tensor<string, []>("transpose_157")];
            tensor<fp16, [1, 12, 128, 64]> transpose_158 = transpose(perm = transpose_154_perm_0, x = input_tensor_1135_cast_fp16)[name = tensor<string, []>("transpose_158")];
            tensor<fp16, [1, 12, 128, 128]> first_351_cast_fp16 = matmul(transpose_x = first_351_transpose_x_0, transpose_y = first_351_transpose_y_0, x = transpose_158, y = transpose_157)[name = tensor<string, []>("first_351_cast_fp16")];
            tensor<fp16, []> _inversed_first_353_y_0_to_fp16 = const()[name = tensor<string, []>("_inversed_first_353_y_0_to_fp16"), val = tensor<fp16, []>(0x1p-3)];
            tensor<fp16, [1, 12, 128, 128]> _inversed_first_353_cast_fp16 = mul(x = first_351_cast_fp16, y = _inversed_first_353_y_0_to_fp16)[name = tensor<string, []>("_inversed_first_353_cast_fp16")];
            tensor<fp16, [1, 12, 128, 128]> input_45_cast_fp16 = add(x = _inversed_first_353_cast_fp16, y = second_31_cast_fp16)[name = tensor<string, []>("input_45_cast_fp16")];
            tensor<int32, []> var_8055 = const()[name = tensor<string, []>("op_8055"), val = tensor<int32, []>(-1)];
            tensor<fp16, [1, 12, 128, 128]> x_233_cast_fp16 = softmax(axis = var_8055, x = input_45_cast_fp16)[name = tensor<string, []>("x_233_cast_fp16")];
            tensor<bool, []> input_tensor_1141_transpose_x_0 = const()[name = tensor<string, []>("input_tensor_1141_transpose_x_0"), val = tensor<bool, []>(false)];
            tensor<bool, []> input_tensor_1141_transpose_y_0 = const()[name = tensor<string, []>("input_tensor_1141_transpose_y_0"), val = tensor<bool, []>(false)];
            tensor<fp16, [1, 12, 128, 64]> transpose_159 = transpose(perm = var_8042, x = input_tensor_1137_cast_fp16)[name = tensor<string, []>("transpose_159")];
            tensor<fp16, [1, 12, 128, 64]> input_tensor_1141_cast_fp16 = matmul(transpose_x = input_tensor_1141_transpose_x_0, transpose_y = input_tensor_1141_transpose_y_0, x = x_233_cast_fp16, y = transpose_159)[name = tensor<string, []>("input_tensor_1141_cast_fp16")];
            tensor<int32, [4]> var_8062 = const()[name = tensor<string, []>("op_8062"), val = tensor<int32, [4]>([0, 2, 1, 3])];
            tensor<int32, [3]> var_8100 = const()[name = tensor<string, []>("op_8100"), val = tensor<int32, [3]>([1, 128, 768])];
            tensor<fp16, [1, 128, 12, 64]> transpose_156 = transpose(perm = var_8062, x = input_tensor_1141_cast_fp16)[name = tensor<string, []>("transpose_156")];
            tensor<fp16, [1, 128, 768]> x_235_cast_fp16 = reshape(shape = var_8100, x = transpose_156)[name = tensor<string, []>("x_235_cast_fp16")];
            tensor<fp16, [768, 768]> transpose_80_to_fp16 = const()[name = tensor<string, []>("transpose_80_to_fp16"), val = tensor<fp16, [768, 768]>(BLOBFILE(path = tensor<string, []>("@model_path/weights/weight.bin"), offset = tensor<uint64, []>(258173824)))];
            tensor<fp16, [1, 128, 768]> first_355_cast_fp16 = linear(bias = first_25_bias_0_to_fp16, weight = transpose_80_to_fp16, x = x_235_cast_fp16)[name = tensor<string, []>("first_355_cast_fp16")];
            tensor<fp16, [1, 128, 768]> input_tensor_1151_cast_fp16 = add(x = first_355_cast_fp16, y = x_221_cast_fp16)[name = tensor<string, []>("input_tensor_1151_cast_fp16")];
            tensor<bool, []> var_8106 = const()[name = tensor<string, []>("op_8106"), val = tensor<bool, []>(true)];
            tensor<int32, [1]> var_8108 = const()[name = tensor<string, []>("op_8108"), val = tensor<int32, [1]>([-1])];
            tensor<fp16, [1, 128, 1]> second_451_cast_fp16 = reduce_mean(axes = var_8108, keep_dims = var_8106, x = input_tensor_1151_cast_fp16)[name = tensor<string, []>("second_451_cast_fp16")];
            tensor<fp16, [1, 128, 768]> input_tensor_1153_cast_fp16 = sub(x = input_tensor_1151_cast_fp16, y = second_451_cast_fp16)[name = tensor<string, []>("input_tensor_1153_cast_fp16")];
            tensor<fp16, []> initializers_onnx_initializer_981_to_fp16 = const()[name = tensor<string, []>("initializers_onnx_initializer_981_to_fp16"), val = tensor<fp16, []>(0x1p+1)];
            tensor<fp16, [1, 128, 768]> input_tensor_1155_cast_fp16 = pow(x = input_tensor_1153_cast_fp16, y = initializers_onnx_initializer_981_to_fp16)[name = tensor<string, []>("input_tensor_1155_cast_fp16")];
            tensor<bool, []> var_8114 = const()[name = tensor<string, []>("op_8114"), val = tensor<bool, []>(true)];
            tensor<int32, [1]> var_8116 = const()[name = tensor<string, []>("op_8116"), val = tensor<int32, [1]>([-1])];
            tensor<fp16, [1, 128, 1]> first_357_cast_fp16 = reduce_mean(axes = var_8116, keep_dims = var_8114, x = input_tensor_1155_cast_fp16)[name = tensor<string, []>("first_357_cast_fp16")];
            tensor<fp16, []> initializers_onnx_initializer_982_to_fp16 = const()[name = tensor<string, []>("initializers_onnx_initializer_982_to_fp16"), val = tensor<fp16, []>(0x1p-24)];
            tensor<fp16, [1, 128, 1]> input_tensor_1157_cast_fp16 = add(x = first_357_cast_fp16, y = initializers_onnx_initializer_982_to_fp16)[name = tensor<string, []>("input_tensor_1157_cast_fp16")];
            tensor<fp16, [1, 128, 1]> second_455_cast_fp16 = sqrt(x = input_tensor_1157_cast_fp16)[name = tensor<string, []>("second_455_cast_fp16")];
            tensor<fp16, [1, 128, 768]> first_359_cast_fp16 = real_div(x = input_tensor_1153_cast_fp16, y = second_455_cast_fp16)[name = tensor<string, []>("first_359_cast_fp16")];
            tensor<fp16, [768]> initializers_onnx_initializer_983_to_fp16 = const()[name = tensor<string, []>("initializers_onnx_initializer_983_to_fp16"), val = tensor<fp16, [768]>(BLOBFILE(path = tensor<string, []>("@model_path/weights/weight.bin"), offset = tensor<uint64, []>(259353536)))];
            tensor<fp16, [1, 128, 768]> first_361_cast_fp16 = mul(x = first_359_cast_fp16, y = initializers_onnx_initializer_983_to_fp16)[name = tensor<string, []>("first_361_cast_fp16")];
            tensor<fp16, [768]> initializers_onnx_initializer_984_to_fp16 = const()[name = tensor<string, []>("initializers_onnx_initializer_984_to_fp16"), val = tensor<fp16, [768]>(BLOBFILE(path = tensor<string, []>("@model_path/weights/weight.bin"), offset = tensor<uint64, []>(259355136)))];
            tensor<fp16, [1, 128, 768]> x_237_cast_fp16 = add(x = first_361_cast_fp16, y = initializers_onnx_initializer_984_to_fp16)[name = tensor<string, []>("x_237_cast_fp16")];
            tensor<fp16, [3072, 768]> transpose_81_to_fp16 = const()[name = tensor<string, []>("transpose_81_to_fp16"), val = tensor<fp16, [3072, 768]>(BLOBFILE(path = tensor<string, []>("@model_path/weights/weight.bin"), offset = tensor<uint64, []>(259356736)))];
            tensor<fp16, [1, 128, 3072]> first_363_cast_fp16 = linear(bias = first_33_bias_0_to_fp16, weight = transpose_81_to_fp16, x = x_237_cast_fp16)[name = tensor<string, []>("first_363_cast_fp16")];
            tensor<fp16, [3072, 768]> transpose_82_to_fp16 = const()[name = tensor<string, []>("transpose_82_to_fp16"), val = tensor<fp16, [3072, 768]>(BLOBFILE(path = tensor<string, []>("@model_path/weights/weight.bin"), offset = tensor<uint64, []>(264075392)))];
            tensor<fp16, [1, 128, 3072]> input_cast_fp16 = linear(bias = first_33_bias_0_to_fp16, weight = transpose_82_to_fp16, x = x_237_cast_fp16)[name = tensor<string, []>("input_cast_fp16")];
            tensor<fp16, [1, 128, 3072]> second_463_cast_fp16 = silu(x = input_cast_fp16)[name = tensor<string, []>("second_463_cast_fp16")];
            tensor<fp16, [1, 128, 3072]> x_cast_fp16 = mul(x = first_363_cast_fp16, y = second_463_cast_fp16)[name = tensor<string, []>("x_cast_fp16")];
            tensor<fp16, [768, 3072]> transpose_83_to_fp16 = const()[name = tensor<string, []>("transpose_83_to_fp16"), val = tensor<fp16, [768, 3072]>(BLOBFILE(path = tensor<string, []>("@model_path/weights/weight.bin"), offset = tensor<uint64, []>(268794048)))];
            tensor<fp16, [1, 128, 768]> first_365_cast_fp16 = linear(bias = first_25_bias_0_to_fp16, weight = transpose_83_to_fp16, x = x_cast_fp16)[name = tensor<string, []>("first_365_cast_fp16")];
            tensor<fp16, [1, 128, 768]> input_tensor_1159_cast_fp16 = add(x = first_365_cast_fp16, y = x_237_cast_fp16)[name = tensor<string, []>("input_tensor_1159_cast_fp16")];
            tensor<bool, []> var_8134 = const()[name = tensor<string, []>("op_8134"), val = tensor<bool, []>(true)];
            tensor<int32, [1]> var_8136 = const()[name = tensor<string, []>("op_8136"), val = tensor<int32, [1]>([-1])];
            tensor<fp16, [1, 128, 1]> second_465_cast_fp16 = reduce_mean(axes = var_8136, keep_dims = var_8134, x = input_tensor_1159_cast_fp16)[name = tensor<string, []>("second_465_cast_fp16")];
            tensor<fp16, [1, 128, 768]> input_tensor_1161_cast_fp16 = sub(x = input_tensor_1159_cast_fp16, y = second_465_cast_fp16)[name = tensor<string, []>("input_tensor_1161_cast_fp16")];
            tensor<fp16, []> initializers_onnx_initializer_988_to_fp16 = const()[name = tensor<string, []>("initializers_onnx_initializer_988_to_fp16"), val = tensor<fp16, []>(0x1p+1)];
            tensor<fp16, [1, 128, 768]> input_tensor_1163_cast_fp16 = pow(x = input_tensor_1161_cast_fp16, y = initializers_onnx_initializer_988_to_fp16)[name = tensor<string, []>("input_tensor_1163_cast_fp16")];
            tensor<bool, []> var_8142 = const()[name = tensor<string, []>("op_8142"), val = tensor<bool, []>(true)];
            tensor<int32, [1]> var_8144 = const()[name = tensor<string, []>("op_8144"), val = tensor<int32, [1]>([-1])];
            tensor<fp16, [1, 128, 1]> first_367_cast_fp16 = reduce_mean(axes = var_8144, keep_dims = var_8142, x = input_tensor_1163_cast_fp16)[name = tensor<string, []>("first_367_cast_fp16")];
            tensor<fp16, []> initializers_onnx_initializer_989_to_fp16 = const()[name = tensor<string, []>("initializers_onnx_initializer_989_to_fp16"), val = tensor<fp16, []>(0x1p-24)];
            tensor<fp16, [1, 128, 1]> input_tensor_cast_fp16 = add(x = first_367_cast_fp16, y = initializers_onnx_initializer_989_to_fp16)[name = tensor<string, []>("input_tensor_cast_fp16")];
            tensor<fp16, [1, 128, 1]> second_469_cast_fp16 = sqrt(x = input_tensor_cast_fp16)[name = tensor<string, []>("second_469_cast_fp16")];
            tensor<fp16, [1, 128, 768]> first_369_cast_fp16 = real_div(x = input_tensor_1161_cast_fp16, y = second_469_cast_fp16)[name = tensor<string, []>("first_369_cast_fp16")];
            tensor<fp16, [768]> initializers_onnx_initializer_990_to_fp16 = const()[name = tensor<string, []>("initializers_onnx_initializer_990_to_fp16"), val = tensor<fp16, [768]>(BLOBFILE(path = tensor<string, []>("@model_path/weights/weight.bin"), offset = tensor<uint64, []>(273512704)))];
            tensor<fp16, [1, 128, 768]> first_cast_fp16 = mul(x = first_369_cast_fp16, y = initializers_onnx_initializer_990_to_fp16)[name = tensor<string, []>("first_cast_fp16")];
            tensor<fp16, [768]> initializers_onnx_initializer_991_to_fp16 = const()[name = tensor<string, []>("initializers_onnx_initializer_991_to_fp16"), val = tensor<fp16, [768]>(BLOBFILE(path = tensor<string, []>("@model_path/weights/weight.bin"), offset = tensor<uint64, []>(273514304)))];
            tensor<fp16, [1, 128, 768]> var_8152_cast_fp16 = add(x = first_cast_fp16, y = initializers_onnx_initializer_991_to_fp16)[name = tensor<string, []>("op_8152_cast_fp16")];
            tensor<string, []> var_8152_cast_fp16_to_fp32_dtype_0 = const()[name = tensor<string, []>("op_8152_cast_fp16_to_fp32_dtype_0"), val = tensor<string, []>("fp32")];
            tensor<fp32, [1, 128, 768]> var_8152 = cast(dtype = var_8152_cast_fp16_to_fp32_dtype_0, x = var_8152_cast_fp16)[name = tensor<string, []>("cast_146")];
        } -> (var_8152);
}